<?xml version="1.0" ?>
<net name="face-reidentification-retail-0095" version="10">
	<layers>
		<layer id="0" name="0" type="Parameter" version="opset1">
			<data element_type="f16" shape="1,3,128,128"/>
			<output>
				<port id="0" precision="FP16">
					<dim>1</dim>
					<dim>3</dim>
					<dim>128</dim>
					<dim>128</dim>
				</port>
			</output>
		</layer>
		<layer id="1" name="0/reverse_input_channels20383/Concat20402_const479_const" type="Const" version="opset1">
			<data element_type="f16" offset="0" shape="1,3,1,1" size="6"/>
			<output>
				<port id="1" precision="FP16">
					<dim>1</dim>
					<dim>3</dim>
					<dim>1</dim>
					<dim>1</dim>
				</port>
			</output>
		</layer>
		<layer id="2" name="Mul_/Fused_Mul_" type="Multiply" version="opset1">
			<input>
				<port id="0">
					<dim>1</dim>
					<dim>3</dim>
					<dim>128</dim>
					<dim>128</dim>
				</port>
				<port id="1">
					<dim>1</dim>
					<dim>3</dim>
					<dim>1</dim>
					<dim>1</dim>
				</port>
			</input>
			<output>
				<port id="2" precision="FP16">
					<dim>1</dim>
					<dim>3</dim>
					<dim>128</dim>
					<dim>128</dim>
				</port>
			</output>
		</layer>
		<layer id="3" name="0/reverse_input_channels20385/Concat20410_const481_const" type="Const" version="opset1">
			<data element_type="f16" offset="6" shape="1,3,1,1" size="6"/>
			<output>
				<port id="1" precision="FP16">
					<dim>1</dim>
					<dim>3</dim>
					<dim>1</dim>
					<dim>1</dim>
				</port>
			</output>
		</layer>
		<layer id="4" name="409/variance/Fused_Add_" type="Add" version="opset1">
			<input>
				<port id="0">
					<dim>1</dim>
					<dim>3</dim>
					<dim>128</dim>
					<dim>128</dim>
				</port>
				<port id="1">
					<dim>1</dim>
					<dim>3</dim>
					<dim>1</dim>
					<dim>1</dim>
				</port>
			</input>
			<output>
				<port id="2" precision="FP16">
					<dim>1</dim>
					<dim>3</dim>
					<dim>128</dim>
					<dim>128</dim>
				</port>
			</output>
		</layer>
		<layer id="5" name="17981802_const" type="Const" version="opset1">
			<data element_type="f16" offset="12" shape="" size="2"/>
			<output>
				<port id="1" precision="FP16"/>
			</output>
		</layer>
		<layer id="6" name="17991803_const" type="Const" version="opset1">
			<data element_type="f16" offset="14" shape="" size="2"/>
			<output>
				<port id="1" precision="FP16"/>
			</output>
		</layer>
		<layer id="7" name="18001804_const" type="Const" version="opset1">
			<data element_type="f16" offset="12" shape="" size="2"/>
			<output>
				<port id="1" precision="FP16"/>
			</output>
		</layer>
		<layer id="8" name="18011805_const" type="Const" version="opset1">
			<data element_type="f16" offset="14" shape="" size="2"/>
			<output>
				<port id="1" precision="FP16"/>
			</output>
		</layer>
		<layer id="9" name="410/fq_input_0" type="FakeQuantize" version="opset1">
			<data levels="256"/>
			<input>
				<port id="0">
					<dim>1</dim>
					<dim>3</dim>
					<dim>128</dim>
					<dim>128</dim>
				</port>
				<port id="1"/>
				<port id="2"/>
				<port id="3"/>
				<port id="4"/>
			</input>
			<output>
				<port id="5" precision="FP16">
					<dim>1</dim>
					<dim>3</dim>
					<dim>128</dim>
					<dim>128</dim>
				</port>
			</output>
		</layer>
		<layer id="10" name="410/fq_weights_1/Convert_to_float/Cast_08856_const" type="Const" version="opset1">
			<data element_type="u8" offset="16" shape="64,3,3,3" size="1728"/>
			<output>
				<port id="1" precision="U8">
					<dim>64</dim>
					<dim>3</dim>
					<dim>3</dim>
					<dim>3</dim>
				</port>
			</output>
		</layer>
		<layer id="11" name="410/fq_weights_1/Convert_to_float" type="Convert" version="opset1">
			<data destination_type="f16"/>
			<input>
				<port id="0">
					<dim>64</dim>
					<dim>3</dim>
					<dim>3</dim>
					<dim>3</dim>
				</port>
			</input>
			<output>
				<port id="1" precision="FP16">
					<dim>64</dim>
					<dim>3</dim>
					<dim>3</dim>
					<dim>3</dim>
				</port>
			</output>
		</layer>
		<layer id="12" name="410/fq_weights_1/Copy/out_low7726_const" type="Const" version="opset1">
			<data element_type="f16" offset="1744" shape="1" size="2"/>
			<output>
				<port id="1" precision="FP16">
					<dim>1</dim>
				</port>
			</output>
		</layer>
		<layer id="13" name="410/fq_weights_1/Copy/out_high7727_const" type="Const" version="opset1">
			<data element_type="f16" offset="1746" shape="1" size="2"/>
			<output>
				<port id="1" precision="FP16">
					<dim>1</dim>
				</port>
			</output>
		</layer>
		<layer id="14" name="18101814_const" type="Const" version="opset1">
			<data element_type="f16" offset="1748" shape="64,1,1,1" size="128"/>
			<output>
				<port id="1" precision="FP16">
					<dim>64</dim>
					<dim>1</dim>
					<dim>1</dim>
					<dim>1</dim>
				</port>
			</output>
		</layer>
		<layer id="15" name="18111815_const" type="Const" version="opset1">
			<data element_type="f16" offset="1876" shape="64,1,1,1" size="128"/>
			<output>
				<port id="1" precision="FP16">
					<dim>64</dim>
					<dim>1</dim>
					<dim>1</dim>
					<dim>1</dim>
				</port>
			</output>
		</layer>
		<layer id="16" name="410/fq_weights_1" type="FakeQuantize" version="opset1">
			<data levels="255"/>
			<input>
				<port id="0">
					<dim>64</dim>
					<dim>3</dim>
					<dim>3</dim>
					<dim>3</dim>
				</port>
				<port id="1">
					<dim>1</dim>
				</port>
				<port id="2">
					<dim>1</dim>
				</port>
				<port id="3">
					<dim>64</dim>
					<dim>1</dim>
					<dim>1</dim>
					<dim>1</dim>
				</port>
				<port id="4">
					<dim>64</dim>
					<dim>1</dim>
					<dim>1</dim>
					<dim>1</dim>
				</port>
			</input>
			<output>
				<port id="5" precision="FP16">
					<dim>64</dim>
					<dim>3</dim>
					<dim>3</dim>
					<dim>3</dim>
				</port>
			</output>
		</layer>
		<layer id="17" name="410" type="Convolution" version="opset1">
			<data dilations="1,1" output_padding="0,0" pads_begin="1,1" pads_end="1,1" strides="2,2"/>
			<input>
				<port id="0">
					<dim>1</dim>
					<dim>3</dim>
					<dim>128</dim>
					<dim>128</dim>
				</port>
				<port id="1">
					<dim>64</dim>
					<dim>3</dim>
					<dim>3</dim>
					<dim>3</dim>
				</port>
			</input>
			<output>
				<port id="2" precision="FP16">
					<dim>1</dim>
					<dim>64</dim>
					<dim>64</dim>
					<dim>64</dim>
				</port>
			</output>
		</layer>
		<layer id="18" name="data_add_1266912674/copy_const485_const" type="Const" version="opset1">
			<data element_type="f16" offset="2004" shape="1,64,1,1" size="128"/>
			<output>
				<port id="1" precision="FP16">
					<dim>1</dim>
					<dim>64</dim>
					<dim>1</dim>
					<dim>1</dim>
				</port>
			</output>
		</layer>
		<layer id="19" name="411/variance/Fused_Add_" type="Add" version="opset1">
			<input>
				<port id="0">
					<dim>1</dim>
					<dim>64</dim>
					<dim>64</dim>
					<dim>64</dim>
				</port>
				<port id="1">
					<dim>1</dim>
					<dim>64</dim>
					<dim>1</dim>
					<dim>1</dim>
				</port>
			</input>
			<output>
				<port id="2" precision="FP16">
					<dim>1</dim>
					<dim>64</dim>
					<dim>64</dim>
					<dim>64</dim>
				</port>
			</output>
		</layer>
		<layer id="20" name="412/Cast_18858_const" type="Const" version="opset1">
			<data element_type="f32" offset="2132" shape="1" size="4"/>
			<output>
				<port id="1" precision="FP32">
					<dim>1</dim>
				</port>
			</output>
		</layer>
		<layer id="21" name="412" type="PReLU" version="opset1">
			<input>
				<port id="0">
					<dim>1</dim>
					<dim>64</dim>
					<dim>64</dim>
					<dim>64</dim>
				</port>
				<port id="1">
					<dim>1</dim>
				</port>
			</input>
			<output>
				<port id="2" precision="FP16">
					<dim>1</dim>
					<dim>64</dim>
					<dim>64</dim>
					<dim>64</dim>
				</port>
			</output>
		</layer>
		<layer id="22" name="21882192_const" type="Const" version="opset1">
			<data element_type="f16" offset="2136" shape="1,64,1,1" size="128"/>
			<output>
				<port id="1" precision="FP16">
					<dim>1</dim>
					<dim>64</dim>
					<dim>1</dim>
					<dim>1</dim>
				</port>
			</output>
		</layer>
		<layer id="23" name="21892193_const" type="Const" version="opset1">
			<data element_type="f16" offset="2264" shape="1,64,1,1" size="128"/>
			<output>
				<port id="1" precision="FP16">
					<dim>1</dim>
					<dim>64</dim>
					<dim>1</dim>
					<dim>1</dim>
				</port>
			</output>
		</layer>
		<layer id="24" name="21902194_const" type="Const" version="opset1">
			<data element_type="f16" offset="2136" shape="1,64,1,1" size="128"/>
			<output>
				<port id="1" precision="FP16">
					<dim>1</dim>
					<dim>64</dim>
					<dim>1</dim>
					<dim>1</dim>
				</port>
			</output>
		</layer>
		<layer id="25" name="21912195_const" type="Const" version="opset1">
			<data element_type="f16" offset="2264" shape="1,64,1,1" size="128"/>
			<output>
				<port id="1" precision="FP16">
					<dim>1</dim>
					<dim>64</dim>
					<dim>1</dim>
					<dim>1</dim>
				</port>
			</output>
		</layer>
		<layer id="26" name="413/fq_input_0" type="FakeQuantize" version="opset1">
			<data levels="256"/>
			<input>
				<port id="0">
					<dim>1</dim>
					<dim>64</dim>
					<dim>64</dim>
					<dim>64</dim>
				</port>
				<port id="1">
					<dim>1</dim>
					<dim>64</dim>
					<dim>1</dim>
					<dim>1</dim>
				</port>
				<port id="2">
					<dim>1</dim>
					<dim>64</dim>
					<dim>1</dim>
					<dim>1</dim>
				</port>
				<port id="3">
					<dim>1</dim>
					<dim>64</dim>
					<dim>1</dim>
					<dim>1</dim>
				</port>
				<port id="4">
					<dim>1</dim>
					<dim>64</dim>
					<dim>1</dim>
					<dim>1</dim>
				</port>
			</input>
			<output>
				<port id="5" precision="FP16">
					<dim>1</dim>
					<dim>64</dim>
					<dim>64</dim>
					<dim>64</dim>
				</port>
			</output>
		</layer>
		<layer id="27" name="413/fq_weights_1/Convert_to_float/Cast_08868_const" type="Const" version="opset1">
			<data element_type="u8" offset="2392" shape="64,1,3,3" size="576"/>
			<output>
				<port id="1" precision="U8">
					<dim>64</dim>
					<dim>1</dim>
					<dim>3</dim>
					<dim>3</dim>
				</port>
			</output>
		</layer>
		<layer id="28" name="413/fq_weights_1/Convert_to_float" type="Convert" version="opset1">
			<data destination_type="f16"/>
			<input>
				<port id="0">
					<dim>64</dim>
					<dim>1</dim>
					<dim>3</dim>
					<dim>3</dim>
				</port>
			</input>
			<output>
				<port id="1" precision="FP16">
					<dim>64</dim>
					<dim>1</dim>
					<dim>3</dim>
					<dim>3</dim>
				</port>
			</output>
		</layer>
		<layer id="29" name="413/fq_weights_1/Copy/out_low7270_const" type="Const" version="opset1">
			<data element_type="f16" offset="1744" shape="1" size="2"/>
			<output>
				<port id="1" precision="FP16">
					<dim>1</dim>
				</port>
			</output>
		</layer>
		<layer id="30" name="413/fq_weights_1/Copy/out_high7271_const" type="Const" version="opset1">
			<data element_type="f16" offset="1746" shape="1" size="2"/>
			<output>
				<port id="1" precision="FP16">
					<dim>1</dim>
				</port>
			</output>
		</layer>
		<layer id="31" name="22002204_const" type="Const" version="opset1">
			<data element_type="f16" offset="2968" shape="64,1,1,1" size="128"/>
			<output>
				<port id="1" precision="FP16">
					<dim>64</dim>
					<dim>1</dim>
					<dim>1</dim>
					<dim>1</dim>
				</port>
			</output>
		</layer>
		<layer id="32" name="22012205_const" type="Const" version="opset1">
			<data element_type="f16" offset="3096" shape="64,1,1,1" size="128"/>
			<output>
				<port id="1" precision="FP16">
					<dim>64</dim>
					<dim>1</dim>
					<dim>1</dim>
					<dim>1</dim>
				</port>
			</output>
		</layer>
		<layer id="33" name="413/fq_weights_1" type="FakeQuantize" version="opset1">
			<data levels="255"/>
			<input>
				<port id="0">
					<dim>64</dim>
					<dim>1</dim>
					<dim>3</dim>
					<dim>3</dim>
				</port>
				<port id="1">
					<dim>1</dim>
				</port>
				<port id="2">
					<dim>1</dim>
				</port>
				<port id="3">
					<dim>64</dim>
					<dim>1</dim>
					<dim>1</dim>
					<dim>1</dim>
				</port>
				<port id="4">
					<dim>64</dim>
					<dim>1</dim>
					<dim>1</dim>
					<dim>1</dim>
				</port>
			</input>
			<output>
				<port id="5" precision="FP16">
					<dim>64</dim>
					<dim>1</dim>
					<dim>3</dim>
					<dim>3</dim>
				</port>
			</output>
		</layer>
		<layer id="34" name="10099/value10101_const" type="Const" version="opset1">
			<data element_type="i64" offset="3224" shape="5" size="40"/>
			<output>
				<port id="1" precision="I64">
					<dim>5</dim>
				</port>
			</output>
		</layer>
		<layer id="35" name="10099" type="Reshape" version="opset1">
			<data special_zero="True"/>
			<input>
				<port id="0">
					<dim>64</dim>
					<dim>1</dim>
					<dim>3</dim>
					<dim>3</dim>
				</port>
				<port id="1">
					<dim>5</dim>
				</port>
			</input>
			<output>
				<port id="2" precision="FP16">
					<dim>64</dim>
					<dim>1</dim>
					<dim>1</dim>
					<dim>3</dim>
					<dim>3</dim>
				</port>
			</output>
		</layer>
		<layer id="36" name="413" type="GroupConvolution" version="opset1">
			<data dilations="1,1" output_padding="0,0" pads_begin="1,1" pads_end="1,1" strides="1,1"/>
			<input>
				<port id="0">
					<dim>1</dim>
					<dim>64</dim>
					<dim>64</dim>
					<dim>64</dim>
				</port>
				<port id="1">
					<dim>64</dim>
					<dim>1</dim>
					<dim>1</dim>
					<dim>3</dim>
					<dim>3</dim>
				</port>
			</input>
			<output>
				<port id="2" precision="FP16">
					<dim>1</dim>
					<dim>64</dim>
					<dim>64</dim>
					<dim>64</dim>
				</port>
			</output>
		</layer>
		<layer id="37" name="data_add_1267712682/copy_const491_const" type="Const" version="opset1">
			<data element_type="f16" offset="3264" shape="1,64,1,1" size="128"/>
			<output>
				<port id="1" precision="FP16">
					<dim>1</dim>
					<dim>64</dim>
					<dim>1</dim>
					<dim>1</dim>
				</port>
			</output>
		</layer>
		<layer id="38" name="414/variance/Fused_Add_" type="Add" version="opset1">
			<input>
				<port id="0">
					<dim>1</dim>
					<dim>64</dim>
					<dim>64</dim>
					<dim>64</dim>
				</port>
				<port id="1">
					<dim>1</dim>
					<dim>64</dim>
					<dim>1</dim>
					<dim>1</dim>
				</port>
			</input>
			<output>
				<port id="2" precision="FP16">
					<dim>1</dim>
					<dim>64</dim>
					<dim>64</dim>
					<dim>64</dim>
				</port>
			</output>
		</layer>
		<layer id="39" name="415/Cast_18844_const" type="Const" version="opset1">
			<data element_type="f32" offset="3392" shape="1" size="4"/>
			<output>
				<port id="1" precision="FP32">
					<dim>1</dim>
				</port>
			</output>
		</layer>
		<layer id="40" name="415" type="PReLU" version="opset1">
			<input>
				<port id="0">
					<dim>1</dim>
					<dim>64</dim>
					<dim>64</dim>
					<dim>64</dim>
				</port>
				<port id="1">
					<dim>1</dim>
				</port>
			</input>
			<output>
				<port id="2" precision="FP16">
					<dim>1</dim>
					<dim>64</dim>
					<dim>64</dim>
					<dim>64</dim>
				</port>
			</output>
		</layer>
		<layer id="41" name="28182822_const" type="Const" version="opset1">
			<data element_type="f16" offset="3396" shape="" size="2"/>
			<output>
				<port id="1" precision="FP16"/>
			</output>
		</layer>
		<layer id="42" name="28192823_const" type="Const" version="opset1">
			<data element_type="f16" offset="3398" shape="" size="2"/>
			<output>
				<port id="1" precision="FP16"/>
			</output>
		</layer>
		<layer id="43" name="28202824_const" type="Const" version="opset1">
			<data element_type="f16" offset="3396" shape="" size="2"/>
			<output>
				<port id="1" precision="FP16"/>
			</output>
		</layer>
		<layer id="44" name="28212825_const" type="Const" version="opset1">
			<data element_type="f16" offset="3398" shape="" size="2"/>
			<output>
				<port id="1" precision="FP16"/>
			</output>
		</layer>
		<layer id="45" name="416/fq_input_0" type="FakeQuantize" version="opset1">
			<data levels="256"/>
			<input>
				<port id="0">
					<dim>1</dim>
					<dim>64</dim>
					<dim>64</dim>
					<dim>64</dim>
				</port>
				<port id="1"/>
				<port id="2"/>
				<port id="3"/>
				<port id="4"/>
			</input>
			<output>
				<port id="5" precision="FP16">
					<dim>1</dim>
					<dim>64</dim>
					<dim>64</dim>
					<dim>64</dim>
				</port>
			</output>
		</layer>
		<layer id="46" name="416/fq_weights_1/Convert_to_float/Cast_08818_const" type="Const" version="opset1">
			<data element_type="u8" offset="3400" shape="128,64,1,1" size="8192"/>
			<output>
				<port id="1" precision="U8">
					<dim>128</dim>
					<dim>64</dim>
					<dim>1</dim>
					<dim>1</dim>
				</port>
			</output>
		</layer>
		<layer id="47" name="416/fq_weights_1/Convert_to_float" type="Convert" version="opset1">
			<data destination_type="f16"/>
			<input>
				<port id="0">
					<dim>128</dim>
					<dim>64</dim>
					<dim>1</dim>
					<dim>1</dim>
				</port>
			</input>
			<output>
				<port id="1" precision="FP16">
					<dim>128</dim>
					<dim>64</dim>
					<dim>1</dim>
					<dim>1</dim>
				</port>
			</output>
		</layer>
		<layer id="48" name="416/fq_weights_1/Copy/out_low7662_const" type="Const" version="opset1">
			<data element_type="f16" offset="1744" shape="1" size="2"/>
			<output>
				<port id="1" precision="FP16">
					<dim>1</dim>
				</port>
			</output>
		</layer>
		<layer id="49" name="416/fq_weights_1/Copy/out_high7663_const" type="Const" version="opset1">
			<data element_type="f16" offset="1746" shape="1" size="2"/>
			<output>
				<port id="1" precision="FP16">
					<dim>1</dim>
				</port>
			</output>
		</layer>
		<layer id="50" name="28302834_const" type="Const" version="opset1">
			<data element_type="f16" offset="11592" shape="128,1,1,1" size="256"/>
			<output>
				<port id="1" precision="FP16">
					<dim>128</dim>
					<dim>1</dim>
					<dim>1</dim>
					<dim>1</dim>
				</port>
			</output>
		</layer>
		<layer id="51" name="28312835_const" type="Const" version="opset1">
			<data element_type="f16" offset="11848" shape="128,1,1,1" size="256"/>
			<output>
				<port id="1" precision="FP16">
					<dim>128</dim>
					<dim>1</dim>
					<dim>1</dim>
					<dim>1</dim>
				</port>
			</output>
		</layer>
		<layer id="52" name="416/fq_weights_1" type="FakeQuantize" version="opset1">
			<data levels="255"/>
			<input>
				<port id="0">
					<dim>128</dim>
					<dim>64</dim>
					<dim>1</dim>
					<dim>1</dim>
				</port>
				<port id="1">
					<dim>1</dim>
				</port>
				<port id="2">
					<dim>1</dim>
				</port>
				<port id="3">
					<dim>128</dim>
					<dim>1</dim>
					<dim>1</dim>
					<dim>1</dim>
				</port>
				<port id="4">
					<dim>128</dim>
					<dim>1</dim>
					<dim>1</dim>
					<dim>1</dim>
				</port>
			</input>
			<output>
				<port id="5" precision="FP16">
					<dim>128</dim>
					<dim>64</dim>
					<dim>1</dim>
					<dim>1</dim>
				</port>
			</output>
		</layer>
		<layer id="53" name="416" type="Convolution" version="opset1">
			<data dilations="1,1" output_padding="0,0" pads_begin="0,0" pads_end="0,0" strides="1,1"/>
			<input>
				<port id="0">
					<dim>1</dim>
					<dim>64</dim>
					<dim>64</dim>
					<dim>64</dim>
				</port>
				<port id="1">
					<dim>128</dim>
					<dim>64</dim>
					<dim>1</dim>
					<dim>1</dim>
				</port>
			</input>
			<output>
				<port id="2" precision="FP16">
					<dim>1</dim>
					<dim>128</dim>
					<dim>64</dim>
					<dim>64</dim>
				</port>
			</output>
		</layer>
		<layer id="54" name="data_add_1268512690/copy_const497_const" type="Const" version="opset1">
			<data element_type="f16" offset="12104" shape="1,128,1,1" size="256"/>
			<output>
				<port id="1" precision="FP16">
					<dim>1</dim>
					<dim>128</dim>
					<dim>1</dim>
					<dim>1</dim>
				</port>
			</output>
		</layer>
		<layer id="55" name="417/variance/Fused_Add_" type="Add" version="opset1">
			<input>
				<port id="0">
					<dim>1</dim>
					<dim>128</dim>
					<dim>64</dim>
					<dim>64</dim>
				</port>
				<port id="1">
					<dim>1</dim>
					<dim>128</dim>
					<dim>1</dim>
					<dim>1</dim>
				</port>
			</input>
			<output>
				<port id="2" precision="FP16">
					<dim>1</dim>
					<dim>128</dim>
					<dim>64</dim>
					<dim>64</dim>
				</port>
			</output>
		</layer>
		<layer id="56" name="418/Cast_19014_const" type="Const" version="opset1">
			<data element_type="f32" offset="12360" shape="1" size="4"/>
			<output>
				<port id="1" precision="FP32">
					<dim>1</dim>
				</port>
			</output>
		</layer>
		<layer id="57" name="418" type="PReLU" version="opset1">
			<input>
				<port id="0">
					<dim>1</dim>
					<dim>128</dim>
					<dim>64</dim>
					<dim>64</dim>
				</port>
				<port id="1">
					<dim>1</dim>
				</port>
			</input>
			<output>
				<port id="2" precision="FP16">
					<dim>1</dim>
					<dim>128</dim>
					<dim>64</dim>
					<dim>64</dim>
				</port>
			</output>
		</layer>
		<layer id="58" name="36183622_const" type="Const" version="opset1">
			<data element_type="f16" offset="12364" shape="1,128,1,1" size="256"/>
			<output>
				<port id="1" precision="FP16">
					<dim>1</dim>
					<dim>128</dim>
					<dim>1</dim>
					<dim>1</dim>
				</port>
			</output>
		</layer>
		<layer id="59" name="36193623_const" type="Const" version="opset1">
			<data element_type="f16" offset="12620" shape="1,128,1,1" size="256"/>
			<output>
				<port id="1" precision="FP16">
					<dim>1</dim>
					<dim>128</dim>
					<dim>1</dim>
					<dim>1</dim>
				</port>
			</output>
		</layer>
		<layer id="60" name="36203624_const" type="Const" version="opset1">
			<data element_type="f16" offset="12364" shape="1,128,1,1" size="256"/>
			<output>
				<port id="1" precision="FP16">
					<dim>1</dim>
					<dim>128</dim>
					<dim>1</dim>
					<dim>1</dim>
				</port>
			</output>
		</layer>
		<layer id="61" name="36213625_const" type="Const" version="opset1">
			<data element_type="f16" offset="12620" shape="1,128,1,1" size="256"/>
			<output>
				<port id="1" precision="FP16">
					<dim>1</dim>
					<dim>128</dim>
					<dim>1</dim>
					<dim>1</dim>
				</port>
			</output>
		</layer>
		<layer id="62" name="419/fq_input_0" type="FakeQuantize" version="opset1">
			<data levels="256"/>
			<input>
				<port id="0">
					<dim>1</dim>
					<dim>128</dim>
					<dim>64</dim>
					<dim>64</dim>
				</port>
				<port id="1">
					<dim>1</dim>
					<dim>128</dim>
					<dim>1</dim>
					<dim>1</dim>
				</port>
				<port id="2">
					<dim>1</dim>
					<dim>128</dim>
					<dim>1</dim>
					<dim>1</dim>
				</port>
				<port id="3">
					<dim>1</dim>
					<dim>128</dim>
					<dim>1</dim>
					<dim>1</dim>
				</port>
				<port id="4">
					<dim>1</dim>
					<dim>128</dim>
					<dim>1</dim>
					<dim>1</dim>
				</port>
			</input>
			<output>
				<port id="5" precision="FP16">
					<dim>1</dim>
					<dim>128</dim>
					<dim>64</dim>
					<dim>64</dim>
				</port>
			</output>
		</layer>
		<layer id="63" name="419/fq_weights_1/Convert_to_float/Cast_08966_const" type="Const" version="opset1">
			<data element_type="u8" offset="12876" shape="128,1,3,3" size="1152"/>
			<output>
				<port id="1" precision="U8">
					<dim>128</dim>
					<dim>1</dim>
					<dim>3</dim>
					<dim>3</dim>
				</port>
			</output>
		</layer>
		<layer id="64" name="419/fq_weights_1/Convert_to_float" type="Convert" version="opset1">
			<data destination_type="f16"/>
			<input>
				<port id="0">
					<dim>128</dim>
					<dim>1</dim>
					<dim>3</dim>
					<dim>3</dim>
				</port>
			</input>
			<output>
				<port id="1" precision="FP16">
					<dim>128</dim>
					<dim>1</dim>
					<dim>3</dim>
					<dim>3</dim>
				</port>
			</output>
		</layer>
		<layer id="65" name="419/fq_weights_1/Copy/out_low7198_const" type="Const" version="opset1">
			<data element_type="f16" offset="1744" shape="1" size="2"/>
			<output>
				<port id="1" precision="FP16">
					<dim>1</dim>
				</port>
			</output>
		</layer>
		<layer id="66" name="419/fq_weights_1/Copy/out_high7199_const" type="Const" version="opset1">
			<data element_type="f16" offset="1746" shape="1" size="2"/>
			<output>
				<port id="1" precision="FP16">
					<dim>1</dim>
				</port>
			</output>
		</layer>
		<layer id="67" name="36303634_const" type="Const" version="opset1">
			<data element_type="f16" offset="14028" shape="128,1,1,1" size="256"/>
			<output>
				<port id="1" precision="FP16">
					<dim>128</dim>
					<dim>1</dim>
					<dim>1</dim>
					<dim>1</dim>
				</port>
			</output>
		</layer>
		<layer id="68" name="36313635_const" type="Const" version="opset1">
			<data element_type="f16" offset="14284" shape="128,1,1,1" size="256"/>
			<output>
				<port id="1" precision="FP16">
					<dim>128</dim>
					<dim>1</dim>
					<dim>1</dim>
					<dim>1</dim>
				</port>
			</output>
		</layer>
		<layer id="69" name="419/fq_weights_1" type="FakeQuantize" version="opset1">
			<data levels="255"/>
			<input>
				<port id="0">
					<dim>128</dim>
					<dim>1</dim>
					<dim>3</dim>
					<dim>3</dim>
				</port>
				<port id="1">
					<dim>1</dim>
				</port>
				<port id="2">
					<dim>1</dim>
				</port>
				<port id="3">
					<dim>128</dim>
					<dim>1</dim>
					<dim>1</dim>
					<dim>1</dim>
				</port>
				<port id="4">
					<dim>128</dim>
					<dim>1</dim>
					<dim>1</dim>
					<dim>1</dim>
				</port>
			</input>
			<output>
				<port id="5" precision="FP16">
					<dim>128</dim>
					<dim>1</dim>
					<dim>3</dim>
					<dim>3</dim>
				</port>
			</output>
		</layer>
		<layer id="70" name="10119/value10121_const" type="Const" version="opset1">
			<data element_type="i64" offset="14540" shape="5" size="40"/>
			<output>
				<port id="1" precision="I64">
					<dim>5</dim>
				</port>
			</output>
		</layer>
		<layer id="71" name="10119" type="Reshape" version="opset1">
			<data special_zero="True"/>
			<input>
				<port id="0">
					<dim>128</dim>
					<dim>1</dim>
					<dim>3</dim>
					<dim>3</dim>
				</port>
				<port id="1">
					<dim>5</dim>
				</port>
			</input>
			<output>
				<port id="2" precision="FP16">
					<dim>128</dim>
					<dim>1</dim>
					<dim>1</dim>
					<dim>3</dim>
					<dim>3</dim>
				</port>
			</output>
		</layer>
		<layer id="72" name="419" type="GroupConvolution" version="opset1">
			<data dilations="1,1" output_padding="0,0" pads_begin="1,1" pads_end="1,1" strides="2,2"/>
			<input>
				<port id="0">
					<dim>1</dim>
					<dim>128</dim>
					<dim>64</dim>
					<dim>64</dim>
				</port>
				<port id="1">
					<dim>128</dim>
					<dim>1</dim>
					<dim>1</dim>
					<dim>3</dim>
					<dim>3</dim>
				</port>
			</input>
			<output>
				<port id="2" precision="FP16">
					<dim>1</dim>
					<dim>128</dim>
					<dim>32</dim>
					<dim>32</dim>
				</port>
			</output>
		</layer>
		<layer id="73" name="data_add_1269312698/copy_const503_const" type="Const" version="opset1">
			<data element_type="f16" offset="14580" shape="1,128,1,1" size="256"/>
			<output>
				<port id="1" precision="FP16">
					<dim>1</dim>
					<dim>128</dim>
					<dim>1</dim>
					<dim>1</dim>
				</port>
			</output>
		</layer>
		<layer id="74" name="420/variance/Fused_Add_" type="Add" version="opset1">
			<input>
				<port id="0">
					<dim>1</dim>
					<dim>128</dim>
					<dim>32</dim>
					<dim>32</dim>
				</port>
				<port id="1">
					<dim>1</dim>
					<dim>128</dim>
					<dim>1</dim>
					<dim>1</dim>
				</port>
			</input>
			<output>
				<port id="2" precision="FP16">
					<dim>1</dim>
					<dim>128</dim>
					<dim>32</dim>
					<dim>32</dim>
				</port>
			</output>
		</layer>
		<layer id="75" name="421/Cast_18910_const" type="Const" version="opset1">
			<data element_type="f32" offset="14836" shape="1" size="4"/>
			<output>
				<port id="1" precision="FP32">
					<dim>1</dim>
				</port>
			</output>
		</layer>
		<layer id="76" name="421" type="PReLU" version="opset1">
			<input>
				<port id="0">
					<dim>1</dim>
					<dim>128</dim>
					<dim>32</dim>
					<dim>32</dim>
				</port>
				<port id="1">
					<dim>1</dim>
				</port>
			</input>
			<output>
				<port id="2" precision="FP16">
					<dim>1</dim>
					<dim>128</dim>
					<dim>32</dim>
					<dim>32</dim>
				</port>
			</output>
		</layer>
		<layer id="77" name="26282632_const" type="Const" version="opset1">
			<data element_type="f16" offset="14840" shape="" size="2"/>
			<output>
				<port id="1" precision="FP16"/>
			</output>
		</layer>
		<layer id="78" name="26292633_const" type="Const" version="opset1">
			<data element_type="f16" offset="14842" shape="" size="2"/>
			<output>
				<port id="1" precision="FP16"/>
			</output>
		</layer>
		<layer id="79" name="26302634_const" type="Const" version="opset1">
			<data element_type="f16" offset="14840" shape="" size="2"/>
			<output>
				<port id="1" precision="FP16"/>
			</output>
		</layer>
		<layer id="80" name="26312635_const" type="Const" version="opset1">
			<data element_type="f16" offset="14842" shape="" size="2"/>
			<output>
				<port id="1" precision="FP16"/>
			</output>
		</layer>
		<layer id="81" name="422/fq_input_0" type="FakeQuantize" version="opset1">
			<data levels="256"/>
			<input>
				<port id="0">
					<dim>1</dim>
					<dim>128</dim>
					<dim>32</dim>
					<dim>32</dim>
				</port>
				<port id="1"/>
				<port id="2"/>
				<port id="3"/>
				<port id="4"/>
			</input>
			<output>
				<port id="5" precision="FP16">
					<dim>1</dim>
					<dim>128</dim>
					<dim>32</dim>
					<dim>32</dim>
				</port>
			</output>
		</layer>
		<layer id="82" name="422/fq_weights_1/Convert_to_float/Cast_08814_const" type="Const" version="opset1">
			<data element_type="u8" offset="14844" shape="64,128,1,1" size="8192"/>
			<output>
				<port id="1" precision="U8">
					<dim>64</dim>
					<dim>128</dim>
					<dim>1</dim>
					<dim>1</dim>
				</port>
			</output>
		</layer>
		<layer id="83" name="422/fq_weights_1/Convert_to_float" type="Convert" version="opset1">
			<data destination_type="f16"/>
			<input>
				<port id="0">
					<dim>64</dim>
					<dim>128</dim>
					<dim>1</dim>
					<dim>1</dim>
				</port>
			</input>
			<output>
				<port id="1" precision="FP16">
					<dim>64</dim>
					<dim>128</dim>
					<dim>1</dim>
					<dim>1</dim>
				</port>
			</output>
		</layer>
		<layer id="84" name="422/fq_weights_1/Copy/out_low7254_const" type="Const" version="opset1">
			<data element_type="f16" offset="1744" shape="1" size="2"/>
			<output>
				<port id="1" precision="FP16">
					<dim>1</dim>
				</port>
			</output>
		</layer>
		<layer id="85" name="422/fq_weights_1/Copy/out_high7255_const" type="Const" version="opset1">
			<data element_type="f16" offset="1746" shape="1" size="2"/>
			<output>
				<port id="1" precision="FP16">
					<dim>1</dim>
				</port>
			</output>
		</layer>
		<layer id="86" name="26402644_const" type="Const" version="opset1">
			<data element_type="f16" offset="23036" shape="64,1,1,1" size="128"/>
			<output>
				<port id="1" precision="FP16">
					<dim>64</dim>
					<dim>1</dim>
					<dim>1</dim>
					<dim>1</dim>
				</port>
			</output>
		</layer>
		<layer id="87" name="26412645_const" type="Const" version="opset1">
			<data element_type="f16" offset="23164" shape="64,1,1,1" size="128"/>
			<output>
				<port id="1" precision="FP16">
					<dim>64</dim>
					<dim>1</dim>
					<dim>1</dim>
					<dim>1</dim>
				</port>
			</output>
		</layer>
		<layer id="88" name="422/fq_weights_1" type="FakeQuantize" version="opset1">
			<data levels="255"/>
			<input>
				<port id="0">
					<dim>64</dim>
					<dim>128</dim>
					<dim>1</dim>
					<dim>1</dim>
				</port>
				<port id="1">
					<dim>1</dim>
				</port>
				<port id="2">
					<dim>1</dim>
				</port>
				<port id="3">
					<dim>64</dim>
					<dim>1</dim>
					<dim>1</dim>
					<dim>1</dim>
				</port>
				<port id="4">
					<dim>64</dim>
					<dim>1</dim>
					<dim>1</dim>
					<dim>1</dim>
				</port>
			</input>
			<output>
				<port id="5" precision="FP16">
					<dim>64</dim>
					<dim>128</dim>
					<dim>1</dim>
					<dim>1</dim>
				</port>
			</output>
		</layer>
		<layer id="89" name="422" type="Convolution" version="opset1">
			<data dilations="1,1" output_padding="0,0" pads_begin="0,0" pads_end="0,0" strides="1,1"/>
			<input>
				<port id="0">
					<dim>1</dim>
					<dim>128</dim>
					<dim>32</dim>
					<dim>32</dim>
				</port>
				<port id="1">
					<dim>64</dim>
					<dim>128</dim>
					<dim>1</dim>
					<dim>1</dim>
				</port>
			</input>
			<output>
				<port id="2" precision="FP16">
					<dim>1</dim>
					<dim>64</dim>
					<dim>32</dim>
					<dim>32</dim>
				</port>
			</output>
		</layer>
		<layer id="90" name="data_add_1270112706/copy_const509_const" type="Const" version="opset1">
			<data element_type="f16" offset="23292" shape="1,64,1,1" size="128"/>
			<output>
				<port id="1" precision="FP16">
					<dim>1</dim>
					<dim>64</dim>
					<dim>1</dim>
					<dim>1</dim>
				</port>
			</output>
		</layer>
		<layer id="91" name="423/variance/Fused_Add_" type="Add" version="opset1">
			<input>
				<port id="0">
					<dim>1</dim>
					<dim>64</dim>
					<dim>32</dim>
					<dim>32</dim>
				</port>
				<port id="1">
					<dim>1</dim>
					<dim>64</dim>
					<dim>1</dim>
					<dim>1</dim>
				</port>
			</input>
			<output>
				<port id="2" precision="FP16">
					<dim>1</dim>
					<dim>64</dim>
					<dim>32</dim>
					<dim>32</dim>
				</port>
			</output>
		</layer>
		<layer id="92" name="23382342_const" type="Const" version="opset1">
			<data element_type="f16" offset="23420" shape="" size="2"/>
			<output>
				<port id="1" precision="FP16"/>
			</output>
		</layer>
		<layer id="93" name="23392343_const" type="Const" version="opset1">
			<data element_type="f16" offset="23422" shape="" size="2"/>
			<output>
				<port id="1" precision="FP16"/>
			</output>
		</layer>
		<layer id="94" name="23402344_const" type="Const" version="opset1">
			<data element_type="f16" offset="23420" shape="" size="2"/>
			<output>
				<port id="1" precision="FP16"/>
			</output>
		</layer>
		<layer id="95" name="23412345_const" type="Const" version="opset1">
			<data element_type="f16" offset="23422" shape="" size="2"/>
			<output>
				<port id="1" precision="FP16"/>
			</output>
		</layer>
		<layer id="96" name="425/fq_input_0" type="FakeQuantize" version="opset1">
			<data levels="256"/>
			<input>
				<port id="0">
					<dim>1</dim>
					<dim>64</dim>
					<dim>32</dim>
					<dim>32</dim>
				</port>
				<port id="1"/>
				<port id="2"/>
				<port id="3"/>
				<port id="4"/>
			</input>
			<output>
				<port id="5" precision="FP16">
					<dim>1</dim>
					<dim>64</dim>
					<dim>32</dim>
					<dim>32</dim>
				</port>
			</output>
		</layer>
		<layer id="97" name="425" type="AvgPool" version="opset1">
			<data exclude-pad="true" kernel="32,32" pads_begin="0,0" pads_end="0,0" rounding_type="floor" strides="32,32"/>
			<input>
				<port id="0">
					<dim>1</dim>
					<dim>64</dim>
					<dim>32</dim>
					<dim>32</dim>
				</port>
			</input>
			<output>
				<port id="1" precision="FP16">
					<dim>1</dim>
					<dim>64</dim>
					<dim>1</dim>
					<dim>1</dim>
				</port>
			</output>
		</layer>
		<layer id="98" name="25582562_const" type="Const" version="opset1">
			<data element_type="f16" offset="23424" shape="" size="2"/>
			<output>
				<port id="1" precision="FP16"/>
			</output>
		</layer>
		<layer id="99" name="25592563_const" type="Const" version="opset1">
			<data element_type="f16" offset="23426" shape="" size="2"/>
			<output>
				<port id="1" precision="FP16"/>
			</output>
		</layer>
		<layer id="100" name="25602564_const" type="Const" version="opset1">
			<data element_type="f16" offset="23424" shape="" size="2"/>
			<output>
				<port id="1" precision="FP16"/>
			</output>
		</layer>
		<layer id="101" name="25612565_const" type="Const" version="opset1">
			<data element_type="f16" offset="23426" shape="" size="2"/>
			<output>
				<port id="1" precision="FP16"/>
			</output>
		</layer>
		<layer id="102" name="426/WithoutBiases/fq_input_0" type="FakeQuantize" version="opset1">
			<data levels="256"/>
			<input>
				<port id="0">
					<dim>1</dim>
					<dim>64</dim>
					<dim>1</dim>
					<dim>1</dim>
				</port>
				<port id="1"/>
				<port id="2"/>
				<port id="3"/>
				<port id="4"/>
			</input>
			<output>
				<port id="5" precision="FP16">
					<dim>1</dim>
					<dim>64</dim>
					<dim>1</dim>
					<dim>1</dim>
				</port>
			</output>
		</layer>
		<layer id="103" name="426/WithoutBiases/fq_weights_1/Convert_to_float/Cast_09030_const" type="Const" version="opset1">
			<data element_type="u8" offset="23428" shape="8,64,1,1" size="512"/>
			<output>
				<port id="1" precision="U8">
					<dim>8</dim>
					<dim>64</dim>
					<dim>1</dim>
					<dim>1</dim>
				</port>
			</output>
		</layer>
		<layer id="104" name="426/WithoutBiases/fq_weights_1/Convert_to_float" type="Convert" version="opset1">
			<data destination_type="f16"/>
			<input>
				<port id="0">
					<dim>8</dim>
					<dim>64</dim>
					<dim>1</dim>
					<dim>1</dim>
				</port>
			</input>
			<output>
				<port id="1" precision="FP16">
					<dim>8</dim>
					<dim>64</dim>
					<dim>1</dim>
					<dim>1</dim>
				</port>
			</output>
		</layer>
		<layer id="105" name="426/WithoutBiases/fq_weights_1/Copy/out_low7366_const" type="Const" version="opset1">
			<data element_type="f16" offset="1744" shape="1" size="2"/>
			<output>
				<port id="1" precision="FP16">
					<dim>1</dim>
				</port>
			</output>
		</layer>
		<layer id="106" name="426/WithoutBiases/fq_weights_1/Copy/out_high7367_const" type="Const" version="opset1">
			<data element_type="f16" offset="1746" shape="1" size="2"/>
			<output>
				<port id="1" precision="FP16">
					<dim>1</dim>
				</port>
			</output>
		</layer>
		<layer id="107" name="25702574_const" type="Const" version="opset1">
			<data element_type="f16" offset="23940" shape="8,1,1,1" size="16"/>
			<output>
				<port id="1" precision="FP16">
					<dim>8</dim>
					<dim>1</dim>
					<dim>1</dim>
					<dim>1</dim>
				</port>
			</output>
		</layer>
		<layer id="108" name="25712575_const" type="Const" version="opset1">
			<data element_type="f16" offset="23956" shape="8,1,1,1" size="16"/>
			<output>
				<port id="1" precision="FP16">
					<dim>8</dim>
					<dim>1</dim>
					<dim>1</dim>
					<dim>1</dim>
				</port>
			</output>
		</layer>
		<layer id="109" name="426/WithoutBiases/fq_weights_1" type="FakeQuantize" version="opset1">
			<data levels="255"/>
			<input>
				<port id="0">
					<dim>8</dim>
					<dim>64</dim>
					<dim>1</dim>
					<dim>1</dim>
				</port>
				<port id="1">
					<dim>1</dim>
				</port>
				<port id="2">
					<dim>1</dim>
				</port>
				<port id="3">
					<dim>8</dim>
					<dim>1</dim>
					<dim>1</dim>
					<dim>1</dim>
				</port>
				<port id="4">
					<dim>8</dim>
					<dim>1</dim>
					<dim>1</dim>
					<dim>1</dim>
				</port>
			</input>
			<output>
				<port id="5" precision="FP16">
					<dim>8</dim>
					<dim>64</dim>
					<dim>1</dim>
					<dim>1</dim>
				</port>
			</output>
		</layer>
		<layer id="110" name="426/WithoutBiases" type="Convolution" version="opset1">
			<data dilations="1,1" output_padding="0,0" pads_begin="0,0" pads_end="0,0" strides="1,1"/>
			<input>
				<port id="0">
					<dim>1</dim>
					<dim>64</dim>
					<dim>1</dim>
					<dim>1</dim>
				</port>
				<port id="1">
					<dim>8</dim>
					<dim>64</dim>
					<dim>1</dim>
					<dim>1</dim>
				</port>
			</input>
			<output>
				<port id="2" precision="FP16">
					<dim>1</dim>
					<dim>8</dim>
					<dim>1</dim>
					<dim>1</dim>
				</port>
			</output>
		</layer>
		<layer id="111" name="426/Dims8062/copy_const514_const" type="Const" version="opset1">
			<data element_type="f16" offset="23972" shape="1,8,1,1" size="16"/>
			<output>
				<port id="1" precision="FP16">
					<dim>1</dim>
					<dim>8</dim>
					<dim>1</dim>
					<dim>1</dim>
				</port>
			</output>
		</layer>
		<layer id="112" name="426" type="Add" version="opset1">
			<input>
				<port id="0">
					<dim>1</dim>
					<dim>8</dim>
					<dim>1</dim>
					<dim>1</dim>
				</port>
				<port id="1">
					<dim>1</dim>
					<dim>8</dim>
					<dim>1</dim>
					<dim>1</dim>
				</port>
			</input>
			<output>
				<port id="2" precision="FP16">
					<dim>1</dim>
					<dim>8</dim>
					<dim>1</dim>
					<dim>1</dim>
				</port>
			</output>
		</layer>
		<layer id="113" name="427/Cast_19036_const" type="Const" version="opset1">
			<data element_type="f32" offset="23988" shape="1" size="4"/>
			<output>
				<port id="1" precision="FP32">
					<dim>1</dim>
				</port>
			</output>
		</layer>
		<layer id="114" name="427" type="PReLU" version="opset1">
			<input>
				<port id="0">
					<dim>1</dim>
					<dim>8</dim>
					<dim>1</dim>
					<dim>1</dim>
				</port>
				<port id="1">
					<dim>1</dim>
				</port>
			</input>
			<output>
				<port id="2" precision="FP16">
					<dim>1</dim>
					<dim>8</dim>
					<dim>1</dim>
					<dim>1</dim>
				</port>
			</output>
		</layer>
		<layer id="115" name="18481852_const" type="Const" version="opset1">
			<data element_type="f16" offset="23992" shape="" size="2"/>
			<output>
				<port id="1" precision="FP16"/>
			</output>
		</layer>
		<layer id="116" name="18491853_const" type="Const" version="opset1">
			<data element_type="f16" offset="23994" shape="" size="2"/>
			<output>
				<port id="1" precision="FP16"/>
			</output>
		</layer>
		<layer id="117" name="18501854_const" type="Const" version="opset1">
			<data element_type="f16" offset="23992" shape="" size="2"/>
			<output>
				<port id="1" precision="FP16"/>
			</output>
		</layer>
		<layer id="118" name="18511855_const" type="Const" version="opset1">
			<data element_type="f16" offset="23994" shape="" size="2"/>
			<output>
				<port id="1" precision="FP16"/>
			</output>
		</layer>
		<layer id="119" name="428/WithoutBiases/fq_input_0" type="FakeQuantize" version="opset1">
			<data levels="256"/>
			<input>
				<port id="0">
					<dim>1</dim>
					<dim>8</dim>
					<dim>1</dim>
					<dim>1</dim>
				</port>
				<port id="1"/>
				<port id="2"/>
				<port id="3"/>
				<port id="4"/>
			</input>
			<output>
				<port id="5" precision="FP16">
					<dim>1</dim>
					<dim>8</dim>
					<dim>1</dim>
					<dim>1</dim>
				</port>
			</output>
		</layer>
		<layer id="120" name="428/WithoutBiases/fq_weights_1/Convert_to_float/Cast_08876_const" type="Const" version="opset1">
			<data element_type="u8" offset="23996" shape="64,8,1,1" size="512"/>
			<output>
				<port id="1" precision="U8">
					<dim>64</dim>
					<dim>8</dim>
					<dim>1</dim>
					<dim>1</dim>
				</port>
			</output>
		</layer>
		<layer id="121" name="428/WithoutBiases/fq_weights_1/Convert_to_float" type="Convert" version="opset1">
			<data destination_type="f16"/>
			<input>
				<port id="0">
					<dim>64</dim>
					<dim>8</dim>
					<dim>1</dim>
					<dim>1</dim>
				</port>
			</input>
			<output>
				<port id="1" precision="FP16">
					<dim>64</dim>
					<dim>8</dim>
					<dim>1</dim>
					<dim>1</dim>
				</port>
			</output>
		</layer>
		<layer id="122" name="428/WithoutBiases/fq_weights_1/Copy/out_low7382_const" type="Const" version="opset1">
			<data element_type="f16" offset="24508" shape="1" size="2"/>
			<output>
				<port id="1" precision="FP16">
					<dim>1</dim>
				</port>
			</output>
		</layer>
		<layer id="123" name="428/WithoutBiases/fq_weights_1/Copy/out_high7383_const" type="Const" version="opset1">
			<data element_type="f16" offset="1746" shape="1" size="2"/>
			<output>
				<port id="1" precision="FP16">
					<dim>1</dim>
				</port>
			</output>
		</layer>
		<layer id="124" name="18601864_const" type="Const" version="opset1">
			<data element_type="f16" offset="24510" shape="64,1,1,1" size="128"/>
			<output>
				<port id="1" precision="FP16">
					<dim>64</dim>
					<dim>1</dim>
					<dim>1</dim>
					<dim>1</dim>
				</port>
			</output>
		</layer>
		<layer id="125" name="18611865_const" type="Const" version="opset1">
			<data element_type="f16" offset="24638" shape="64,1,1,1" size="128"/>
			<output>
				<port id="1" precision="FP16">
					<dim>64</dim>
					<dim>1</dim>
					<dim>1</dim>
					<dim>1</dim>
				</port>
			</output>
		</layer>
		<layer id="126" name="428/WithoutBiases/fq_weights_1" type="FakeQuantize" version="opset1">
			<data levels="255"/>
			<input>
				<port id="0">
					<dim>64</dim>
					<dim>8</dim>
					<dim>1</dim>
					<dim>1</dim>
				</port>
				<port id="1">
					<dim>1</dim>
				</port>
				<port id="2">
					<dim>1</dim>
				</port>
				<port id="3">
					<dim>64</dim>
					<dim>1</dim>
					<dim>1</dim>
					<dim>1</dim>
				</port>
				<port id="4">
					<dim>64</dim>
					<dim>1</dim>
					<dim>1</dim>
					<dim>1</dim>
				</port>
			</input>
			<output>
				<port id="5" precision="FP16">
					<dim>64</dim>
					<dim>8</dim>
					<dim>1</dim>
					<dim>1</dim>
				</port>
			</output>
		</layer>
		<layer id="127" name="428/WithoutBiases" type="Convolution" version="opset1">
			<data dilations="1,1" output_padding="0,0" pads_begin="0,0" pads_end="0,0" strides="1,1"/>
			<input>
				<port id="0">
					<dim>1</dim>
					<dim>8</dim>
					<dim>1</dim>
					<dim>1</dim>
				</port>
				<port id="1">
					<dim>64</dim>
					<dim>8</dim>
					<dim>1</dim>
					<dim>1</dim>
				</port>
			</input>
			<output>
				<port id="2" precision="FP16">
					<dim>1</dim>
					<dim>64</dim>
					<dim>1</dim>
					<dim>1</dim>
				</port>
			</output>
		</layer>
		<layer id="128" name="428/Dims7972/copy_const520_const" type="Const" version="opset1">
			<data element_type="f16" offset="24766" shape="1,64,1,1" size="128"/>
			<output>
				<port id="1" precision="FP16">
					<dim>1</dim>
					<dim>64</dim>
					<dim>1</dim>
					<dim>1</dim>
				</port>
			</output>
		</layer>
		<layer id="129" name="428" type="Add" version="opset1">
			<input>
				<port id="0">
					<dim>1</dim>
					<dim>64</dim>
					<dim>1</dim>
					<dim>1</dim>
				</port>
				<port id="1">
					<dim>1</dim>
					<dim>64</dim>
					<dim>1</dim>
					<dim>1</dim>
				</port>
			</input>
			<output>
				<port id="2" precision="FP16">
					<dim>1</dim>
					<dim>64</dim>
					<dim>1</dim>
					<dim>1</dim>
				</port>
			</output>
		</layer>
		<layer id="130" name="429" type="Sigmoid" version="opset1">
			<input>
				<port id="0">
					<dim>1</dim>
					<dim>64</dim>
					<dim>1</dim>
					<dim>1</dim>
				</port>
			</input>
			<output>
				<port id="1" precision="FP16">
					<dim>1</dim>
					<dim>64</dim>
					<dim>1</dim>
					<dim>1</dim>
				</port>
			</output>
		</layer>
		<layer id="131" name="29482952_const" type="Const" version="opset1">
			<data element_type="f16" offset="24894" shape="" size="2"/>
			<output>
				<port id="1" precision="FP16"/>
			</output>
		</layer>
		<layer id="132" name="29492953_const" type="Const" version="opset1">
			<data element_type="f16" offset="24896" shape="" size="2"/>
			<output>
				<port id="1" precision="FP16"/>
			</output>
		</layer>
		<layer id="133" name="29502954_const" type="Const" version="opset1">
			<data element_type="f16" offset="24894" shape="" size="2"/>
			<output>
				<port id="1" precision="FP16"/>
			</output>
		</layer>
		<layer id="134" name="29512955_const" type="Const" version="opset1">
			<data element_type="f16" offset="24896" shape="" size="2"/>
			<output>
				<port id="1" precision="FP16"/>
			</output>
		</layer>
		<layer id="135" name="430/fq_input_1" type="FakeQuantize" version="opset1">
			<data levels="256"/>
			<input>
				<port id="0">
					<dim>1</dim>
					<dim>64</dim>
					<dim>1</dim>
					<dim>1</dim>
				</port>
				<port id="1"/>
				<port id="2"/>
				<port id="3"/>
				<port id="4"/>
			</input>
			<output>
				<port id="5" precision="FP16">
					<dim>1</dim>
					<dim>64</dim>
					<dim>1</dim>
					<dim>1</dim>
				</port>
			</output>
		</layer>
		<layer id="136" name="430" type="Multiply" version="opset1">
			<input>
				<port id="0">
					<dim>1</dim>
					<dim>64</dim>
					<dim>32</dim>
					<dim>32</dim>
				</port>
				<port id="1">
					<dim>1</dim>
					<dim>64</dim>
					<dim>1</dim>
					<dim>1</dim>
				</port>
			</input>
			<output>
				<port id="2" precision="FP16">
					<dim>1</dim>
					<dim>64</dim>
					<dim>32</dim>
					<dim>32</dim>
				</port>
			</output>
		</layer>
		<layer id="137" name="21482152_const" type="Const" version="opset1">
			<data element_type="f16" offset="24898" shape="" size="2"/>
			<output>
				<port id="1" precision="FP16"/>
			</output>
		</layer>
		<layer id="138" name="21492153_const" type="Const" version="opset1">
			<data element_type="f16" offset="24900" shape="" size="2"/>
			<output>
				<port id="1" precision="FP16"/>
			</output>
		</layer>
		<layer id="139" name="21502154_const" type="Const" version="opset1">
			<data element_type="f16" offset="24898" shape="" size="2"/>
			<output>
				<port id="1" precision="FP16"/>
			</output>
		</layer>
		<layer id="140" name="21512155_const" type="Const" version="opset1">
			<data element_type="f16" offset="24900" shape="" size="2"/>
			<output>
				<port id="1" precision="FP16"/>
			</output>
		</layer>
		<layer id="141" name="431/fq_input_0" type="FakeQuantize" version="opset1">
			<data levels="256"/>
			<input>
				<port id="0">
					<dim>1</dim>
					<dim>64</dim>
					<dim>32</dim>
					<dim>32</dim>
				</port>
				<port id="1"/>
				<port id="2"/>
				<port id="3"/>
				<port id="4"/>
			</input>
			<output>
				<port id="5" precision="FP16">
					<dim>1</dim>
					<dim>64</dim>
					<dim>32</dim>
					<dim>32</dim>
				</port>
			</output>
		</layer>
		<layer id="142" name="431/fq_weights_1/Convert_to_float/Cast_08836_const" type="Const" version="opset1">
			<data element_type="u8" offset="24902" shape="128,64,1,1" size="8192"/>
			<output>
				<port id="1" precision="U8">
					<dim>128</dim>
					<dim>64</dim>
					<dim>1</dim>
					<dim>1</dim>
				</port>
			</output>
		</layer>
		<layer id="143" name="431/fq_weights_1/Convert_to_float" type="Convert" version="opset1">
			<data destination_type="f16"/>
			<input>
				<port id="0">
					<dim>128</dim>
					<dim>64</dim>
					<dim>1</dim>
					<dim>1</dim>
				</port>
			</input>
			<output>
				<port id="1" precision="FP16">
					<dim>128</dim>
					<dim>64</dim>
					<dim>1</dim>
					<dim>1</dim>
				</port>
			</output>
		</layer>
		<layer id="144" name="431/fq_weights_1/Copy/out_low7758_const" type="Const" version="opset1">
			<data element_type="f16" offset="33094" shape="1" size="2"/>
			<output>
				<port id="1" precision="FP16">
					<dim>1</dim>
				</port>
			</output>
		</layer>
		<layer id="145" name="431/fq_weights_1/Copy/out_high7759_const" type="Const" version="opset1">
			<data element_type="f16" offset="1746" shape="1" size="2"/>
			<output>
				<port id="1" precision="FP16">
					<dim>1</dim>
				</port>
			</output>
		</layer>
		<layer id="146" name="21602164_const" type="Const" version="opset1">
			<data element_type="f16" offset="33096" shape="128,1,1,1" size="256"/>
			<output>
				<port id="1" precision="FP16">
					<dim>128</dim>
					<dim>1</dim>
					<dim>1</dim>
					<dim>1</dim>
				</port>
			</output>
		</layer>
		<layer id="147" name="21612165_const" type="Const" version="opset1">
			<data element_type="f16" offset="33352" shape="128,1,1,1" size="256"/>
			<output>
				<port id="1" precision="FP16">
					<dim>128</dim>
					<dim>1</dim>
					<dim>1</dim>
					<dim>1</dim>
				</port>
			</output>
		</layer>
		<layer id="148" name="431/fq_weights_1" type="FakeQuantize" version="opset1">
			<data levels="255"/>
			<input>
				<port id="0">
					<dim>128</dim>
					<dim>64</dim>
					<dim>1</dim>
					<dim>1</dim>
				</port>
				<port id="1">
					<dim>1</dim>
				</port>
				<port id="2">
					<dim>1</dim>
				</port>
				<port id="3">
					<dim>128</dim>
					<dim>1</dim>
					<dim>1</dim>
					<dim>1</dim>
				</port>
				<port id="4">
					<dim>128</dim>
					<dim>1</dim>
					<dim>1</dim>
					<dim>1</dim>
				</port>
			</input>
			<output>
				<port id="5" precision="FP16">
					<dim>128</dim>
					<dim>64</dim>
					<dim>1</dim>
					<dim>1</dim>
				</port>
			</output>
		</layer>
		<layer id="149" name="431" type="Convolution" version="opset1">
			<data dilations="1,1" output_padding="0,0" pads_begin="0,0" pads_end="0,0" strides="1,1"/>
			<input>
				<port id="0">
					<dim>1</dim>
					<dim>64</dim>
					<dim>32</dim>
					<dim>32</dim>
				</port>
				<port id="1">
					<dim>128</dim>
					<dim>64</dim>
					<dim>1</dim>
					<dim>1</dim>
				</port>
			</input>
			<output>
				<port id="2" precision="FP16">
					<dim>1</dim>
					<dim>128</dim>
					<dim>32</dim>
					<dim>32</dim>
				</port>
			</output>
		</layer>
		<layer id="150" name="data_add_1270912714/copy_const526_const" type="Const" version="opset1">
			<data element_type="f16" offset="33608" shape="1,128,1,1" size="256"/>
			<output>
				<port id="1" precision="FP16">
					<dim>1</dim>
					<dim>128</dim>
					<dim>1</dim>
					<dim>1</dim>
				</port>
			</output>
		</layer>
		<layer id="151" name="432/variance/Fused_Add_" type="Add" version="opset1">
			<input>
				<port id="0">
					<dim>1</dim>
					<dim>128</dim>
					<dim>32</dim>
					<dim>32</dim>
				</port>
				<port id="1">
					<dim>1</dim>
					<dim>128</dim>
					<dim>1</dim>
					<dim>1</dim>
				</port>
			</input>
			<output>
				<port id="2" precision="FP16">
					<dim>1</dim>
					<dim>128</dim>
					<dim>32</dim>
					<dim>32</dim>
				</port>
			</output>
		</layer>
		<layer id="152" name="433/Cast_19000_const" type="Const" version="opset1">
			<data element_type="f32" offset="33864" shape="1" size="4"/>
			<output>
				<port id="1" precision="FP32">
					<dim>1</dim>
				</port>
			</output>
		</layer>
		<layer id="153" name="433" type="PReLU" version="opset1">
			<input>
				<port id="0">
					<dim>1</dim>
					<dim>128</dim>
					<dim>32</dim>
					<dim>32</dim>
				</port>
				<port id="1">
					<dim>1</dim>
				</port>
			</input>
			<output>
				<port id="2" precision="FP16">
					<dim>1</dim>
					<dim>128</dim>
					<dim>32</dim>
					<dim>32</dim>
				</port>
			</output>
		</layer>
		<layer id="154" name="32683272_const" type="Const" version="opset1">
			<data element_type="f16" offset="33868" shape="1,128,1,1" size="256"/>
			<output>
				<port id="1" precision="FP16">
					<dim>1</dim>
					<dim>128</dim>
					<dim>1</dim>
					<dim>1</dim>
				</port>
			</output>
		</layer>
		<layer id="155" name="32693273_const" type="Const" version="opset1">
			<data element_type="f16" offset="34124" shape="1,128,1,1" size="256"/>
			<output>
				<port id="1" precision="FP16">
					<dim>1</dim>
					<dim>128</dim>
					<dim>1</dim>
					<dim>1</dim>
				</port>
			</output>
		</layer>
		<layer id="156" name="32703274_const" type="Const" version="opset1">
			<data element_type="f16" offset="33868" shape="1,128,1,1" size="256"/>
			<output>
				<port id="1" precision="FP16">
					<dim>1</dim>
					<dim>128</dim>
					<dim>1</dim>
					<dim>1</dim>
				</port>
			</output>
		</layer>
		<layer id="157" name="32713275_const" type="Const" version="opset1">
			<data element_type="f16" offset="34124" shape="1,128,1,1" size="256"/>
			<output>
				<port id="1" precision="FP16">
					<dim>1</dim>
					<dim>128</dim>
					<dim>1</dim>
					<dim>1</dim>
				</port>
			</output>
		</layer>
		<layer id="158" name="434/fq_input_0" type="FakeQuantize" version="opset1">
			<data levels="256"/>
			<input>
				<port id="0">
					<dim>1</dim>
					<dim>128</dim>
					<dim>32</dim>
					<dim>32</dim>
				</port>
				<port id="1">
					<dim>1</dim>
					<dim>128</dim>
					<dim>1</dim>
					<dim>1</dim>
				</port>
				<port id="2">
					<dim>1</dim>
					<dim>128</dim>
					<dim>1</dim>
					<dim>1</dim>
				</port>
				<port id="3">
					<dim>1</dim>
					<dim>128</dim>
					<dim>1</dim>
					<dim>1</dim>
				</port>
				<port id="4">
					<dim>1</dim>
					<dim>128</dim>
					<dim>1</dim>
					<dim>1</dim>
				</port>
			</input>
			<output>
				<port id="5" precision="FP16">
					<dim>1</dim>
					<dim>128</dim>
					<dim>32</dim>
					<dim>32</dim>
				</port>
			</output>
		</layer>
		<layer id="159" name="434/fq_weights_1/Convert_to_float/Cast_08852_const" type="Const" version="opset1">
			<data element_type="u8" offset="34380" shape="128,1,3,3" size="1152"/>
			<output>
				<port id="1" precision="U8">
					<dim>128</dim>
					<dim>1</dim>
					<dim>3</dim>
					<dim>3</dim>
				</port>
			</output>
		</layer>
		<layer id="160" name="434/fq_weights_1/Convert_to_float" type="Convert" version="opset1">
			<data destination_type="f16"/>
			<input>
				<port id="0">
					<dim>128</dim>
					<dim>1</dim>
					<dim>3</dim>
					<dim>3</dim>
				</port>
			</input>
			<output>
				<port id="1" precision="FP16">
					<dim>128</dim>
					<dim>1</dim>
					<dim>3</dim>
					<dim>3</dim>
				</port>
			</output>
		</layer>
		<layer id="161" name="434/fq_weights_1/Copy/out_low7422_const" type="Const" version="opset1">
			<data element_type="f16" offset="33094" shape="1" size="2"/>
			<output>
				<port id="1" precision="FP16">
					<dim>1</dim>
				</port>
			</output>
		</layer>
		<layer id="162" name="434/fq_weights_1/Copy/out_high7423_const" type="Const" version="opset1">
			<data element_type="f16" offset="1746" shape="1" size="2"/>
			<output>
				<port id="1" precision="FP16">
					<dim>1</dim>
				</port>
			</output>
		</layer>
		<layer id="163" name="32803284_const" type="Const" version="opset1">
			<data element_type="f16" offset="35532" shape="128,1,1,1" size="256"/>
			<output>
				<port id="1" precision="FP16">
					<dim>128</dim>
					<dim>1</dim>
					<dim>1</dim>
					<dim>1</dim>
				</port>
			</output>
		</layer>
		<layer id="164" name="32813285_const" type="Const" version="opset1">
			<data element_type="f16" offset="35788" shape="128,1,1,1" size="256"/>
			<output>
				<port id="1" precision="FP16">
					<dim>128</dim>
					<dim>1</dim>
					<dim>1</dim>
					<dim>1</dim>
				</port>
			</output>
		</layer>
		<layer id="165" name="434/fq_weights_1" type="FakeQuantize" version="opset1">
			<data levels="255"/>
			<input>
				<port id="0">
					<dim>128</dim>
					<dim>1</dim>
					<dim>3</dim>
					<dim>3</dim>
				</port>
				<port id="1">
					<dim>1</dim>
				</port>
				<port id="2">
					<dim>1</dim>
				</port>
				<port id="3">
					<dim>128</dim>
					<dim>1</dim>
					<dim>1</dim>
					<dim>1</dim>
				</port>
				<port id="4">
					<dim>128</dim>
					<dim>1</dim>
					<dim>1</dim>
					<dim>1</dim>
				</port>
			</input>
			<output>
				<port id="5" precision="FP16">
					<dim>128</dim>
					<dim>1</dim>
					<dim>3</dim>
					<dim>3</dim>
				</port>
			</output>
		</layer>
		<layer id="166" name="10111/value10113_const" type="Const" version="opset1">
			<data element_type="i64" offset="14540" shape="5" size="40"/>
			<output>
				<port id="1" precision="I64">
					<dim>5</dim>
				</port>
			</output>
		</layer>
		<layer id="167" name="10111" type="Reshape" version="opset1">
			<data special_zero="True"/>
			<input>
				<port id="0">
					<dim>128</dim>
					<dim>1</dim>
					<dim>3</dim>
					<dim>3</dim>
				</port>
				<port id="1">
					<dim>5</dim>
				</port>
			</input>
			<output>
				<port id="2" precision="FP16">
					<dim>128</dim>
					<dim>1</dim>
					<dim>1</dim>
					<dim>3</dim>
					<dim>3</dim>
				</port>
			</output>
		</layer>
		<layer id="168" name="434" type="GroupConvolution" version="opset1">
			<data dilations="1,1" output_padding="0,0" pads_begin="1,1" pads_end="1,1" strides="1,1"/>
			<input>
				<port id="0">
					<dim>1</dim>
					<dim>128</dim>
					<dim>32</dim>
					<dim>32</dim>
				</port>
				<port id="1">
					<dim>128</dim>
					<dim>1</dim>
					<dim>1</dim>
					<dim>3</dim>
					<dim>3</dim>
				</port>
			</input>
			<output>
				<port id="2" precision="FP16">
					<dim>1</dim>
					<dim>128</dim>
					<dim>32</dim>
					<dim>32</dim>
				</port>
			</output>
		</layer>
		<layer id="169" name="data_add_1271712722/copy_const532_const" type="Const" version="opset1">
			<data element_type="f16" offset="36044" shape="1,128,1,1" size="256"/>
			<output>
				<port id="1" precision="FP16">
					<dim>1</dim>
					<dim>128</dim>
					<dim>1</dim>
					<dim>1</dim>
				</port>
			</output>
		</layer>
		<layer id="170" name="435/variance/Fused_Add_" type="Add" version="opset1">
			<input>
				<port id="0">
					<dim>1</dim>
					<dim>128</dim>
					<dim>32</dim>
					<dim>32</dim>
				</port>
				<port id="1">
					<dim>1</dim>
					<dim>128</dim>
					<dim>1</dim>
					<dim>1</dim>
				</port>
			</input>
			<output>
				<port id="2" precision="FP16">
					<dim>1</dim>
					<dim>128</dim>
					<dim>32</dim>
					<dim>32</dim>
				</port>
			</output>
		</layer>
		<layer id="171" name="436/Cast_19056_const" type="Const" version="opset1">
			<data element_type="f32" offset="36300" shape="1" size="4"/>
			<output>
				<port id="1" precision="FP32">
					<dim>1</dim>
				</port>
			</output>
		</layer>
		<layer id="172" name="436" type="PReLU" version="opset1">
			<input>
				<port id="0">
					<dim>1</dim>
					<dim>128</dim>
					<dim>32</dim>
					<dim>32</dim>
				</port>
				<port id="1">
					<dim>1</dim>
				</port>
			</input>
			<output>
				<port id="2" precision="FP16">
					<dim>1</dim>
					<dim>128</dim>
					<dim>32</dim>
					<dim>32</dim>
				</port>
			</output>
		</layer>
		<layer id="173" name="31083112_const" type="Const" version="opset1">
			<data element_type="f16" offset="36304" shape="" size="2"/>
			<output>
				<port id="1" precision="FP16"/>
			</output>
		</layer>
		<layer id="174" name="31093113_const" type="Const" version="opset1">
			<data element_type="f16" offset="36306" shape="" size="2"/>
			<output>
				<port id="1" precision="FP16"/>
			</output>
		</layer>
		<layer id="175" name="31103114_const" type="Const" version="opset1">
			<data element_type="f16" offset="36304" shape="" size="2"/>
			<output>
				<port id="1" precision="FP16"/>
			</output>
		</layer>
		<layer id="176" name="31113115_const" type="Const" version="opset1">
			<data element_type="f16" offset="36306" shape="" size="2"/>
			<output>
				<port id="1" precision="FP16"/>
			</output>
		</layer>
		<layer id="177" name="437/fq_input_0" type="FakeQuantize" version="opset1">
			<data levels="256"/>
			<input>
				<port id="0">
					<dim>1</dim>
					<dim>128</dim>
					<dim>32</dim>
					<dim>32</dim>
				</port>
				<port id="1"/>
				<port id="2"/>
				<port id="3"/>
				<port id="4"/>
			</input>
			<output>
				<port id="5" precision="FP16">
					<dim>1</dim>
					<dim>128</dim>
					<dim>32</dim>
					<dim>32</dim>
				</port>
			</output>
		</layer>
		<layer id="178" name="437/fq_weights_1/Convert_to_float/Cast_08808_const" type="Const" version="opset1">
			<data element_type="u8" offset="36308" shape="64,128,1,1" size="8192"/>
			<output>
				<port id="1" precision="U8">
					<dim>64</dim>
					<dim>128</dim>
					<dim>1</dim>
					<dim>1</dim>
				</port>
			</output>
		</layer>
		<layer id="179" name="437/fq_weights_1/Convert_to_float" type="Convert" version="opset1">
			<data destination_type="f16"/>
			<input>
				<port id="0">
					<dim>64</dim>
					<dim>128</dim>
					<dim>1</dim>
					<dim>1</dim>
				</port>
			</input>
			<output>
				<port id="1" precision="FP16">
					<dim>64</dim>
					<dim>128</dim>
					<dim>1</dim>
					<dim>1</dim>
				</port>
			</output>
		</layer>
		<layer id="180" name="437/fq_weights_1/Copy/out_low7750_const" type="Const" version="opset1">
			<data element_type="f16" offset="33094" shape="1" size="2"/>
			<output>
				<port id="1" precision="FP16">
					<dim>1</dim>
				</port>
			</output>
		</layer>
		<layer id="181" name="437/fq_weights_1/Copy/out_high7751_const" type="Const" version="opset1">
			<data element_type="f16" offset="1746" shape="1" size="2"/>
			<output>
				<port id="1" precision="FP16">
					<dim>1</dim>
				</port>
			</output>
		</layer>
		<layer id="182" name="31203124_const" type="Const" version="opset1">
			<data element_type="f16" offset="44500" shape="64,1,1,1" size="128"/>
			<output>
				<port id="1" precision="FP16">
					<dim>64</dim>
					<dim>1</dim>
					<dim>1</dim>
					<dim>1</dim>
				</port>
			</output>
		</layer>
		<layer id="183" name="31213125_const" type="Const" version="opset1">
			<data element_type="f16" offset="44628" shape="64,1,1,1" size="128"/>
			<output>
				<port id="1" precision="FP16">
					<dim>64</dim>
					<dim>1</dim>
					<dim>1</dim>
					<dim>1</dim>
				</port>
			</output>
		</layer>
		<layer id="184" name="437/fq_weights_1" type="FakeQuantize" version="opset1">
			<data levels="255"/>
			<input>
				<port id="0">
					<dim>64</dim>
					<dim>128</dim>
					<dim>1</dim>
					<dim>1</dim>
				</port>
				<port id="1">
					<dim>1</dim>
				</port>
				<port id="2">
					<dim>1</dim>
				</port>
				<port id="3">
					<dim>64</dim>
					<dim>1</dim>
					<dim>1</dim>
					<dim>1</dim>
				</port>
				<port id="4">
					<dim>64</dim>
					<dim>1</dim>
					<dim>1</dim>
					<dim>1</dim>
				</port>
			</input>
			<output>
				<port id="5" precision="FP16">
					<dim>64</dim>
					<dim>128</dim>
					<dim>1</dim>
					<dim>1</dim>
				</port>
			</output>
		</layer>
		<layer id="185" name="437" type="Convolution" version="opset1">
			<data dilations="1,1" output_padding="0,0" pads_begin="0,0" pads_end="0,0" strides="1,1"/>
			<input>
				<port id="0">
					<dim>1</dim>
					<dim>128</dim>
					<dim>32</dim>
					<dim>32</dim>
				</port>
				<port id="1">
					<dim>64</dim>
					<dim>128</dim>
					<dim>1</dim>
					<dim>1</dim>
				</port>
			</input>
			<output>
				<port id="2" precision="FP16">
					<dim>1</dim>
					<dim>64</dim>
					<dim>32</dim>
					<dim>32</dim>
				</port>
			</output>
		</layer>
		<layer id="186" name="data_add_1272512730/copy_const538_const" type="Const" version="opset1">
			<data element_type="f16" offset="44756" shape="1,64,1,1" size="128"/>
			<output>
				<port id="1" precision="FP16">
					<dim>1</dim>
					<dim>64</dim>
					<dim>1</dim>
					<dim>1</dim>
				</port>
			</output>
		</layer>
		<layer id="187" name="438/variance/Fused_Add_" type="Add" version="opset1">
			<input>
				<port id="0">
					<dim>1</dim>
					<dim>64</dim>
					<dim>32</dim>
					<dim>32</dim>
				</port>
				<port id="1">
					<dim>1</dim>
					<dim>64</dim>
					<dim>1</dim>
					<dim>1</dim>
				</port>
			</input>
			<output>
				<port id="2" precision="FP16">
					<dim>1</dim>
					<dim>64</dim>
					<dim>32</dim>
					<dim>32</dim>
				</port>
			</output>
		</layer>
		<layer id="188" name="25282532_const" type="Const" version="opset1">
			<data element_type="f16" offset="44884" shape="" size="2"/>
			<output>
				<port id="1" precision="FP16"/>
			</output>
		</layer>
		<layer id="189" name="25292533_const" type="Const" version="opset1">
			<data element_type="f16" offset="44886" shape="" size="2"/>
			<output>
				<port id="1" precision="FP16"/>
			</output>
		</layer>
		<layer id="190" name="25302534_const" type="Const" version="opset1">
			<data element_type="f16" offset="44884" shape="" size="2"/>
			<output>
				<port id="1" precision="FP16"/>
			</output>
		</layer>
		<layer id="191" name="25312535_const" type="Const" version="opset1">
			<data element_type="f16" offset="44886" shape="" size="2"/>
			<output>
				<port id="1" precision="FP16"/>
			</output>
		</layer>
		<layer id="192" name="440/fq_input_0" type="FakeQuantize" version="opset1">
			<data levels="256"/>
			<input>
				<port id="0">
					<dim>1</dim>
					<dim>64</dim>
					<dim>32</dim>
					<dim>32</dim>
				</port>
				<port id="1"/>
				<port id="2"/>
				<port id="3"/>
				<port id="4"/>
			</input>
			<output>
				<port id="5" precision="FP16">
					<dim>1</dim>
					<dim>64</dim>
					<dim>32</dim>
					<dim>32</dim>
				</port>
			</output>
		</layer>
		<layer id="193" name="440" type="AvgPool" version="opset1">
			<data exclude-pad="true" kernel="32,32" pads_begin="0,0" pads_end="0,0" rounding_type="floor" strides="32,32"/>
			<input>
				<port id="0">
					<dim>1</dim>
					<dim>64</dim>
					<dim>32</dim>
					<dim>32</dim>
				</port>
			</input>
			<output>
				<port id="1" precision="FP16">
					<dim>1</dim>
					<dim>64</dim>
					<dim>1</dim>
					<dim>1</dim>
				</port>
			</output>
		</layer>
		<layer id="194" name="17581762_const" type="Const" version="opset1">
			<data element_type="f16" offset="44888" shape="" size="2"/>
			<output>
				<port id="1" precision="FP16"/>
			</output>
		</layer>
		<layer id="195" name="17591763_const" type="Const" version="opset1">
			<data element_type="f16" offset="44890" shape="" size="2"/>
			<output>
				<port id="1" precision="FP16"/>
			</output>
		</layer>
		<layer id="196" name="17601764_const" type="Const" version="opset1">
			<data element_type="f16" offset="44888" shape="" size="2"/>
			<output>
				<port id="1" precision="FP16"/>
			</output>
		</layer>
		<layer id="197" name="17611765_const" type="Const" version="opset1">
			<data element_type="f16" offset="44890" shape="" size="2"/>
			<output>
				<port id="1" precision="FP16"/>
			</output>
		</layer>
		<layer id="198" name="441/WithoutBiases/fq_input_0" type="FakeQuantize" version="opset1">
			<data levels="256"/>
			<input>
				<port id="0">
					<dim>1</dim>
					<dim>64</dim>
					<dim>1</dim>
					<dim>1</dim>
				</port>
				<port id="1"/>
				<port id="2"/>
				<port id="3"/>
				<port id="4"/>
			</input>
			<output>
				<port id="5" precision="FP16">
					<dim>1</dim>
					<dim>64</dim>
					<dim>1</dim>
					<dim>1</dim>
				</port>
			</output>
		</layer>
		<layer id="199" name="441/WithoutBiases/fq_weights_1/Convert_to_float/Cast_08894_const" type="Const" version="opset1">
			<data element_type="u8" offset="44892" shape="8,64,1,1" size="512"/>
			<output>
				<port id="1" precision="U8">
					<dim>8</dim>
					<dim>64</dim>
					<dim>1</dim>
					<dim>1</dim>
				</port>
			</output>
		</layer>
		<layer id="200" name="441/WithoutBiases/fq_weights_1/Convert_to_float" type="Convert" version="opset1">
			<data destination_type="f16"/>
			<input>
				<port id="0">
					<dim>8</dim>
					<dim>64</dim>
					<dim>1</dim>
					<dim>1</dim>
				</port>
			</input>
			<output>
				<port id="1" precision="FP16">
					<dim>8</dim>
					<dim>64</dim>
					<dim>1</dim>
					<dim>1</dim>
				</port>
			</output>
		</layer>
		<layer id="201" name="441/WithoutBiases/fq_weights_1/Copy/out_low7494_const" type="Const" version="opset1">
			<data element_type="f16" offset="33094" shape="1" size="2"/>
			<output>
				<port id="1" precision="FP16">
					<dim>1</dim>
				</port>
			</output>
		</layer>
		<layer id="202" name="441/WithoutBiases/fq_weights_1/Copy/out_high7495_const" type="Const" version="opset1">
			<data element_type="f16" offset="1746" shape="1" size="2"/>
			<output>
				<port id="1" precision="FP16">
					<dim>1</dim>
				</port>
			</output>
		</layer>
		<layer id="203" name="17701774_const" type="Const" version="opset1">
			<data element_type="f16" offset="45404" shape="8,1,1,1" size="16"/>
			<output>
				<port id="1" precision="FP16">
					<dim>8</dim>
					<dim>1</dim>
					<dim>1</dim>
					<dim>1</dim>
				</port>
			</output>
		</layer>
		<layer id="204" name="17711775_const" type="Const" version="opset1">
			<data element_type="f16" offset="45420" shape="8,1,1,1" size="16"/>
			<output>
				<port id="1" precision="FP16">
					<dim>8</dim>
					<dim>1</dim>
					<dim>1</dim>
					<dim>1</dim>
				</port>
			</output>
		</layer>
		<layer id="205" name="441/WithoutBiases/fq_weights_1" type="FakeQuantize" version="opset1">
			<data levels="255"/>
			<input>
				<port id="0">
					<dim>8</dim>
					<dim>64</dim>
					<dim>1</dim>
					<dim>1</dim>
				</port>
				<port id="1">
					<dim>1</dim>
				</port>
				<port id="2">
					<dim>1</dim>
				</port>
				<port id="3">
					<dim>8</dim>
					<dim>1</dim>
					<dim>1</dim>
					<dim>1</dim>
				</port>
				<port id="4">
					<dim>8</dim>
					<dim>1</dim>
					<dim>1</dim>
					<dim>1</dim>
				</port>
			</input>
			<output>
				<port id="5" precision="FP16">
					<dim>8</dim>
					<dim>64</dim>
					<dim>1</dim>
					<dim>1</dim>
				</port>
			</output>
		</layer>
		<layer id="206" name="441/WithoutBiases" type="Convolution" version="opset1">
			<data dilations="1,1" output_padding="0,0" pads_begin="0,0" pads_end="0,0" strides="1,1"/>
			<input>
				<port id="0">
					<dim>1</dim>
					<dim>64</dim>
					<dim>1</dim>
					<dim>1</dim>
				</port>
				<port id="1">
					<dim>8</dim>
					<dim>64</dim>
					<dim>1</dim>
					<dim>1</dim>
				</port>
			</input>
			<output>
				<port id="2" precision="FP16">
					<dim>1</dim>
					<dim>8</dim>
					<dim>1</dim>
					<dim>1</dim>
				</port>
			</output>
		</layer>
		<layer id="207" name="441/Dims8050/copy_const543_const" type="Const" version="opset1">
			<data element_type="f16" offset="45436" shape="1,8,1,1" size="16"/>
			<output>
				<port id="1" precision="FP16">
					<dim>1</dim>
					<dim>8</dim>
					<dim>1</dim>
					<dim>1</dim>
				</port>
			</output>
		</layer>
		<layer id="208" name="441" type="Add" version="opset1">
			<input>
				<port id="0">
					<dim>1</dim>
					<dim>8</dim>
					<dim>1</dim>
					<dim>1</dim>
				</port>
				<port id="1">
					<dim>1</dim>
					<dim>8</dim>
					<dim>1</dim>
					<dim>1</dim>
				</port>
			</input>
			<output>
				<port id="2" precision="FP16">
					<dim>1</dim>
					<dim>8</dim>
					<dim>1</dim>
					<dim>1</dim>
				</port>
			</output>
		</layer>
		<layer id="209" name="442/Cast_18986_const" type="Const" version="opset1">
			<data element_type="f32" offset="45452" shape="1" size="4"/>
			<output>
				<port id="1" precision="FP32">
					<dim>1</dim>
				</port>
			</output>
		</layer>
		<layer id="210" name="442" type="PReLU" version="opset1">
			<input>
				<port id="0">
					<dim>1</dim>
					<dim>8</dim>
					<dim>1</dim>
					<dim>1</dim>
				</port>
				<port id="1">
					<dim>1</dim>
				</port>
			</input>
			<output>
				<port id="2" precision="FP16">
					<dim>1</dim>
					<dim>8</dim>
					<dim>1</dim>
					<dim>1</dim>
				</port>
			</output>
		</layer>
		<layer id="211" name="35983602_const" type="Const" version="opset1">
			<data element_type="f16" offset="45456" shape="" size="2"/>
			<output>
				<port id="1" precision="FP16"/>
			</output>
		</layer>
		<layer id="212" name="35993603_const" type="Const" version="opset1">
			<data element_type="f16" offset="45458" shape="" size="2"/>
			<output>
				<port id="1" precision="FP16"/>
			</output>
		</layer>
		<layer id="213" name="36003604_const" type="Const" version="opset1">
			<data element_type="f16" offset="45456" shape="" size="2"/>
			<output>
				<port id="1" precision="FP16"/>
			</output>
		</layer>
		<layer id="214" name="36013605_const" type="Const" version="opset1">
			<data element_type="f16" offset="45458" shape="" size="2"/>
			<output>
				<port id="1" precision="FP16"/>
			</output>
		</layer>
		<layer id="215" name="443/WithoutBiases/fq_input_0" type="FakeQuantize" version="opset1">
			<data levels="256"/>
			<input>
				<port id="0">
					<dim>1</dim>
					<dim>8</dim>
					<dim>1</dim>
					<dim>1</dim>
				</port>
				<port id="1"/>
				<port id="2"/>
				<port id="3"/>
				<port id="4"/>
			</input>
			<output>
				<port id="5" precision="FP16">
					<dim>1</dim>
					<dim>8</dim>
					<dim>1</dim>
					<dim>1</dim>
				</port>
			</output>
		</layer>
		<layer id="216" name="443/WithoutBiases/fq_weights_1/Convert_to_float/Cast_09044_const" type="Const" version="opset1">
			<data element_type="u8" offset="45460" shape="64,8,1,1" size="512"/>
			<output>
				<port id="1" precision="U8">
					<dim>64</dim>
					<dim>8</dim>
					<dim>1</dim>
					<dim>1</dim>
				</port>
			</output>
		</layer>
		<layer id="217" name="443/WithoutBiases/fq_weights_1/Convert_to_float" type="Convert" version="opset1">
			<data destination_type="f16"/>
			<input>
				<port id="0">
					<dim>64</dim>
					<dim>8</dim>
					<dim>1</dim>
					<dim>1</dim>
				</port>
			</input>
			<output>
				<port id="1" precision="FP16">
					<dim>64</dim>
					<dim>8</dim>
					<dim>1</dim>
					<dim>1</dim>
				</port>
			</output>
		</layer>
		<layer id="218" name="443/WithoutBiases/fq_weights_1/Copy/out_low7238_const" type="Const" version="opset1">
			<data element_type="f16" offset="33094" shape="1" size="2"/>
			<output>
				<port id="1" precision="FP16">
					<dim>1</dim>
				</port>
			</output>
		</layer>
		<layer id="219" name="443/WithoutBiases/fq_weights_1/Copy/out_high7239_const" type="Const" version="opset1">
			<data element_type="f16" offset="1746" shape="1" size="2"/>
			<output>
				<port id="1" precision="FP16">
					<dim>1</dim>
				</port>
			</output>
		</layer>
		<layer id="220" name="36103614_const" type="Const" version="opset1">
			<data element_type="f16" offset="45972" shape="64,1,1,1" size="128"/>
			<output>
				<port id="1" precision="FP16">
					<dim>64</dim>
					<dim>1</dim>
					<dim>1</dim>
					<dim>1</dim>
				</port>
			</output>
		</layer>
		<layer id="221" name="36113615_const" type="Const" version="opset1">
			<data element_type="f16" offset="46100" shape="64,1,1,1" size="128"/>
			<output>
				<port id="1" precision="FP16">
					<dim>64</dim>
					<dim>1</dim>
					<dim>1</dim>
					<dim>1</dim>
				</port>
			</output>
		</layer>
		<layer id="222" name="443/WithoutBiases/fq_weights_1" type="FakeQuantize" version="opset1">
			<data levels="255"/>
			<input>
				<port id="0">
					<dim>64</dim>
					<dim>8</dim>
					<dim>1</dim>
					<dim>1</dim>
				</port>
				<port id="1">
					<dim>1</dim>
				</port>
				<port id="2">
					<dim>1</dim>
				</port>
				<port id="3">
					<dim>64</dim>
					<dim>1</dim>
					<dim>1</dim>
					<dim>1</dim>
				</port>
				<port id="4">
					<dim>64</dim>
					<dim>1</dim>
					<dim>1</dim>
					<dim>1</dim>
				</port>
			</input>
			<output>
				<port id="5" precision="FP16">
					<dim>64</dim>
					<dim>8</dim>
					<dim>1</dim>
					<dim>1</dim>
				</port>
			</output>
		</layer>
		<layer id="223" name="443/WithoutBiases" type="Convolution" version="opset1">
			<data dilations="1,1" output_padding="0,0" pads_begin="0,0" pads_end="0,0" strides="1,1"/>
			<input>
				<port id="0">
					<dim>1</dim>
					<dim>8</dim>
					<dim>1</dim>
					<dim>1</dim>
				</port>
				<port id="1">
					<dim>64</dim>
					<dim>8</dim>
					<dim>1</dim>
					<dim>1</dim>
				</port>
			</input>
			<output>
				<port id="2" precision="FP16">
					<dim>1</dim>
					<dim>64</dim>
					<dim>1</dim>
					<dim>1</dim>
				</port>
			</output>
		</layer>
		<layer id="224" name="443/Dims8038/copy_const549_const" type="Const" version="opset1">
			<data element_type="f16" offset="46228" shape="1,64,1,1" size="128"/>
			<output>
				<port id="1" precision="FP16">
					<dim>1</dim>
					<dim>64</dim>
					<dim>1</dim>
					<dim>1</dim>
				</port>
			</output>
		</layer>
		<layer id="225" name="443" type="Add" version="opset1">
			<input>
				<port id="0">
					<dim>1</dim>
					<dim>64</dim>
					<dim>1</dim>
					<dim>1</dim>
				</port>
				<port id="1">
					<dim>1</dim>
					<dim>64</dim>
					<dim>1</dim>
					<dim>1</dim>
				</port>
			</input>
			<output>
				<port id="2" precision="FP16">
					<dim>1</dim>
					<dim>64</dim>
					<dim>1</dim>
					<dim>1</dim>
				</port>
			</output>
		</layer>
		<layer id="226" name="444" type="Sigmoid" version="opset1">
			<input>
				<port id="0">
					<dim>1</dim>
					<dim>64</dim>
					<dim>1</dim>
					<dim>1</dim>
				</port>
			</input>
			<output>
				<port id="1" precision="FP16">
					<dim>1</dim>
					<dim>64</dim>
					<dim>1</dim>
					<dim>1</dim>
				</port>
			</output>
		</layer>
		<layer id="227" name="33583362_const" type="Const" version="opset1">
			<data element_type="f16" offset="46356" shape="" size="2"/>
			<output>
				<port id="1" precision="FP16"/>
			</output>
		</layer>
		<layer id="228" name="33593363_const" type="Const" version="opset1">
			<data element_type="f16" offset="46358" shape="" size="2"/>
			<output>
				<port id="1" precision="FP16"/>
			</output>
		</layer>
		<layer id="229" name="33603364_const" type="Const" version="opset1">
			<data element_type="f16" offset="46356" shape="" size="2"/>
			<output>
				<port id="1" precision="FP16"/>
			</output>
		</layer>
		<layer id="230" name="33613365_const" type="Const" version="opset1">
			<data element_type="f16" offset="46358" shape="" size="2"/>
			<output>
				<port id="1" precision="FP16"/>
			</output>
		</layer>
		<layer id="231" name="445/fq_input_1" type="FakeQuantize" version="opset1">
			<data levels="256"/>
			<input>
				<port id="0">
					<dim>1</dim>
					<dim>64</dim>
					<dim>1</dim>
					<dim>1</dim>
				</port>
				<port id="1"/>
				<port id="2"/>
				<port id="3"/>
				<port id="4"/>
			</input>
			<output>
				<port id="5" precision="FP16">
					<dim>1</dim>
					<dim>64</dim>
					<dim>1</dim>
					<dim>1</dim>
				</port>
			</output>
		</layer>
		<layer id="232" name="445" type="Multiply" version="opset1">
			<input>
				<port id="0">
					<dim>1</dim>
					<dim>64</dim>
					<dim>32</dim>
					<dim>32</dim>
				</port>
				<port id="1">
					<dim>1</dim>
					<dim>64</dim>
					<dim>1</dim>
					<dim>1</dim>
				</port>
			</input>
			<output>
				<port id="2" precision="FP16">
					<dim>1</dim>
					<dim>64</dim>
					<dim>32</dim>
					<dim>32</dim>
				</port>
			</output>
		</layer>
		<layer id="233" name="27682772_const" type="Const" version="opset1">
			<data element_type="f16" offset="46360" shape="" size="2"/>
			<output>
				<port id="1" precision="FP16"/>
			</output>
		</layer>
		<layer id="234" name="27692773_const" type="Const" version="opset1">
			<data element_type="f16" offset="46362" shape="" size="2"/>
			<output>
				<port id="1" precision="FP16"/>
			</output>
		</layer>
		<layer id="235" name="27702774_const" type="Const" version="opset1">
			<data element_type="f16" offset="46360" shape="" size="2"/>
			<output>
				<port id="1" precision="FP16"/>
			</output>
		</layer>
		<layer id="236" name="27712775_const" type="Const" version="opset1">
			<data element_type="f16" offset="46362" shape="" size="2"/>
			<output>
				<port id="1" precision="FP16"/>
			</output>
		</layer>
		<layer id="237" name="446/fq_input_1" type="FakeQuantize" version="opset1">
			<data levels="256"/>
			<input>
				<port id="0">
					<dim>1</dim>
					<dim>64</dim>
					<dim>32</dim>
					<dim>32</dim>
				</port>
				<port id="1"/>
				<port id="2"/>
				<port id="3"/>
				<port id="4"/>
			</input>
			<output>
				<port id="5" precision="FP16">
					<dim>1</dim>
					<dim>64</dim>
					<dim>32</dim>
					<dim>32</dim>
				</port>
			</output>
		</layer>
		<layer id="238" name="446" type="Add" version="opset1">
			<input>
				<port id="0">
					<dim>1</dim>
					<dim>64</dim>
					<dim>32</dim>
					<dim>32</dim>
				</port>
				<port id="1">
					<dim>1</dim>
					<dim>64</dim>
					<dim>32</dim>
					<dim>32</dim>
				</port>
			</input>
			<output>
				<port id="2" precision="FP16">
					<dim>1</dim>
					<dim>64</dim>
					<dim>32</dim>
					<dim>32</dim>
				</port>
			</output>
		</layer>
		<layer id="239" name="27782782_const" type="Const" version="opset1">
			<data element_type="f16" offset="46364" shape="" size="2"/>
			<output>
				<port id="1" precision="FP16"/>
			</output>
		</layer>
		<layer id="240" name="27792783_const" type="Const" version="opset1">
			<data element_type="f16" offset="46366" shape="" size="2"/>
			<output>
				<port id="1" precision="FP16"/>
			</output>
		</layer>
		<layer id="241" name="27802784_const" type="Const" version="opset1">
			<data element_type="f16" offset="46364" shape="" size="2"/>
			<output>
				<port id="1" precision="FP16"/>
			</output>
		</layer>
		<layer id="242" name="27812785_const" type="Const" version="opset1">
			<data element_type="f16" offset="46366" shape="" size="2"/>
			<output>
				<port id="1" precision="FP16"/>
			</output>
		</layer>
		<layer id="243" name="447/fq_input_0" type="FakeQuantize" version="opset1">
			<data levels="256"/>
			<input>
				<port id="0">
					<dim>1</dim>
					<dim>64</dim>
					<dim>32</dim>
					<dim>32</dim>
				</port>
				<port id="1"/>
				<port id="2"/>
				<port id="3"/>
				<port id="4"/>
			</input>
			<output>
				<port id="5" precision="FP16">
					<dim>1</dim>
					<dim>64</dim>
					<dim>32</dim>
					<dim>32</dim>
				</port>
			</output>
		</layer>
		<layer id="244" name="447/fq_weights_1/Convert_to_float/Cast_09026_const" type="Const" version="opset1">
			<data element_type="u8" offset="46368" shape="128,64,1,1" size="8192"/>
			<output>
				<port id="1" precision="U8">
					<dim>128</dim>
					<dim>64</dim>
					<dim>1</dim>
					<dim>1</dim>
				</port>
			</output>
		</layer>
		<layer id="245" name="447/fq_weights_1/Convert_to_float" type="Convert" version="opset1">
			<data destination_type="f16"/>
			<input>
				<port id="0">
					<dim>128</dim>
					<dim>64</dim>
					<dim>1</dim>
					<dim>1</dim>
				</port>
			</input>
			<output>
				<port id="1" precision="FP16">
					<dim>128</dim>
					<dim>64</dim>
					<dim>1</dim>
					<dim>1</dim>
				</port>
			</output>
		</layer>
		<layer id="246" name="447/fq_weights_1/Copy/out_low7566_const" type="Const" version="opset1">
			<data element_type="f16" offset="54560" shape="1" size="2"/>
			<output>
				<port id="1" precision="FP16">
					<dim>1</dim>
				</port>
			</output>
		</layer>
		<layer id="247" name="447/fq_weights_1/Copy/out_high7567_const" type="Const" version="opset1">
			<data element_type="f16" offset="1746" shape="1" size="2"/>
			<output>
				<port id="1" precision="FP16">
					<dim>1</dim>
				</port>
			</output>
		</layer>
		<layer id="248" name="27902794_const" type="Const" version="opset1">
			<data element_type="f16" offset="54562" shape="128,1,1,1" size="256"/>
			<output>
				<port id="1" precision="FP16">
					<dim>128</dim>
					<dim>1</dim>
					<dim>1</dim>
					<dim>1</dim>
				</port>
			</output>
		</layer>
		<layer id="249" name="27912795_const" type="Const" version="opset1">
			<data element_type="f16" offset="54818" shape="128,1,1,1" size="256"/>
			<output>
				<port id="1" precision="FP16">
					<dim>128</dim>
					<dim>1</dim>
					<dim>1</dim>
					<dim>1</dim>
				</port>
			</output>
		</layer>
		<layer id="250" name="447/fq_weights_1" type="FakeQuantize" version="opset1">
			<data levels="255"/>
			<input>
				<port id="0">
					<dim>128</dim>
					<dim>64</dim>
					<dim>1</dim>
					<dim>1</dim>
				</port>
				<port id="1">
					<dim>1</dim>
				</port>
				<port id="2">
					<dim>1</dim>
				</port>
				<port id="3">
					<dim>128</dim>
					<dim>1</dim>
					<dim>1</dim>
					<dim>1</dim>
				</port>
				<port id="4">
					<dim>128</dim>
					<dim>1</dim>
					<dim>1</dim>
					<dim>1</dim>
				</port>
			</input>
			<output>
				<port id="5" precision="FP16">
					<dim>128</dim>
					<dim>64</dim>
					<dim>1</dim>
					<dim>1</dim>
				</port>
			</output>
		</layer>
		<layer id="251" name="447" type="Convolution" version="opset1">
			<data dilations="1,1" output_padding="0,0" pads_begin="0,0" pads_end="0,0" strides="1,1"/>
			<input>
				<port id="0">
					<dim>1</dim>
					<dim>64</dim>
					<dim>32</dim>
					<dim>32</dim>
				</port>
				<port id="1">
					<dim>128</dim>
					<dim>64</dim>
					<dim>1</dim>
					<dim>1</dim>
				</port>
			</input>
			<output>
				<port id="2" precision="FP16">
					<dim>1</dim>
					<dim>128</dim>
					<dim>32</dim>
					<dim>32</dim>
				</port>
			</output>
		</layer>
		<layer id="252" name="data_add_1273312738/copy_const556_const" type="Const" version="opset1">
			<data element_type="f16" offset="55074" shape="1,128,1,1" size="256"/>
			<output>
				<port id="1" precision="FP16">
					<dim>1</dim>
					<dim>128</dim>
					<dim>1</dim>
					<dim>1</dim>
				</port>
			</output>
		</layer>
		<layer id="253" name="448/variance/Fused_Add_" type="Add" version="opset1">
			<input>
				<port id="0">
					<dim>1</dim>
					<dim>128</dim>
					<dim>32</dim>
					<dim>32</dim>
				</port>
				<port id="1">
					<dim>1</dim>
					<dim>128</dim>
					<dim>1</dim>
					<dim>1</dim>
				</port>
			</input>
			<output>
				<port id="2" precision="FP16">
					<dim>1</dim>
					<dim>128</dim>
					<dim>32</dim>
					<dim>32</dim>
				</port>
			</output>
		</layer>
		<layer id="254" name="449/Cast_18954_const" type="Const" version="opset1">
			<data element_type="f32" offset="55330" shape="1" size="4"/>
			<output>
				<port id="1" precision="FP32">
					<dim>1</dim>
				</port>
			</output>
		</layer>
		<layer id="255" name="449" type="PReLU" version="opset1">
			<input>
				<port id="0">
					<dim>1</dim>
					<dim>128</dim>
					<dim>32</dim>
					<dim>32</dim>
				</port>
				<port id="1">
					<dim>1</dim>
				</port>
			</input>
			<output>
				<port id="2" precision="FP16">
					<dim>1</dim>
					<dim>128</dim>
					<dim>32</dim>
					<dim>32</dim>
				</port>
			</output>
		</layer>
		<layer id="256" name="20482052_const" type="Const" version="opset1">
			<data element_type="f16" offset="55334" shape="1,128,1,1" size="256"/>
			<output>
				<port id="1" precision="FP16">
					<dim>1</dim>
					<dim>128</dim>
					<dim>1</dim>
					<dim>1</dim>
				</port>
			</output>
		</layer>
		<layer id="257" name="20492053_const" type="Const" version="opset1">
			<data element_type="f16" offset="55590" shape="1,128,1,1" size="256"/>
			<output>
				<port id="1" precision="FP16">
					<dim>1</dim>
					<dim>128</dim>
					<dim>1</dim>
					<dim>1</dim>
				</port>
			</output>
		</layer>
		<layer id="258" name="20502054_const" type="Const" version="opset1">
			<data element_type="f16" offset="55334" shape="1,128,1,1" size="256"/>
			<output>
				<port id="1" precision="FP16">
					<dim>1</dim>
					<dim>128</dim>
					<dim>1</dim>
					<dim>1</dim>
				</port>
			</output>
		</layer>
		<layer id="259" name="20512055_const" type="Const" version="opset1">
			<data element_type="f16" offset="55590" shape="1,128,1,1" size="256"/>
			<output>
				<port id="1" precision="FP16">
					<dim>1</dim>
					<dim>128</dim>
					<dim>1</dim>
					<dim>1</dim>
				</port>
			</output>
		</layer>
		<layer id="260" name="450/fq_input_0" type="FakeQuantize" version="opset1">
			<data levels="256"/>
			<input>
				<port id="0">
					<dim>1</dim>
					<dim>128</dim>
					<dim>32</dim>
					<dim>32</dim>
				</port>
				<port id="1">
					<dim>1</dim>
					<dim>128</dim>
					<dim>1</dim>
					<dim>1</dim>
				</port>
				<port id="2">
					<dim>1</dim>
					<dim>128</dim>
					<dim>1</dim>
					<dim>1</dim>
				</port>
				<port id="3">
					<dim>1</dim>
					<dim>128</dim>
					<dim>1</dim>
					<dim>1</dim>
				</port>
				<port id="4">
					<dim>1</dim>
					<dim>128</dim>
					<dim>1</dim>
					<dim>1</dim>
				</port>
			</input>
			<output>
				<port id="5" precision="FP16">
					<dim>1</dim>
					<dim>128</dim>
					<dim>32</dim>
					<dim>32</dim>
				</port>
			</output>
		</layer>
		<layer id="261" name="450/fq_weights_1/Convert_to_float/Cast_08990_const" type="Const" version="opset1">
			<data element_type="u8" offset="55846" shape="128,1,3,3" size="1152"/>
			<output>
				<port id="1" precision="U8">
					<dim>128</dim>
					<dim>1</dim>
					<dim>3</dim>
					<dim>3</dim>
				</port>
			</output>
		</layer>
		<layer id="262" name="450/fq_weights_1/Convert_to_float" type="Convert" version="opset1">
			<data destination_type="f16"/>
			<input>
				<port id="0">
					<dim>128</dim>
					<dim>1</dim>
					<dim>3</dim>
					<dim>3</dim>
				</port>
			</input>
			<output>
				<port id="1" precision="FP16">
					<dim>128</dim>
					<dim>1</dim>
					<dim>3</dim>
					<dim>3</dim>
				</port>
			</output>
		</layer>
		<layer id="263" name="450/fq_weights_1/Copy/out_low7222_const" type="Const" version="opset1">
			<data element_type="f16" offset="54560" shape="1" size="2"/>
			<output>
				<port id="1" precision="FP16">
					<dim>1</dim>
				</port>
			</output>
		</layer>
		<layer id="264" name="450/fq_weights_1/Copy/out_high7223_const" type="Const" version="opset1">
			<data element_type="f16" offset="1746" shape="1" size="2"/>
			<output>
				<port id="1" precision="FP16">
					<dim>1</dim>
				</port>
			</output>
		</layer>
		<layer id="265" name="20602064_const" type="Const" version="opset1">
			<data element_type="f16" offset="56998" shape="128,1,1,1" size="256"/>
			<output>
				<port id="1" precision="FP16">
					<dim>128</dim>
					<dim>1</dim>
					<dim>1</dim>
					<dim>1</dim>
				</port>
			</output>
		</layer>
		<layer id="266" name="20612065_const" type="Const" version="opset1">
			<data element_type="f16" offset="57254" shape="128,1,1,1" size="256"/>
			<output>
				<port id="1" precision="FP16">
					<dim>128</dim>
					<dim>1</dim>
					<dim>1</dim>
					<dim>1</dim>
				</port>
			</output>
		</layer>
		<layer id="267" name="450/fq_weights_1" type="FakeQuantize" version="opset1">
			<data levels="255"/>
			<input>
				<port id="0">
					<dim>128</dim>
					<dim>1</dim>
					<dim>3</dim>
					<dim>3</dim>
				</port>
				<port id="1">
					<dim>1</dim>
				</port>
				<port id="2">
					<dim>1</dim>
				</port>
				<port id="3">
					<dim>128</dim>
					<dim>1</dim>
					<dim>1</dim>
					<dim>1</dim>
				</port>
				<port id="4">
					<dim>128</dim>
					<dim>1</dim>
					<dim>1</dim>
					<dim>1</dim>
				</port>
			</input>
			<output>
				<port id="5" precision="FP16">
					<dim>128</dim>
					<dim>1</dim>
					<dim>3</dim>
					<dim>3</dim>
				</port>
			</output>
		</layer>
		<layer id="268" name="10123/value10125_const" type="Const" version="opset1">
			<data element_type="i64" offset="14540" shape="5" size="40"/>
			<output>
				<port id="1" precision="I64">
					<dim>5</dim>
				</port>
			</output>
		</layer>
		<layer id="269" name="10123" type="Reshape" version="opset1">
			<data special_zero="True"/>
			<input>
				<port id="0">
					<dim>128</dim>
					<dim>1</dim>
					<dim>3</dim>
					<dim>3</dim>
				</port>
				<port id="1">
					<dim>5</dim>
				</port>
			</input>
			<output>
				<port id="2" precision="FP16">
					<dim>128</dim>
					<dim>1</dim>
					<dim>1</dim>
					<dim>3</dim>
					<dim>3</dim>
				</port>
			</output>
		</layer>
		<layer id="270" name="450" type="GroupConvolution" version="opset1">
			<data dilations="1,1" output_padding="0,0" pads_begin="1,1" pads_end="1,1" strides="1,1"/>
			<input>
				<port id="0">
					<dim>1</dim>
					<dim>128</dim>
					<dim>32</dim>
					<dim>32</dim>
				</port>
				<port id="1">
					<dim>128</dim>
					<dim>1</dim>
					<dim>1</dim>
					<dim>3</dim>
					<dim>3</dim>
				</port>
			</input>
			<output>
				<port id="2" precision="FP16">
					<dim>1</dim>
					<dim>128</dim>
					<dim>32</dim>
					<dim>32</dim>
				</port>
			</output>
		</layer>
		<layer id="271" name="data_add_1274112746/copy_const562_const" type="Const" version="opset1">
			<data element_type="f16" offset="57510" shape="1,128,1,1" size="256"/>
			<output>
				<port id="1" precision="FP16">
					<dim>1</dim>
					<dim>128</dim>
					<dim>1</dim>
					<dim>1</dim>
				</port>
			</output>
		</layer>
		<layer id="272" name="451/variance/Fused_Add_" type="Add" version="opset1">
			<input>
				<port id="0">
					<dim>1</dim>
					<dim>128</dim>
					<dim>32</dim>
					<dim>32</dim>
				</port>
				<port id="1">
					<dim>1</dim>
					<dim>128</dim>
					<dim>1</dim>
					<dim>1</dim>
				</port>
			</input>
			<output>
				<port id="2" precision="FP16">
					<dim>1</dim>
					<dim>128</dim>
					<dim>32</dim>
					<dim>32</dim>
				</port>
			</output>
		</layer>
		<layer id="273" name="452/Cast_19052_const" type="Const" version="opset1">
			<data element_type="f32" offset="57766" shape="1" size="4"/>
			<output>
				<port id="1" precision="FP32">
					<dim>1</dim>
				</port>
			</output>
		</layer>
		<layer id="274" name="452" type="PReLU" version="opset1">
			<input>
				<port id="0">
					<dim>1</dim>
					<dim>128</dim>
					<dim>32</dim>
					<dim>32</dim>
				</port>
				<port id="1">
					<dim>1</dim>
				</port>
			</input>
			<output>
				<port id="2" precision="FP16">
					<dim>1</dim>
					<dim>128</dim>
					<dim>32</dim>
					<dim>32</dim>
				</port>
			</output>
		</layer>
		<layer id="275" name="22482252_const" type="Const" version="opset1">
			<data element_type="f16" offset="57770" shape="" size="2"/>
			<output>
				<port id="1" precision="FP16"/>
			</output>
		</layer>
		<layer id="276" name="22492253_const" type="Const" version="opset1">
			<data element_type="f16" offset="57772" shape="" size="2"/>
			<output>
				<port id="1" precision="FP16"/>
			</output>
		</layer>
		<layer id="277" name="22502254_const" type="Const" version="opset1">
			<data element_type="f16" offset="57770" shape="" size="2"/>
			<output>
				<port id="1" precision="FP16"/>
			</output>
		</layer>
		<layer id="278" name="22512255_const" type="Const" version="opset1">
			<data element_type="f16" offset="57772" shape="" size="2"/>
			<output>
				<port id="1" precision="FP16"/>
			</output>
		</layer>
		<layer id="279" name="453/fq_input_0" type="FakeQuantize" version="opset1">
			<data levels="256"/>
			<input>
				<port id="0">
					<dim>1</dim>
					<dim>128</dim>
					<dim>32</dim>
					<dim>32</dim>
				</port>
				<port id="1"/>
				<port id="2"/>
				<port id="3"/>
				<port id="4"/>
			</input>
			<output>
				<port id="5" precision="FP16">
					<dim>1</dim>
					<dim>128</dim>
					<dim>32</dim>
					<dim>32</dim>
				</port>
			</output>
		</layer>
		<layer id="280" name="453/fq_weights_1/Convert_to_float/Cast_08976_const" type="Const" version="opset1">
			<data element_type="u8" offset="57774" shape="64,128,1,1" size="8192"/>
			<output>
				<port id="1" precision="U8">
					<dim>64</dim>
					<dim>128</dim>
					<dim>1</dim>
					<dim>1</dim>
				</port>
			</output>
		</layer>
		<layer id="281" name="453/fq_weights_1/Convert_to_float" type="Convert" version="opset1">
			<data destination_type="f16"/>
			<input>
				<port id="0">
					<dim>64</dim>
					<dim>128</dim>
					<dim>1</dim>
					<dim>1</dim>
				</port>
			</input>
			<output>
				<port id="1" precision="FP16">
					<dim>64</dim>
					<dim>128</dim>
					<dim>1</dim>
					<dim>1</dim>
				</port>
			</output>
		</layer>
		<layer id="282" name="453/fq_weights_1/Copy/out_low7478_const" type="Const" version="opset1">
			<data element_type="f16" offset="54560" shape="1" size="2"/>
			<output>
				<port id="1" precision="FP16">
					<dim>1</dim>
				</port>
			</output>
		</layer>
		<layer id="283" name="453/fq_weights_1/Copy/out_high7479_const" type="Const" version="opset1">
			<data element_type="f16" offset="1746" shape="1" size="2"/>
			<output>
				<port id="1" precision="FP16">
					<dim>1</dim>
				</port>
			</output>
		</layer>
		<layer id="284" name="22602264_const" type="Const" version="opset1">
			<data element_type="f16" offset="65966" shape="64,1,1,1" size="128"/>
			<output>
				<port id="1" precision="FP16">
					<dim>64</dim>
					<dim>1</dim>
					<dim>1</dim>
					<dim>1</dim>
				</port>
			</output>
		</layer>
		<layer id="285" name="22612265_const" type="Const" version="opset1">
			<data element_type="f16" offset="66094" shape="64,1,1,1" size="128"/>
			<output>
				<port id="1" precision="FP16">
					<dim>64</dim>
					<dim>1</dim>
					<dim>1</dim>
					<dim>1</dim>
				</port>
			</output>
		</layer>
		<layer id="286" name="453/fq_weights_1" type="FakeQuantize" version="opset1">
			<data levels="255"/>
			<input>
				<port id="0">
					<dim>64</dim>
					<dim>128</dim>
					<dim>1</dim>
					<dim>1</dim>
				</port>
				<port id="1">
					<dim>1</dim>
				</port>
				<port id="2">
					<dim>1</dim>
				</port>
				<port id="3">
					<dim>64</dim>
					<dim>1</dim>
					<dim>1</dim>
					<dim>1</dim>
				</port>
				<port id="4">
					<dim>64</dim>
					<dim>1</dim>
					<dim>1</dim>
					<dim>1</dim>
				</port>
			</input>
			<output>
				<port id="5" precision="FP16">
					<dim>64</dim>
					<dim>128</dim>
					<dim>1</dim>
					<dim>1</dim>
				</port>
			</output>
		</layer>
		<layer id="287" name="453" type="Convolution" version="opset1">
			<data dilations="1,1" output_padding="0,0" pads_begin="0,0" pads_end="0,0" strides="1,1"/>
			<input>
				<port id="0">
					<dim>1</dim>
					<dim>128</dim>
					<dim>32</dim>
					<dim>32</dim>
				</port>
				<port id="1">
					<dim>64</dim>
					<dim>128</dim>
					<dim>1</dim>
					<dim>1</dim>
				</port>
			</input>
			<output>
				<port id="2" precision="FP16">
					<dim>1</dim>
					<dim>64</dim>
					<dim>32</dim>
					<dim>32</dim>
				</port>
			</output>
		</layer>
		<layer id="288" name="data_add_1274912754/copy_const568_const" type="Const" version="opset1">
			<data element_type="f16" offset="66222" shape="1,64,1,1" size="128"/>
			<output>
				<port id="1" precision="FP16">
					<dim>1</dim>
					<dim>64</dim>
					<dim>1</dim>
					<dim>1</dim>
				</port>
			</output>
		</layer>
		<layer id="289" name="454/variance/Fused_Add_" type="Add" version="opset1">
			<input>
				<port id="0">
					<dim>1</dim>
					<dim>64</dim>
					<dim>32</dim>
					<dim>32</dim>
				</port>
				<port id="1">
					<dim>1</dim>
					<dim>64</dim>
					<dim>1</dim>
					<dim>1</dim>
				</port>
			</input>
			<output>
				<port id="2" precision="FP16">
					<dim>1</dim>
					<dim>64</dim>
					<dim>32</dim>
					<dim>32</dim>
				</port>
			</output>
		</layer>
		<layer id="290" name="16081612_const" type="Const" version="opset1">
			<data element_type="f16" offset="66350" shape="" size="2"/>
			<output>
				<port id="1" precision="FP16"/>
			</output>
		</layer>
		<layer id="291" name="16091613_const" type="Const" version="opset1">
			<data element_type="f16" offset="66352" shape="" size="2"/>
			<output>
				<port id="1" precision="FP16"/>
			</output>
		</layer>
		<layer id="292" name="16101614_const" type="Const" version="opset1">
			<data element_type="f16" offset="66350" shape="" size="2"/>
			<output>
				<port id="1" precision="FP16"/>
			</output>
		</layer>
		<layer id="293" name="16111615_const" type="Const" version="opset1">
			<data element_type="f16" offset="66352" shape="" size="2"/>
			<output>
				<port id="1" precision="FP16"/>
			</output>
		</layer>
		<layer id="294" name="456/fq_input_0" type="FakeQuantize" version="opset1">
			<data levels="256"/>
			<input>
				<port id="0">
					<dim>1</dim>
					<dim>64</dim>
					<dim>32</dim>
					<dim>32</dim>
				</port>
				<port id="1"/>
				<port id="2"/>
				<port id="3"/>
				<port id="4"/>
			</input>
			<output>
				<port id="5" precision="FP16">
					<dim>1</dim>
					<dim>64</dim>
					<dim>32</dim>
					<dim>32</dim>
				</port>
			</output>
		</layer>
		<layer id="295" name="456" type="AvgPool" version="opset1">
			<data exclude-pad="true" kernel="32,32" pads_begin="0,0" pads_end="0,0" rounding_type="floor" strides="32,32"/>
			<input>
				<port id="0">
					<dim>1</dim>
					<dim>64</dim>
					<dim>32</dim>
					<dim>32</dim>
				</port>
			</input>
			<output>
				<port id="1" precision="FP16">
					<dim>1</dim>
					<dim>64</dim>
					<dim>1</dim>
					<dim>1</dim>
				</port>
			</output>
		</layer>
		<layer id="296" name="19081912_const" type="Const" version="opset1">
			<data element_type="f16" offset="66354" shape="" size="2"/>
			<output>
				<port id="1" precision="FP16"/>
			</output>
		</layer>
		<layer id="297" name="19091913_const" type="Const" version="opset1">
			<data element_type="f16" offset="66356" shape="" size="2"/>
			<output>
				<port id="1" precision="FP16"/>
			</output>
		</layer>
		<layer id="298" name="19101914_const" type="Const" version="opset1">
			<data element_type="f16" offset="66354" shape="" size="2"/>
			<output>
				<port id="1" precision="FP16"/>
			</output>
		</layer>
		<layer id="299" name="19111915_const" type="Const" version="opset1">
			<data element_type="f16" offset="66356" shape="" size="2"/>
			<output>
				<port id="1" precision="FP16"/>
			</output>
		</layer>
		<layer id="300" name="457/WithoutBiases/fq_input_0" type="FakeQuantize" version="opset1">
			<data levels="256"/>
			<input>
				<port id="0">
					<dim>1</dim>
					<dim>64</dim>
					<dim>1</dim>
					<dim>1</dim>
				</port>
				<port id="1"/>
				<port id="2"/>
				<port id="3"/>
				<port id="4"/>
			</input>
			<output>
				<port id="5" precision="FP16">
					<dim>1</dim>
					<dim>64</dim>
					<dim>1</dim>
					<dim>1</dim>
				</port>
			</output>
		</layer>
		<layer id="301" name="457/WithoutBiases/fq_weights_1/Convert_to_float/Cast_09034_const" type="Const" version="opset1">
			<data element_type="u8" offset="66358" shape="8,64,1,1" size="512"/>
			<output>
				<port id="1" precision="U8">
					<dim>8</dim>
					<dim>64</dim>
					<dim>1</dim>
					<dim>1</dim>
				</port>
			</output>
		</layer>
		<layer id="302" name="457/WithoutBiases/fq_weights_1/Convert_to_float" type="Convert" version="opset1">
			<data destination_type="f16"/>
			<input>
				<port id="0">
					<dim>8</dim>
					<dim>64</dim>
					<dim>1</dim>
					<dim>1</dim>
				</port>
			</input>
			<output>
				<port id="1" precision="FP16">
					<dim>8</dim>
					<dim>64</dim>
					<dim>1</dim>
					<dim>1</dim>
				</port>
			</output>
		</layer>
		<layer id="303" name="457/WithoutBiases/fq_weights_1/Copy/out_low7766_const" type="Const" version="opset1">
			<data element_type="f16" offset="54560" shape="1" size="2"/>
			<output>
				<port id="1" precision="FP16">
					<dim>1</dim>
				</port>
			</output>
		</layer>
		<layer id="304" name="457/WithoutBiases/fq_weights_1/Copy/out_high7767_const" type="Const" version="opset1">
			<data element_type="f16" offset="1746" shape="1" size="2"/>
			<output>
				<port id="1" precision="FP16">
					<dim>1</dim>
				</port>
			</output>
		</layer>
		<layer id="305" name="19201924_const" type="Const" version="opset1">
			<data element_type="f16" offset="66870" shape="8,1,1,1" size="16"/>
			<output>
				<port id="1" precision="FP16">
					<dim>8</dim>
					<dim>1</dim>
					<dim>1</dim>
					<dim>1</dim>
				</port>
			</output>
		</layer>
		<layer id="306" name="19211925_const" type="Const" version="opset1">
			<data element_type="f16" offset="66886" shape="8,1,1,1" size="16"/>
			<output>
				<port id="1" precision="FP16">
					<dim>8</dim>
					<dim>1</dim>
					<dim>1</dim>
					<dim>1</dim>
				</port>
			</output>
		</layer>
		<layer id="307" name="457/WithoutBiases/fq_weights_1" type="FakeQuantize" version="opset1">
			<data levels="255"/>
			<input>
				<port id="0">
					<dim>8</dim>
					<dim>64</dim>
					<dim>1</dim>
					<dim>1</dim>
				</port>
				<port id="1">
					<dim>1</dim>
				</port>
				<port id="2">
					<dim>1</dim>
				</port>
				<port id="3">
					<dim>8</dim>
					<dim>1</dim>
					<dim>1</dim>
					<dim>1</dim>
				</port>
				<port id="4">
					<dim>8</dim>
					<dim>1</dim>
					<dim>1</dim>
					<dim>1</dim>
				</port>
			</input>
			<output>
				<port id="5" precision="FP16">
					<dim>8</dim>
					<dim>64</dim>
					<dim>1</dim>
					<dim>1</dim>
				</port>
			</output>
		</layer>
		<layer id="308" name="457/WithoutBiases" type="Convolution" version="opset1">
			<data dilations="1,1" output_padding="0,0" pads_begin="0,0" pads_end="0,0" strides="1,1"/>
			<input>
				<port id="0">
					<dim>1</dim>
					<dim>64</dim>
					<dim>1</dim>
					<dim>1</dim>
				</port>
				<port id="1">
					<dim>8</dim>
					<dim>64</dim>
					<dim>1</dim>
					<dim>1</dim>
				</port>
			</input>
			<output>
				<port id="2" precision="FP16">
					<dim>1</dim>
					<dim>8</dim>
					<dim>1</dim>
					<dim>1</dim>
				</port>
			</output>
		</layer>
		<layer id="309" name="457/Dims8002/copy_const573_const" type="Const" version="opset1">
			<data element_type="f16" offset="66902" shape="1,8,1,1" size="16"/>
			<output>
				<port id="1" precision="FP16">
					<dim>1</dim>
					<dim>8</dim>
					<dim>1</dim>
					<dim>1</dim>
				</port>
			</output>
		</layer>
		<layer id="310" name="457" type="Add" version="opset1">
			<input>
				<port id="0">
					<dim>1</dim>
					<dim>8</dim>
					<dim>1</dim>
					<dim>1</dim>
				</port>
				<port id="1">
					<dim>1</dim>
					<dim>8</dim>
					<dim>1</dim>
					<dim>1</dim>
				</port>
			</input>
			<output>
				<port id="2" precision="FP16">
					<dim>1</dim>
					<dim>8</dim>
					<dim>1</dim>
					<dim>1</dim>
				</port>
			</output>
		</layer>
		<layer id="311" name="458/Cast_18948_const" type="Const" version="opset1">
			<data element_type="f32" offset="66918" shape="1" size="4"/>
			<output>
				<port id="1" precision="FP32">
					<dim>1</dim>
				</port>
			</output>
		</layer>
		<layer id="312" name="458" type="PReLU" version="opset1">
			<input>
				<port id="0">
					<dim>1</dim>
					<dim>8</dim>
					<dim>1</dim>
					<dim>1</dim>
				</port>
				<port id="1">
					<dim>1</dim>
				</port>
			</input>
			<output>
				<port id="2" precision="FP16">
					<dim>1</dim>
					<dim>8</dim>
					<dim>1</dim>
					<dim>1</dim>
				</port>
			</output>
		</layer>
		<layer id="313" name="16381642_const" type="Const" version="opset1">
			<data element_type="f16" offset="66922" shape="" size="2"/>
			<output>
				<port id="1" precision="FP16"/>
			</output>
		</layer>
		<layer id="314" name="16391643_const" type="Const" version="opset1">
			<data element_type="f16" offset="66924" shape="" size="2"/>
			<output>
				<port id="1" precision="FP16"/>
			</output>
		</layer>
		<layer id="315" name="16401644_const" type="Const" version="opset1">
			<data element_type="f16" offset="66922" shape="" size="2"/>
			<output>
				<port id="1" precision="FP16"/>
			</output>
		</layer>
		<layer id="316" name="16411645_const" type="Const" version="opset1">
			<data element_type="f16" offset="66924" shape="" size="2"/>
			<output>
				<port id="1" precision="FP16"/>
			</output>
		</layer>
		<layer id="317" name="459/WithoutBiases/fq_input_0" type="FakeQuantize" version="opset1">
			<data levels="256"/>
			<input>
				<port id="0">
					<dim>1</dim>
					<dim>8</dim>
					<dim>1</dim>
					<dim>1</dim>
				</port>
				<port id="1"/>
				<port id="2"/>
				<port id="3"/>
				<port id="4"/>
			</input>
			<output>
				<port id="5" precision="FP16">
					<dim>1</dim>
					<dim>8</dim>
					<dim>1</dim>
					<dim>1</dim>
				</port>
			</output>
		</layer>
		<layer id="318" name="459/WithoutBiases/fq_weights_1/Convert_to_float/Cast_09012_const" type="Const" version="opset1">
			<data element_type="u8" offset="66926" shape="64,8,1,1" size="512"/>
			<output>
				<port id="1" precision="U8">
					<dim>64</dim>
					<dim>8</dim>
					<dim>1</dim>
					<dim>1</dim>
				</port>
			</output>
		</layer>
		<layer id="319" name="459/WithoutBiases/fq_weights_1/Convert_to_float" type="Convert" version="opset1">
			<data destination_type="f16"/>
			<input>
				<port id="0">
					<dim>64</dim>
					<dim>8</dim>
					<dim>1</dim>
					<dim>1</dim>
				</port>
			</input>
			<output>
				<port id="1" precision="FP16">
					<dim>64</dim>
					<dim>8</dim>
					<dim>1</dim>
					<dim>1</dim>
				</port>
			</output>
		</layer>
		<layer id="320" name="459/WithoutBiases/fq_weights_1/Copy/out_low7734_const" type="Const" version="opset1">
			<data element_type="f16" offset="67438" shape="1" size="2"/>
			<output>
				<port id="1" precision="FP16">
					<dim>1</dim>
				</port>
			</output>
		</layer>
		<layer id="321" name="459/WithoutBiases/fq_weights_1/Copy/out_high7735_const" type="Const" version="opset1">
			<data element_type="f16" offset="1746" shape="1" size="2"/>
			<output>
				<port id="1" precision="FP16">
					<dim>1</dim>
				</port>
			</output>
		</layer>
		<layer id="322" name="16501654_const" type="Const" version="opset1">
			<data element_type="f16" offset="67440" shape="64,1,1,1" size="128"/>
			<output>
				<port id="1" precision="FP16">
					<dim>64</dim>
					<dim>1</dim>
					<dim>1</dim>
					<dim>1</dim>
				</port>
			</output>
		</layer>
		<layer id="323" name="16511655_const" type="Const" version="opset1">
			<data element_type="f16" offset="67568" shape="64,1,1,1" size="128"/>
			<output>
				<port id="1" precision="FP16">
					<dim>64</dim>
					<dim>1</dim>
					<dim>1</dim>
					<dim>1</dim>
				</port>
			</output>
		</layer>
		<layer id="324" name="459/WithoutBiases/fq_weights_1" type="FakeQuantize" version="opset1">
			<data levels="255"/>
			<input>
				<port id="0">
					<dim>64</dim>
					<dim>8</dim>
					<dim>1</dim>
					<dim>1</dim>
				</port>
				<port id="1">
					<dim>1</dim>
				</port>
				<port id="2">
					<dim>1</dim>
				</port>
				<port id="3">
					<dim>64</dim>
					<dim>1</dim>
					<dim>1</dim>
					<dim>1</dim>
				</port>
				<port id="4">
					<dim>64</dim>
					<dim>1</dim>
					<dim>1</dim>
					<dim>1</dim>
				</port>
			</input>
			<output>
				<port id="5" precision="FP16">
					<dim>64</dim>
					<dim>8</dim>
					<dim>1</dim>
					<dim>1</dim>
				</port>
			</output>
		</layer>
		<layer id="325" name="459/WithoutBiases" type="Convolution" version="opset1">
			<data dilations="1,1" output_padding="0,0" pads_begin="0,0" pads_end="0,0" strides="1,1"/>
			<input>
				<port id="0">
					<dim>1</dim>
					<dim>8</dim>
					<dim>1</dim>
					<dim>1</dim>
				</port>
				<port id="1">
					<dim>64</dim>
					<dim>8</dim>
					<dim>1</dim>
					<dim>1</dim>
				</port>
			</input>
			<output>
				<port id="2" precision="FP16">
					<dim>1</dim>
					<dim>64</dim>
					<dim>1</dim>
					<dim>1</dim>
				</port>
			</output>
		</layer>
		<layer id="326" name="459/Dims8044/copy_const579_const" type="Const" version="opset1">
			<data element_type="f16" offset="67696" shape="1,64,1,1" size="128"/>
			<output>
				<port id="1" precision="FP16">
					<dim>1</dim>
					<dim>64</dim>
					<dim>1</dim>
					<dim>1</dim>
				</port>
			</output>
		</layer>
		<layer id="327" name="459" type="Add" version="opset1">
			<input>
				<port id="0">
					<dim>1</dim>
					<dim>64</dim>
					<dim>1</dim>
					<dim>1</dim>
				</port>
				<port id="1">
					<dim>1</dim>
					<dim>64</dim>
					<dim>1</dim>
					<dim>1</dim>
				</port>
			</input>
			<output>
				<port id="2" precision="FP16">
					<dim>1</dim>
					<dim>64</dim>
					<dim>1</dim>
					<dim>1</dim>
				</port>
			</output>
		</layer>
		<layer id="328" name="460" type="Sigmoid" version="opset1">
			<input>
				<port id="0">
					<dim>1</dim>
					<dim>64</dim>
					<dim>1</dim>
					<dim>1</dim>
				</port>
			</input>
			<output>
				<port id="1" precision="FP16">
					<dim>1</dim>
					<dim>64</dim>
					<dim>1</dim>
					<dim>1</dim>
				</port>
			</output>
		</layer>
		<layer id="329" name="36983702_const" type="Const" version="opset1">
			<data element_type="f16" offset="67824" shape="" size="2"/>
			<output>
				<port id="1" precision="FP16"/>
			</output>
		</layer>
		<layer id="330" name="36993703_const" type="Const" version="opset1">
			<data element_type="f16" offset="67826" shape="" size="2"/>
			<output>
				<port id="1" precision="FP16"/>
			</output>
		</layer>
		<layer id="331" name="37003704_const" type="Const" version="opset1">
			<data element_type="f16" offset="67824" shape="" size="2"/>
			<output>
				<port id="1" precision="FP16"/>
			</output>
		</layer>
		<layer id="332" name="37013705_const" type="Const" version="opset1">
			<data element_type="f16" offset="67826" shape="" size="2"/>
			<output>
				<port id="1" precision="FP16"/>
			</output>
		</layer>
		<layer id="333" name="461/fq_input_1" type="FakeQuantize" version="opset1">
			<data levels="256"/>
			<input>
				<port id="0">
					<dim>1</dim>
					<dim>64</dim>
					<dim>1</dim>
					<dim>1</dim>
				</port>
				<port id="1"/>
				<port id="2"/>
				<port id="3"/>
				<port id="4"/>
			</input>
			<output>
				<port id="5" precision="FP16">
					<dim>1</dim>
					<dim>64</dim>
					<dim>1</dim>
					<dim>1</dim>
				</port>
			</output>
		</layer>
		<layer id="334" name="461" type="Multiply" version="opset1">
			<input>
				<port id="0">
					<dim>1</dim>
					<dim>64</dim>
					<dim>32</dim>
					<dim>32</dim>
				</port>
				<port id="1">
					<dim>1</dim>
					<dim>64</dim>
					<dim>1</dim>
					<dim>1</dim>
				</port>
			</input>
			<output>
				<port id="2" precision="FP16">
					<dim>1</dim>
					<dim>64</dim>
					<dim>32</dim>
					<dim>32</dim>
				</port>
			</output>
		</layer>
		<layer id="335" name="36683672_const" type="Const" version="opset1">
			<data element_type="f16" offset="67828" shape="" size="2"/>
			<output>
				<port id="1" precision="FP16"/>
			</output>
		</layer>
		<layer id="336" name="36693673_const" type="Const" version="opset1">
			<data element_type="f16" offset="67830" shape="" size="2"/>
			<output>
				<port id="1" precision="FP16"/>
			</output>
		</layer>
		<layer id="337" name="36703674_const" type="Const" version="opset1">
			<data element_type="f16" offset="67828" shape="" size="2"/>
			<output>
				<port id="1" precision="FP16"/>
			</output>
		</layer>
		<layer id="338" name="36713675_const" type="Const" version="opset1">
			<data element_type="f16" offset="67830" shape="" size="2"/>
			<output>
				<port id="1" precision="FP16"/>
			</output>
		</layer>
		<layer id="339" name="462/fq_input_1" type="FakeQuantize" version="opset1">
			<data levels="256"/>
			<input>
				<port id="0">
					<dim>1</dim>
					<dim>64</dim>
					<dim>32</dim>
					<dim>32</dim>
				</port>
				<port id="1"/>
				<port id="2"/>
				<port id="3"/>
				<port id="4"/>
			</input>
			<output>
				<port id="5" precision="FP16">
					<dim>1</dim>
					<dim>64</dim>
					<dim>32</dim>
					<dim>32</dim>
				</port>
			</output>
		</layer>
		<layer id="340" name="462" type="Add" version="opset1">
			<input>
				<port id="0">
					<dim>1</dim>
					<dim>64</dim>
					<dim>32</dim>
					<dim>32</dim>
				</port>
				<port id="1">
					<dim>1</dim>
					<dim>64</dim>
					<dim>32</dim>
					<dim>32</dim>
				</port>
			</input>
			<output>
				<port id="2" precision="FP16">
					<dim>1</dim>
					<dim>64</dim>
					<dim>32</dim>
					<dim>32</dim>
				</port>
			</output>
		</layer>
		<layer id="341" name="26882692_const" type="Const" version="opset1">
			<data element_type="f16" offset="67832" shape="" size="2"/>
			<output>
				<port id="1" precision="FP16"/>
			</output>
		</layer>
		<layer id="342" name="26892693_const" type="Const" version="opset1">
			<data element_type="f16" offset="67834" shape="" size="2"/>
			<output>
				<port id="1" precision="FP16"/>
			</output>
		</layer>
		<layer id="343" name="26902694_const" type="Const" version="opset1">
			<data element_type="f16" offset="67832" shape="" size="2"/>
			<output>
				<port id="1" precision="FP16"/>
			</output>
		</layer>
		<layer id="344" name="26912695_const" type="Const" version="opset1">
			<data element_type="f16" offset="67834" shape="" size="2"/>
			<output>
				<port id="1" precision="FP16"/>
			</output>
		</layer>
		<layer id="345" name="463/fq_input_0" type="FakeQuantize" version="opset1">
			<data levels="256"/>
			<input>
				<port id="0">
					<dim>1</dim>
					<dim>64</dim>
					<dim>32</dim>
					<dim>32</dim>
				</port>
				<port id="1"/>
				<port id="2"/>
				<port id="3"/>
				<port id="4"/>
			</input>
			<output>
				<port id="5" precision="FP16">
					<dim>1</dim>
					<dim>64</dim>
					<dim>32</dim>
					<dim>32</dim>
				</port>
			</output>
		</layer>
		<layer id="346" name="463/fq_weights_1/Convert_to_float/Cast_08902_const" type="Const" version="opset1">
			<data element_type="u8" offset="67836" shape="128,64,1,1" size="8192"/>
			<output>
				<port id="1" precision="U8">
					<dim>128</dim>
					<dim>64</dim>
					<dim>1</dim>
					<dim>1</dim>
				</port>
			</output>
		</layer>
		<layer id="347" name="463/fq_weights_1/Convert_to_float" type="Convert" version="opset1">
			<data destination_type="f16"/>
			<input>
				<port id="0">
					<dim>128</dim>
					<dim>64</dim>
					<dim>1</dim>
					<dim>1</dim>
				</port>
			</input>
			<output>
				<port id="1" precision="FP16">
					<dim>128</dim>
					<dim>64</dim>
					<dim>1</dim>
					<dim>1</dim>
				</port>
			</output>
		</layer>
		<layer id="348" name="463/fq_weights_1/Copy/out_low7638_const" type="Const" version="opset1">
			<data element_type="f16" offset="76028" shape="1" size="2"/>
			<output>
				<port id="1" precision="FP16">
					<dim>1</dim>
				</port>
			</output>
		</layer>
		<layer id="349" name="463/fq_weights_1/Copy/out_high7639_const" type="Const" version="opset1">
			<data element_type="f16" offset="1746" shape="1" size="2"/>
			<output>
				<port id="1" precision="FP16">
					<dim>1</dim>
				</port>
			</output>
		</layer>
		<layer id="350" name="27002704_const" type="Const" version="opset1">
			<data element_type="f16" offset="76030" shape="128,1,1,1" size="256"/>
			<output>
				<port id="1" precision="FP16">
					<dim>128</dim>
					<dim>1</dim>
					<dim>1</dim>
					<dim>1</dim>
				</port>
			</output>
		</layer>
		<layer id="351" name="27012705_const" type="Const" version="opset1">
			<data element_type="f16" offset="76286" shape="128,1,1,1" size="256"/>
			<output>
				<port id="1" precision="FP16">
					<dim>128</dim>
					<dim>1</dim>
					<dim>1</dim>
					<dim>1</dim>
				</port>
			</output>
		</layer>
		<layer id="352" name="463/fq_weights_1" type="FakeQuantize" version="opset1">
			<data levels="255"/>
			<input>
				<port id="0">
					<dim>128</dim>
					<dim>64</dim>
					<dim>1</dim>
					<dim>1</dim>
				</port>
				<port id="1">
					<dim>1</dim>
				</port>
				<port id="2">
					<dim>1</dim>
				</port>
				<port id="3">
					<dim>128</dim>
					<dim>1</dim>
					<dim>1</dim>
					<dim>1</dim>
				</port>
				<port id="4">
					<dim>128</dim>
					<dim>1</dim>
					<dim>1</dim>
					<dim>1</dim>
				</port>
			</input>
			<output>
				<port id="5" precision="FP16">
					<dim>128</dim>
					<dim>64</dim>
					<dim>1</dim>
					<dim>1</dim>
				</port>
			</output>
		</layer>
		<layer id="353" name="463" type="Convolution" version="opset1">
			<data dilations="1,1" output_padding="0,0" pads_begin="0,0" pads_end="0,0" strides="1,1"/>
			<input>
				<port id="0">
					<dim>1</dim>
					<dim>64</dim>
					<dim>32</dim>
					<dim>32</dim>
				</port>
				<port id="1">
					<dim>128</dim>
					<dim>64</dim>
					<dim>1</dim>
					<dim>1</dim>
				</port>
			</input>
			<output>
				<port id="2" precision="FP16">
					<dim>1</dim>
					<dim>128</dim>
					<dim>32</dim>
					<dim>32</dim>
				</port>
			</output>
		</layer>
		<layer id="354" name="data_add_1275712762/copy_const586_const" type="Const" version="opset1">
			<data element_type="f16" offset="76542" shape="1,128,1,1" size="256"/>
			<output>
				<port id="1" precision="FP16">
					<dim>1</dim>
					<dim>128</dim>
					<dim>1</dim>
					<dim>1</dim>
				</port>
			</output>
		</layer>
		<layer id="355" name="464/variance/Fused_Add_" type="Add" version="opset1">
			<input>
				<port id="0">
					<dim>1</dim>
					<dim>128</dim>
					<dim>32</dim>
					<dim>32</dim>
				</port>
				<port id="1">
					<dim>1</dim>
					<dim>128</dim>
					<dim>1</dim>
					<dim>1</dim>
				</port>
			</input>
			<output>
				<port id="2" precision="FP16">
					<dim>1</dim>
					<dim>128</dim>
					<dim>32</dim>
					<dim>32</dim>
				</port>
			</output>
		</layer>
		<layer id="356" name="465/Cast_18936_const" type="Const" version="opset1">
			<data element_type="f32" offset="76798" shape="1" size="4"/>
			<output>
				<port id="1" precision="FP32">
					<dim>1</dim>
				</port>
			</output>
		</layer>
		<layer id="357" name="465" type="PReLU" version="opset1">
			<input>
				<port id="0">
					<dim>1</dim>
					<dim>128</dim>
					<dim>32</dim>
					<dim>32</dim>
				</port>
				<port id="1">
					<dim>1</dim>
				</port>
			</input>
			<output>
				<port id="2" precision="FP16">
					<dim>1</dim>
					<dim>128</dim>
					<dim>32</dim>
					<dim>32</dim>
				</port>
			</output>
		</layer>
		<layer id="358" name="25782582_const" type="Const" version="opset1">
			<data element_type="f16" offset="33868" shape="1,128,1,1" size="256"/>
			<output>
				<port id="1" precision="FP16">
					<dim>1</dim>
					<dim>128</dim>
					<dim>1</dim>
					<dim>1</dim>
				</port>
			</output>
		</layer>
		<layer id="359" name="25792583_const" type="Const" version="opset1">
			<data element_type="f16" offset="76802" shape="1,128,1,1" size="256"/>
			<output>
				<port id="1" precision="FP16">
					<dim>1</dim>
					<dim>128</dim>
					<dim>1</dim>
					<dim>1</dim>
				</port>
			</output>
		</layer>
		<layer id="360" name="25802584_const" type="Const" version="opset1">
			<data element_type="f16" offset="33868" shape="1,128,1,1" size="256"/>
			<output>
				<port id="1" precision="FP16">
					<dim>1</dim>
					<dim>128</dim>
					<dim>1</dim>
					<dim>1</dim>
				</port>
			</output>
		</layer>
		<layer id="361" name="25812585_const" type="Const" version="opset1">
			<data element_type="f16" offset="76802" shape="1,128,1,1" size="256"/>
			<output>
				<port id="1" precision="FP16">
					<dim>1</dim>
					<dim>128</dim>
					<dim>1</dim>
					<dim>1</dim>
				</port>
			</output>
		</layer>
		<layer id="362" name="466/fq_input_0" type="FakeQuantize" version="opset1">
			<data levels="256"/>
			<input>
				<port id="0">
					<dim>1</dim>
					<dim>128</dim>
					<dim>32</dim>
					<dim>32</dim>
				</port>
				<port id="1">
					<dim>1</dim>
					<dim>128</dim>
					<dim>1</dim>
					<dim>1</dim>
				</port>
				<port id="2">
					<dim>1</dim>
					<dim>128</dim>
					<dim>1</dim>
					<dim>1</dim>
				</port>
				<port id="3">
					<dim>1</dim>
					<dim>128</dim>
					<dim>1</dim>
					<dim>1</dim>
				</port>
				<port id="4">
					<dim>1</dim>
					<dim>128</dim>
					<dim>1</dim>
					<dim>1</dim>
				</port>
			</input>
			<output>
				<port id="5" precision="FP16">
					<dim>1</dim>
					<dim>128</dim>
					<dim>32</dim>
					<dim>32</dim>
				</port>
			</output>
		</layer>
		<layer id="363" name="466/fq_weights_1/Convert_to_float/Cast_08838_const" type="Const" version="opset1">
			<data element_type="u8" offset="77058" shape="128,1,3,3" size="1152"/>
			<output>
				<port id="1" precision="U8">
					<dim>128</dim>
					<dim>1</dim>
					<dim>3</dim>
					<dim>3</dim>
				</port>
			</output>
		</layer>
		<layer id="364" name="466/fq_weights_1/Convert_to_float" type="Convert" version="opset1">
			<data destination_type="f16"/>
			<input>
				<port id="0">
					<dim>128</dim>
					<dim>1</dim>
					<dim>3</dim>
					<dim>3</dim>
				</port>
			</input>
			<output>
				<port id="1" precision="FP16">
					<dim>128</dim>
					<dim>1</dim>
					<dim>3</dim>
					<dim>3</dim>
				</port>
			</output>
		</layer>
		<layer id="365" name="466/fq_weights_1/Copy/out_low7174_const" type="Const" version="opset1">
			<data element_type="f16" offset="76028" shape="1" size="2"/>
			<output>
				<port id="1" precision="FP16">
					<dim>1</dim>
				</port>
			</output>
		</layer>
		<layer id="366" name="466/fq_weights_1/Copy/out_high7175_const" type="Const" version="opset1">
			<data element_type="f16" offset="1746" shape="1" size="2"/>
			<output>
				<port id="1" precision="FP16">
					<dim>1</dim>
				</port>
			</output>
		</layer>
		<layer id="367" name="25902594_const" type="Const" version="opset1">
			<data element_type="f16" offset="78210" shape="128,1,1,1" size="256"/>
			<output>
				<port id="1" precision="FP16">
					<dim>128</dim>
					<dim>1</dim>
					<dim>1</dim>
					<dim>1</dim>
				</port>
			</output>
		</layer>
		<layer id="368" name="25912595_const" type="Const" version="opset1">
			<data element_type="f16" offset="78466" shape="128,1,1,1" size="256"/>
			<output>
				<port id="1" precision="FP16">
					<dim>128</dim>
					<dim>1</dim>
					<dim>1</dim>
					<dim>1</dim>
				</port>
			</output>
		</layer>
		<layer id="369" name="466/fq_weights_1" type="FakeQuantize" version="opset1">
			<data levels="255"/>
			<input>
				<port id="0">
					<dim>128</dim>
					<dim>1</dim>
					<dim>3</dim>
					<dim>3</dim>
				</port>
				<port id="1">
					<dim>1</dim>
				</port>
				<port id="2">
					<dim>1</dim>
				</port>
				<port id="3">
					<dim>128</dim>
					<dim>1</dim>
					<dim>1</dim>
					<dim>1</dim>
				</port>
				<port id="4">
					<dim>128</dim>
					<dim>1</dim>
					<dim>1</dim>
					<dim>1</dim>
				</port>
			</input>
			<output>
				<port id="5" precision="FP16">
					<dim>128</dim>
					<dim>1</dim>
					<dim>3</dim>
					<dim>3</dim>
				</port>
			</output>
		</layer>
		<layer id="370" name="10103/value10105_const" type="Const" version="opset1">
			<data element_type="i64" offset="14540" shape="5" size="40"/>
			<output>
				<port id="1" precision="I64">
					<dim>5</dim>
				</port>
			</output>
		</layer>
		<layer id="371" name="10103" type="Reshape" version="opset1">
			<data special_zero="True"/>
			<input>
				<port id="0">
					<dim>128</dim>
					<dim>1</dim>
					<dim>3</dim>
					<dim>3</dim>
				</port>
				<port id="1">
					<dim>5</dim>
				</port>
			</input>
			<output>
				<port id="2" precision="FP16">
					<dim>128</dim>
					<dim>1</dim>
					<dim>1</dim>
					<dim>3</dim>
					<dim>3</dim>
				</port>
			</output>
		</layer>
		<layer id="372" name="466" type="GroupConvolution" version="opset1">
			<data dilations="1,1" output_padding="0,0" pads_begin="1,1" pads_end="1,1" strides="1,1"/>
			<input>
				<port id="0">
					<dim>1</dim>
					<dim>128</dim>
					<dim>32</dim>
					<dim>32</dim>
				</port>
				<port id="1">
					<dim>128</dim>
					<dim>1</dim>
					<dim>1</dim>
					<dim>3</dim>
					<dim>3</dim>
				</port>
			</input>
			<output>
				<port id="2" precision="FP16">
					<dim>1</dim>
					<dim>128</dim>
					<dim>32</dim>
					<dim>32</dim>
				</port>
			</output>
		</layer>
		<layer id="373" name="data_add_1276512770/copy_const592_const" type="Const" version="opset1">
			<data element_type="f16" offset="78722" shape="1,128,1,1" size="256"/>
			<output>
				<port id="1" precision="FP16">
					<dim>1</dim>
					<dim>128</dim>
					<dim>1</dim>
					<dim>1</dim>
				</port>
			</output>
		</layer>
		<layer id="374" name="467/variance/Fused_Add_" type="Add" version="opset1">
			<input>
				<port id="0">
					<dim>1</dim>
					<dim>128</dim>
					<dim>32</dim>
					<dim>32</dim>
				</port>
				<port id="1">
					<dim>1</dim>
					<dim>128</dim>
					<dim>1</dim>
					<dim>1</dim>
				</port>
			</input>
			<output>
				<port id="2" precision="FP16">
					<dim>1</dim>
					<dim>128</dim>
					<dim>32</dim>
					<dim>32</dim>
				</port>
			</output>
		</layer>
		<layer id="375" name="468/Cast_18866_const" type="Const" version="opset1">
			<data element_type="f32" offset="78978" shape="1" size="4"/>
			<output>
				<port id="1" precision="FP32">
					<dim>1</dim>
				</port>
			</output>
		</layer>
		<layer id="376" name="468" type="PReLU" version="opset1">
			<input>
				<port id="0">
					<dim>1</dim>
					<dim>128</dim>
					<dim>32</dim>
					<dim>32</dim>
				</port>
				<port id="1">
					<dim>1</dim>
				</port>
			</input>
			<output>
				<port id="2" precision="FP16">
					<dim>1</dim>
					<dim>128</dim>
					<dim>32</dim>
					<dim>32</dim>
				</port>
			</output>
		</layer>
		<layer id="377" name="19281932_const" type="Const" version="opset1">
			<data element_type="f16" offset="78982" shape="" size="2"/>
			<output>
				<port id="1" precision="FP16"/>
			</output>
		</layer>
		<layer id="378" name="19291933_const" type="Const" version="opset1">
			<data element_type="f16" offset="78984" shape="" size="2"/>
			<output>
				<port id="1" precision="FP16"/>
			</output>
		</layer>
		<layer id="379" name="19301934_const" type="Const" version="opset1">
			<data element_type="f16" offset="78982" shape="" size="2"/>
			<output>
				<port id="1" precision="FP16"/>
			</output>
		</layer>
		<layer id="380" name="19311935_const" type="Const" version="opset1">
			<data element_type="f16" offset="78984" shape="" size="2"/>
			<output>
				<port id="1" precision="FP16"/>
			</output>
		</layer>
		<layer id="381" name="469/fq_input_0" type="FakeQuantize" version="opset1">
			<data levels="256"/>
			<input>
				<port id="0">
					<dim>1</dim>
					<dim>128</dim>
					<dim>32</dim>
					<dim>32</dim>
				</port>
				<port id="1"/>
				<port id="2"/>
				<port id="3"/>
				<port id="4"/>
			</input>
			<output>
				<port id="5" precision="FP16">
					<dim>1</dim>
					<dim>128</dim>
					<dim>32</dim>
					<dim>32</dim>
				</port>
			</output>
		</layer>
		<layer id="382" name="469/fq_weights_1/Convert_to_float/Cast_08850_const" type="Const" version="opset1">
			<data element_type="u8" offset="78986" shape="64,128,1,1" size="8192"/>
			<output>
				<port id="1" precision="U8">
					<dim>64</dim>
					<dim>128</dim>
					<dim>1</dim>
					<dim>1</dim>
				</port>
			</output>
		</layer>
		<layer id="383" name="469/fq_weights_1/Convert_to_float" type="Convert" version="opset1">
			<data destination_type="f16"/>
			<input>
				<port id="0">
					<dim>64</dim>
					<dim>128</dim>
					<dim>1</dim>
					<dim>1</dim>
				</port>
			</input>
			<output>
				<port id="1" precision="FP16">
					<dim>64</dim>
					<dim>128</dim>
					<dim>1</dim>
					<dim>1</dim>
				</port>
			</output>
		</layer>
		<layer id="384" name="469/fq_weights_1/Copy/out_low7574_const" type="Const" version="opset1">
			<data element_type="f16" offset="76028" shape="1" size="2"/>
			<output>
				<port id="1" precision="FP16">
					<dim>1</dim>
				</port>
			</output>
		</layer>
		<layer id="385" name="469/fq_weights_1/Copy/out_high7575_const" type="Const" version="opset1">
			<data element_type="f16" offset="1746" shape="1" size="2"/>
			<output>
				<port id="1" precision="FP16">
					<dim>1</dim>
				</port>
			</output>
		</layer>
		<layer id="386" name="19401944_const" type="Const" version="opset1">
			<data element_type="f16" offset="87178" shape="64,1,1,1" size="128"/>
			<output>
				<port id="1" precision="FP16">
					<dim>64</dim>
					<dim>1</dim>
					<dim>1</dim>
					<dim>1</dim>
				</port>
			</output>
		</layer>
		<layer id="387" name="19411945_const" type="Const" version="opset1">
			<data element_type="f16" offset="87306" shape="64,1,1,1" size="128"/>
			<output>
				<port id="1" precision="FP16">
					<dim>64</dim>
					<dim>1</dim>
					<dim>1</dim>
					<dim>1</dim>
				</port>
			</output>
		</layer>
		<layer id="388" name="469/fq_weights_1" type="FakeQuantize" version="opset1">
			<data levels="255"/>
			<input>
				<port id="0">
					<dim>64</dim>
					<dim>128</dim>
					<dim>1</dim>
					<dim>1</dim>
				</port>
				<port id="1">
					<dim>1</dim>
				</port>
				<port id="2">
					<dim>1</dim>
				</port>
				<port id="3">
					<dim>64</dim>
					<dim>1</dim>
					<dim>1</dim>
					<dim>1</dim>
				</port>
				<port id="4">
					<dim>64</dim>
					<dim>1</dim>
					<dim>1</dim>
					<dim>1</dim>
				</port>
			</input>
			<output>
				<port id="5" precision="FP16">
					<dim>64</dim>
					<dim>128</dim>
					<dim>1</dim>
					<dim>1</dim>
				</port>
			</output>
		</layer>
		<layer id="389" name="469" type="Convolution" version="opset1">
			<data dilations="1,1" output_padding="0,0" pads_begin="0,0" pads_end="0,0" strides="1,1"/>
			<input>
				<port id="0">
					<dim>1</dim>
					<dim>128</dim>
					<dim>32</dim>
					<dim>32</dim>
				</port>
				<port id="1">
					<dim>64</dim>
					<dim>128</dim>
					<dim>1</dim>
					<dim>1</dim>
				</port>
			</input>
			<output>
				<port id="2" precision="FP16">
					<dim>1</dim>
					<dim>64</dim>
					<dim>32</dim>
					<dim>32</dim>
				</port>
			</output>
		</layer>
		<layer id="390" name="data_add_1277312778/copy_const598_const" type="Const" version="opset1">
			<data element_type="f16" offset="87434" shape="1,64,1,1" size="128"/>
			<output>
				<port id="1" precision="FP16">
					<dim>1</dim>
					<dim>64</dim>
					<dim>1</dim>
					<dim>1</dim>
				</port>
			</output>
		</layer>
		<layer id="391" name="470/variance/Fused_Add_" type="Add" version="opset1">
			<input>
				<port id="0">
					<dim>1</dim>
					<dim>64</dim>
					<dim>32</dim>
					<dim>32</dim>
				</port>
				<port id="1">
					<dim>1</dim>
					<dim>64</dim>
					<dim>1</dim>
					<dim>1</dim>
				</port>
			</input>
			<output>
				<port id="2" precision="FP16">
					<dim>1</dim>
					<dim>64</dim>
					<dim>32</dim>
					<dim>32</dim>
				</port>
			</output>
		</layer>
		<layer id="392" name="31883192_const" type="Const" version="opset1">
			<data element_type="f16" offset="87562" shape="" size="2"/>
			<output>
				<port id="1" precision="FP16"/>
			</output>
		</layer>
		<layer id="393" name="31893193_const" type="Const" version="opset1">
			<data element_type="f16" offset="87564" shape="" size="2"/>
			<output>
				<port id="1" precision="FP16"/>
			</output>
		</layer>
		<layer id="394" name="31903194_const" type="Const" version="opset1">
			<data element_type="f16" offset="87562" shape="" size="2"/>
			<output>
				<port id="1" precision="FP16"/>
			</output>
		</layer>
		<layer id="395" name="31913195_const" type="Const" version="opset1">
			<data element_type="f16" offset="87564" shape="" size="2"/>
			<output>
				<port id="1" precision="FP16"/>
			</output>
		</layer>
		<layer id="396" name="472/fq_input_0" type="FakeQuantize" version="opset1">
			<data levels="256"/>
			<input>
				<port id="0">
					<dim>1</dim>
					<dim>64</dim>
					<dim>32</dim>
					<dim>32</dim>
				</port>
				<port id="1"/>
				<port id="2"/>
				<port id="3"/>
				<port id="4"/>
			</input>
			<output>
				<port id="5" precision="FP16">
					<dim>1</dim>
					<dim>64</dim>
					<dim>32</dim>
					<dim>32</dim>
				</port>
			</output>
		</layer>
		<layer id="397" name="472" type="AvgPool" version="opset1">
			<data exclude-pad="true" kernel="32,32" pads_begin="0,0" pads_end="0,0" rounding_type="floor" strides="32,32"/>
			<input>
				<port id="0">
					<dim>1</dim>
					<dim>64</dim>
					<dim>32</dim>
					<dim>32</dim>
				</port>
			</input>
			<output>
				<port id="1" precision="FP16">
					<dim>1</dim>
					<dim>64</dim>
					<dim>1</dim>
					<dim>1</dim>
				</port>
			</output>
		</layer>
		<layer id="398" name="20882092_const" type="Const" version="opset1">
			<data element_type="f16" offset="87566" shape="" size="2"/>
			<output>
				<port id="1" precision="FP16"/>
			</output>
		</layer>
		<layer id="399" name="20892093_const" type="Const" version="opset1">
			<data element_type="f16" offset="87568" shape="" size="2"/>
			<output>
				<port id="1" precision="FP16"/>
			</output>
		</layer>
		<layer id="400" name="20902094_const" type="Const" version="opset1">
			<data element_type="f16" offset="87566" shape="" size="2"/>
			<output>
				<port id="1" precision="FP16"/>
			</output>
		</layer>
		<layer id="401" name="20912095_const" type="Const" version="opset1">
			<data element_type="f16" offset="87568" shape="" size="2"/>
			<output>
				<port id="1" precision="FP16"/>
			</output>
		</layer>
		<layer id="402" name="473/WithoutBiases/fq_input_0" type="FakeQuantize" version="opset1">
			<data levels="256"/>
			<input>
				<port id="0">
					<dim>1</dim>
					<dim>64</dim>
					<dim>1</dim>
					<dim>1</dim>
				</port>
				<port id="1"/>
				<port id="2"/>
				<port id="3"/>
				<port id="4"/>
			</input>
			<output>
				<port id="5" precision="FP16">
					<dim>1</dim>
					<dim>64</dim>
					<dim>1</dim>
					<dim>1</dim>
				</port>
			</output>
		</layer>
		<layer id="403" name="473/WithoutBiases/fq_weights_1/Convert_to_float/Cast_09022_const" type="Const" version="opset1">
			<data element_type="u8" offset="87570" shape="8,64,1,1" size="512"/>
			<output>
				<port id="1" precision="U8">
					<dim>8</dim>
					<dim>64</dim>
					<dim>1</dim>
					<dim>1</dim>
				</port>
			</output>
		</layer>
		<layer id="404" name="473/WithoutBiases/fq_weights_1/Convert_to_float" type="Convert" version="opset1">
			<data destination_type="f16"/>
			<input>
				<port id="0">
					<dim>8</dim>
					<dim>64</dim>
					<dim>1</dim>
					<dim>1</dim>
				</port>
			</input>
			<output>
				<port id="1" precision="FP16">
					<dim>8</dim>
					<dim>64</dim>
					<dim>1</dim>
					<dim>1</dim>
				</port>
			</output>
		</layer>
		<layer id="405" name="473/WithoutBiases/fq_weights_1/Copy/out_low7438_const" type="Const" version="opset1">
			<data element_type="f16" offset="76028" shape="1" size="2"/>
			<output>
				<port id="1" precision="FP16">
					<dim>1</dim>
				</port>
			</output>
		</layer>
		<layer id="406" name="473/WithoutBiases/fq_weights_1/Copy/out_high7439_const" type="Const" version="opset1">
			<data element_type="f16" offset="1746" shape="1" size="2"/>
			<output>
				<port id="1" precision="FP16">
					<dim>1</dim>
				</port>
			</output>
		</layer>
		<layer id="407" name="21002104_const" type="Const" version="opset1">
			<data element_type="f16" offset="88082" shape="8,1,1,1" size="16"/>
			<output>
				<port id="1" precision="FP16">
					<dim>8</dim>
					<dim>1</dim>
					<dim>1</dim>
					<dim>1</dim>
				</port>
			</output>
		</layer>
		<layer id="408" name="21012105_const" type="Const" version="opset1">
			<data element_type="f16" offset="88098" shape="8,1,1,1" size="16"/>
			<output>
				<port id="1" precision="FP16">
					<dim>8</dim>
					<dim>1</dim>
					<dim>1</dim>
					<dim>1</dim>
				</port>
			</output>
		</layer>
		<layer id="409" name="473/WithoutBiases/fq_weights_1" type="FakeQuantize" version="opset1">
			<data levels="255"/>
			<input>
				<port id="0">
					<dim>8</dim>
					<dim>64</dim>
					<dim>1</dim>
					<dim>1</dim>
				</port>
				<port id="1">
					<dim>1</dim>
				</port>
				<port id="2">
					<dim>1</dim>
				</port>
				<port id="3">
					<dim>8</dim>
					<dim>1</dim>
					<dim>1</dim>
					<dim>1</dim>
				</port>
				<port id="4">
					<dim>8</dim>
					<dim>1</dim>
					<dim>1</dim>
					<dim>1</dim>
				</port>
			</input>
			<output>
				<port id="5" precision="FP16">
					<dim>8</dim>
					<dim>64</dim>
					<dim>1</dim>
					<dim>1</dim>
				</port>
			</output>
		</layer>
		<layer id="410" name="473/WithoutBiases" type="Convolution" version="opset1">
			<data dilations="1,1" output_padding="0,0" pads_begin="0,0" pads_end="0,0" strides="1,1"/>
			<input>
				<port id="0">
					<dim>1</dim>
					<dim>64</dim>
					<dim>1</dim>
					<dim>1</dim>
				</port>
				<port id="1">
					<dim>8</dim>
					<dim>64</dim>
					<dim>1</dim>
					<dim>1</dim>
				</port>
			</input>
			<output>
				<port id="2" precision="FP16">
					<dim>1</dim>
					<dim>8</dim>
					<dim>1</dim>
					<dim>1</dim>
				</port>
			</output>
		</layer>
		<layer id="411" name="473/Dims7936/copy_const603_const" type="Const" version="opset1">
			<data element_type="f16" offset="88114" shape="1,8,1,1" size="16"/>
			<output>
				<port id="1" precision="FP16">
					<dim>1</dim>
					<dim>8</dim>
					<dim>1</dim>
					<dim>1</dim>
				</port>
			</output>
		</layer>
		<layer id="412" name="473" type="Add" version="opset1">
			<input>
				<port id="0">
					<dim>1</dim>
					<dim>8</dim>
					<dim>1</dim>
					<dim>1</dim>
				</port>
				<port id="1">
					<dim>1</dim>
					<dim>8</dim>
					<dim>1</dim>
					<dim>1</dim>
				</port>
			</input>
			<output>
				<port id="2" precision="FP16">
					<dim>1</dim>
					<dim>8</dim>
					<dim>1</dim>
					<dim>1</dim>
				</port>
			</output>
		</layer>
		<layer id="413" name="474/Cast_18842_const" type="Const" version="opset1">
			<data element_type="f32" offset="88130" shape="1" size="4"/>
			<output>
				<port id="1" precision="FP32">
					<dim>1</dim>
				</port>
			</output>
		</layer>
		<layer id="414" name="474" type="PReLU" version="opset1">
			<input>
				<port id="0">
					<dim>1</dim>
					<dim>8</dim>
					<dim>1</dim>
					<dim>1</dim>
				</port>
				<port id="1">
					<dim>1</dim>
				</port>
			</input>
			<output>
				<port id="2" precision="FP16">
					<dim>1</dim>
					<dim>8</dim>
					<dim>1</dim>
					<dim>1</dim>
				</port>
			</output>
		</layer>
		<layer id="415" name="37683772_const" type="Const" version="opset1">
			<data element_type="f16" offset="88134" shape="" size="2"/>
			<output>
				<port id="1" precision="FP16"/>
			</output>
		</layer>
		<layer id="416" name="37693773_const" type="Const" version="opset1">
			<data element_type="f16" offset="88136" shape="" size="2"/>
			<output>
				<port id="1" precision="FP16"/>
			</output>
		</layer>
		<layer id="417" name="37703774_const" type="Const" version="opset1">
			<data element_type="f16" offset="88134" shape="" size="2"/>
			<output>
				<port id="1" precision="FP16"/>
			</output>
		</layer>
		<layer id="418" name="37713775_const" type="Const" version="opset1">
			<data element_type="f16" offset="88136" shape="" size="2"/>
			<output>
				<port id="1" precision="FP16"/>
			</output>
		</layer>
		<layer id="419" name="475/WithoutBiases/fq_input_0" type="FakeQuantize" version="opset1">
			<data levels="256"/>
			<input>
				<port id="0">
					<dim>1</dim>
					<dim>8</dim>
					<dim>1</dim>
					<dim>1</dim>
				</port>
				<port id="1"/>
				<port id="2"/>
				<port id="3"/>
				<port id="4"/>
			</input>
			<output>
				<port id="5" precision="FP16">
					<dim>1</dim>
					<dim>8</dim>
					<dim>1</dim>
					<dim>1</dim>
				</port>
			</output>
		</layer>
		<layer id="420" name="475/WithoutBiases/fq_weights_1/Convert_to_float/Cast_08854_const" type="Const" version="opset1">
			<data element_type="u8" offset="88138" shape="64,8,1,1" size="512"/>
			<output>
				<port id="1" precision="U8">
					<dim>64</dim>
					<dim>8</dim>
					<dim>1</dim>
					<dim>1</dim>
				</port>
			</output>
		</layer>
		<layer id="421" name="475/WithoutBiases/fq_weights_1/Convert_to_float" type="Convert" version="opset1">
			<data destination_type="f16"/>
			<input>
				<port id="0">
					<dim>64</dim>
					<dim>8</dim>
					<dim>1</dim>
					<dim>1</dim>
				</port>
			</input>
			<output>
				<port id="1" precision="FP16">
					<dim>64</dim>
					<dim>8</dim>
					<dim>1</dim>
					<dim>1</dim>
				</port>
			</output>
		</layer>
		<layer id="422" name="475/WithoutBiases/fq_weights_1/Copy/out_low7190_const" type="Const" version="opset1">
			<data element_type="f16" offset="76028" shape="1" size="2"/>
			<output>
				<port id="1" precision="FP16">
					<dim>1</dim>
				</port>
			</output>
		</layer>
		<layer id="423" name="475/WithoutBiases/fq_weights_1/Copy/out_high7191_const" type="Const" version="opset1">
			<data element_type="f16" offset="1746" shape="1" size="2"/>
			<output>
				<port id="1" precision="FP16">
					<dim>1</dim>
				</port>
			</output>
		</layer>
		<layer id="424" name="37803784_const" type="Const" version="opset1">
			<data element_type="f16" offset="88650" shape="64,1,1,1" size="128"/>
			<output>
				<port id="1" precision="FP16">
					<dim>64</dim>
					<dim>1</dim>
					<dim>1</dim>
					<dim>1</dim>
				</port>
			</output>
		</layer>
		<layer id="425" name="37813785_const" type="Const" version="opset1">
			<data element_type="f16" offset="88778" shape="64,1,1,1" size="128"/>
			<output>
				<port id="1" precision="FP16">
					<dim>64</dim>
					<dim>1</dim>
					<dim>1</dim>
					<dim>1</dim>
				</port>
			</output>
		</layer>
		<layer id="426" name="475/WithoutBiases/fq_weights_1" type="FakeQuantize" version="opset1">
			<data levels="255"/>
			<input>
				<port id="0">
					<dim>64</dim>
					<dim>8</dim>
					<dim>1</dim>
					<dim>1</dim>
				</port>
				<port id="1">
					<dim>1</dim>
				</port>
				<port id="2">
					<dim>1</dim>
				</port>
				<port id="3">
					<dim>64</dim>
					<dim>1</dim>
					<dim>1</dim>
					<dim>1</dim>
				</port>
				<port id="4">
					<dim>64</dim>
					<dim>1</dim>
					<dim>1</dim>
					<dim>1</dim>
				</port>
			</input>
			<output>
				<port id="5" precision="FP16">
					<dim>64</dim>
					<dim>8</dim>
					<dim>1</dim>
					<dim>1</dim>
				</port>
			</output>
		</layer>
		<layer id="427" name="475/WithoutBiases" type="Convolution" version="opset1">
			<data dilations="1,1" output_padding="0,0" pads_begin="0,0" pads_end="0,0" strides="1,1"/>
			<input>
				<port id="0">
					<dim>1</dim>
					<dim>8</dim>
					<dim>1</dim>
					<dim>1</dim>
				</port>
				<port id="1">
					<dim>64</dim>
					<dim>8</dim>
					<dim>1</dim>
					<dim>1</dim>
				</port>
			</input>
			<output>
				<port id="2" precision="FP16">
					<dim>1</dim>
					<dim>64</dim>
					<dim>1</dim>
					<dim>1</dim>
				</port>
			</output>
		</layer>
		<layer id="428" name="475/Dims8104/copy_const609_const" type="Const" version="opset1">
			<data element_type="f16" offset="88906" shape="1,64,1,1" size="128"/>
			<output>
				<port id="1" precision="FP16">
					<dim>1</dim>
					<dim>64</dim>
					<dim>1</dim>
					<dim>1</dim>
				</port>
			</output>
		</layer>
		<layer id="429" name="475" type="Add" version="opset1">
			<input>
				<port id="0">
					<dim>1</dim>
					<dim>64</dim>
					<dim>1</dim>
					<dim>1</dim>
				</port>
				<port id="1">
					<dim>1</dim>
					<dim>64</dim>
					<dim>1</dim>
					<dim>1</dim>
				</port>
			</input>
			<output>
				<port id="2" precision="FP16">
					<dim>1</dim>
					<dim>64</dim>
					<dim>1</dim>
					<dim>1</dim>
				</port>
			</output>
		</layer>
		<layer id="430" name="476" type="Sigmoid" version="opset1">
			<input>
				<port id="0">
					<dim>1</dim>
					<dim>64</dim>
					<dim>1</dim>
					<dim>1</dim>
				</port>
			</input>
			<output>
				<port id="1" precision="FP16">
					<dim>1</dim>
					<dim>64</dim>
					<dim>1</dim>
					<dim>1</dim>
				</port>
			</output>
		</layer>
		<layer id="431" name="16881692_const" type="Const" version="opset1">
			<data element_type="f16" offset="89034" shape="" size="2"/>
			<output>
				<port id="1" precision="FP16"/>
			</output>
		</layer>
		<layer id="432" name="16891693_const" type="Const" version="opset1">
			<data element_type="f16" offset="89036" shape="" size="2"/>
			<output>
				<port id="1" precision="FP16"/>
			</output>
		</layer>
…
		<edge from-layer="975" from-port="5" to-layer="977" to-port="0"/>
		<edge from-layer="976" from-port="1" to-layer="977" to-port="1"/>
		<edge from-layer="968" from-port="5" to-layer="978" to-port="0"/>
		<edge from-layer="977" from-port="2" to-layer="978" to-port="1"/>
		<edge from-layer="978" from-port="2" to-layer="980" to-port="0"/>
		<edge from-layer="979" from-port="1" to-layer="980" to-port="1"/>
		<edge from-layer="980" from-port="2" to-layer="982" to-port="0"/>
		<edge from-layer="981" from-port="1" to-layer="982" to-port="1"/>
		<edge from-layer="982" from-port="2" to-layer="987" to-port="0"/>
		<edge from-layer="983" from-port="1" to-layer="987" to-port="1"/>
		<edge from-layer="984" from-port="1" to-layer="987" to-port="2"/>
		<edge from-layer="985" from-port="1" to-layer="987" to-port="3"/>
		<edge from-layer="986" from-port="1" to-layer="987" to-port="4"/>
		<edge from-layer="988" from-port="1" to-layer="989" to-port="0"/>
		<edge from-layer="989" from-port="1" to-layer="994" to-port="0"/>
		<edge from-layer="990" from-port="1" to-layer="994" to-port="1"/>
		<edge from-layer="991" from-port="1" to-layer="994" to-port="2"/>
		<edge from-layer="992" from-port="1" to-layer="994" to-port="3"/>
		<edge from-layer="993" from-port="1" to-layer="994" to-port="4"/>
		<edge from-layer="987" from-port="5" to-layer="995" to-port="0"/>
		<edge from-layer="994" from-port="5" to-layer="995" to-port="1"/>
		<edge from-layer="995" from-port="2" to-layer="997" to-port="0"/>
		<edge from-layer="996" from-port="1" to-layer="997" to-port="1"/>
		<edge from-layer="997" from-port="2" to-layer="1002" to-port="0"/>
		<edge from-layer="998" from-port="1" to-layer="1002" to-port="1"/>
		<edge from-layer="999" from-port="1" to-layer="1002" to-port="2"/>
		<edge from-layer="1000" from-port="1" to-layer="1002" to-port="3"/>
		<edge from-layer="1001" from-port="1" to-layer="1002" to-port="4"/>
		<edge from-layer="1002" from-port="5" to-layer="1003" to-port="0"/>
		<edge from-layer="1003" from-port="1" to-layer="1008" to-port="0"/>
		<edge from-layer="1004" from-port="1" to-layer="1008" to-port="1"/>
		<edge from-layer="1005" from-port="1" to-layer="1008" to-port="2"/>
		<edge from-layer="1006" from-port="1" to-layer="1008" to-port="3"/>
		<edge from-layer="1007" from-port="1" to-layer="1008" to-port="4"/>
		<edge from-layer="1009" from-port="1" to-layer="1010" to-port="0"/>
		<edge from-layer="1010" from-port="1" to-layer="1015" to-port="0"/>
		<edge from-layer="1011" from-port="1" to-layer="1015" to-port="1"/>
		<edge from-layer="1012" from-port="1" to-layer="1015" to-port="2"/>
		<edge from-layer="1013" from-port="1" to-layer="1015" to-port="3"/>
		<edge from-layer="1014" from-port="1" to-layer="1015" to-port="4"/>
		<edge from-layer="1008" from-port="5" to-layer="1016" to-port="0"/>
		<edge from-layer="1015" from-port="5" to-layer="1016" to-port="1"/>
		<edge from-layer="1016" from-port="2" to-layer="1018" to-port="0"/>
		<edge from-layer="1017" from-port="1" to-layer="1018" to-port="1"/>
		<edge from-layer="1018" from-port="2" to-layer="1020" to-port="0"/>
		<edge from-layer="1019" from-port="1" to-layer="1020" to-port="1"/>
		<edge from-layer="1020" from-port="2" to-layer="1025" to-port="0"/>
		<edge from-layer="1021" from-port="1" to-layer="1025" to-port="1"/>
		<edge from-layer="1022" from-port="1" to-layer="1025" to-port="2"/>
		<edge from-layer="1023" from-port="1" to-layer="1025" to-port="3"/>
		<edge from-layer="1024" from-port="1" to-layer="1025" to-port="4"/>
		<edge from-layer="1026" from-port="1" to-layer="1027" to-port="0"/>
		<edge from-layer="1027" from-port="1" to-layer="1032" to-port="0"/>
		<edge from-layer="1028" from-port="1" to-layer="1032" to-port="1"/>
		<edge from-layer="1029" from-port="1" to-layer="1032" to-port="2"/>
		<edge from-layer="1030" from-port="1" to-layer="1032" to-port="3"/>
		<edge from-layer="1031" from-port="1" to-layer="1032" to-port="4"/>
		<edge from-layer="1025" from-port="5" to-layer="1033" to-port="0"/>
		<edge from-layer="1032" from-port="5" to-layer="1033" to-port="1"/>
		<edge from-layer="1033" from-port="2" to-layer="1035" to-port="0"/>
		<edge from-layer="1034" from-port="1" to-layer="1035" to-port="1"/>
		<edge from-layer="1035" from-port="2" to-layer="1036" to-port="0"/>
		<edge from-layer="1036" from-port="1" to-layer="1041" to-port="0"/>
		<edge from-layer="1037" from-port="1" to-layer="1041" to-port="1"/>
		<edge from-layer="1038" from-port="1" to-layer="1041" to-port="2"/>
		<edge from-layer="1039" from-port="1" to-layer="1041" to-port="3"/>
		<edge from-layer="1040" from-port="1" to-layer="1041" to-port="4"/>
		<edge from-layer="1002" from-port="5" to-layer="1042" to-port="0"/>
		<edge from-layer="1041" from-port="5" to-layer="1042" to-port="1"/>
		<edge from-layer="1042" from-port="2" to-layer="1047" to-port="0"/>
		<edge from-layer="1043" from-port="1" to-layer="1047" to-port="1"/>
		<edge from-layer="1044" from-port="1" to-layer="1047" to-port="2"/>
		<edge from-layer="1045" from-port="1" to-layer="1047" to-port="3"/>
		<edge from-layer="1046" from-port="1" to-layer="1047" to-port="4"/>
		<edge from-layer="951" from-port="5" to-layer="1048" to-port="0"/>
		<edge from-layer="1047" from-port="5" to-layer="1048" to-port="1"/>
		<edge from-layer="1048" from-port="2" to-layer="1053" to-port="0"/>
		<edge from-layer="1049" from-port="1" to-layer="1053" to-port="1"/>
		<edge from-layer="1050" from-port="1" to-layer="1053" to-port="2"/>
		<edge from-layer="1051" from-port="1" to-layer="1053" to-port="3"/>
		<edge from-layer="1052" from-port="1" to-layer="1053" to-port="4"/>
		<edge from-layer="1054" from-port="1" to-layer="1055" to-port="0"/>
		<edge from-layer="1055" from-port="1" to-layer="1060" to-port="0"/>
		<edge from-layer="1056" from-port="1" to-layer="1060" to-port="1"/>
		<edge from-layer="1057" from-port="1" to-layer="1060" to-port="2"/>
		<edge from-layer="1058" from-port="1" to-layer="1060" to-port="3"/>
		<edge from-layer="1059" from-port="1" to-layer="1060" to-port="4"/>
		<edge from-layer="1053" from-port="5" to-layer="1061" to-port="0"/>
		<edge from-layer="1060" from-port="5" to-layer="1061" to-port="1"/>
		<edge from-layer="1061" from-port="2" to-layer="1063" to-port="0"/>
		<edge from-layer="1062" from-port="1" to-layer="1063" to-port="1"/>
		<edge from-layer="1063" from-port="2" to-layer="1065" to-port="0"/>
		<edge from-layer="1064" from-port="1" to-layer="1065" to-port="1"/>
		<edge from-layer="1065" from-port="2" to-layer="1070" to-port="0"/>
		<edge from-layer="1066" from-port="1" to-layer="1070" to-port="1"/>
		<edge from-layer="1067" from-port="1" to-layer="1070" to-port="2"/>
		<edge from-layer="1068" from-port="1" to-layer="1070" to-port="3"/>
		<edge from-layer="1069" from-port="1" to-layer="1070" to-port="4"/>
		<edge from-layer="1071" from-port="1" to-layer="1072" to-port="0"/>
		<edge from-layer="1072" from-port="1" to-layer="1077" to-port="0"/>
		<edge from-layer="1073" from-port="1" to-layer="1077" to-port="1"/>
		<edge from-layer="1074" from-port="1" to-layer="1077" to-port="2"/>
		<edge from-layer="1075" from-port="1" to-layer="1077" to-port="3"/>
		<edge from-layer="1076" from-port="1" to-layer="1077" to-port="4"/>
		<edge from-layer="1077" from-port="5" to-layer="1079" to-port="0"/>
		<edge from-layer="1078" from-port="1" to-layer="1079" to-port="1"/>
		<edge from-layer="1070" from-port="5" to-layer="1080" to-port="0"/>
		<edge from-layer="1079" from-port="2" to-layer="1080" to-port="1"/>
		<edge from-layer="1080" from-port="2" to-layer="1082" to-port="0"/>
		<edge from-layer="1081" from-port="1" to-layer="1082" to-port="1"/>
		<edge from-layer="1082" from-port="2" to-layer="1084" to-port="0"/>
		<edge from-layer="1083" from-port="1" to-layer="1084" to-port="1"/>
		<edge from-layer="1084" from-port="2" to-layer="1089" to-port="0"/>
		<edge from-layer="1085" from-port="1" to-layer="1089" to-port="1"/>
		<edge from-layer="1086" from-port="1" to-layer="1089" to-port="2"/>
		<edge from-layer="1087" from-port="1" to-layer="1089" to-port="3"/>
		<edge from-layer="1088" from-port="1" to-layer="1089" to-port="4"/>
		<edge from-layer="1090" from-port="1" to-layer="1091" to-port="0"/>
		<edge from-layer="1091" from-port="1" to-layer="1096" to-port="0"/>
		<edge from-layer="1092" from-port="1" to-layer="1096" to-port="1"/>
		<edge from-layer="1093" from-port="1" to-layer="1096" to-port="2"/>
		<edge from-layer="1094" from-port="1" to-layer="1096" to-port="3"/>
		<edge from-layer="1095" from-port="1" to-layer="1096" to-port="4"/>
		<edge from-layer="1089" from-port="5" to-layer="1097" to-port="0"/>
		<edge from-layer="1096" from-port="5" to-layer="1097" to-port="1"/>
		<edge from-layer="1097" from-port="2" to-layer="1099" to-port="0"/>
		<edge from-layer="1098" from-port="1" to-layer="1099" to-port="1"/>
		<edge from-layer="1099" from-port="2" to-layer="1104" to-port="0"/>
		<edge from-layer="1100" from-port="1" to-layer="1104" to-port="1"/>
		<edge from-layer="1101" from-port="1" to-layer="1104" to-port="2"/>
		<edge from-layer="1102" from-port="1" to-layer="1104" to-port="3"/>
		<edge from-layer="1103" from-port="1" to-layer="1104" to-port="4"/>
		<edge from-layer="1104" from-port="5" to-layer="1105" to-port="0"/>
		<edge from-layer="1105" from-port="1" to-layer="1110" to-port="0"/>
		<edge from-layer="1106" from-port="1" to-layer="1110" to-port="1"/>
		<edge from-layer="1107" from-port="1" to-layer="1110" to-port="2"/>
		<edge from-layer="1108" from-port="1" to-layer="1110" to-port="3"/>
		<edge from-layer="1109" from-port="1" to-layer="1110" to-port="4"/>
		<edge from-layer="1111" from-port="1" to-layer="1112" to-port="0"/>
		<edge from-layer="1112" from-port="1" to-layer="1117" to-port="0"/>
		<edge from-layer="1113" from-port="1" to-layer="1117" to-port="1"/>
		<edge from-layer="1114" from-port="1" to-layer="1117" to-port="2"/>
		<edge from-layer="1115" from-port="1" to-layer="1117" to-port="3"/>
		<edge from-layer="1116" from-port="1" to-layer="1117" to-port="4"/>
		<edge from-layer="1110" from-port="5" to-layer="1118" to-port="0"/>
		<edge from-layer="1117" from-port="5" to-layer="1118" to-port="1"/>
		<edge from-layer="1118" from-port="2" to-layer="1120" to-port="0"/>
		<edge from-layer="1119" from-port="1" to-layer="1120" to-port="1"/>
		<edge from-layer="1120" from-port="2" to-layer="1122" to-port="0"/>
		<edge from-layer="1121" from-port="1" to-layer="1122" to-port="1"/>
		<edge from-layer="1122" from-port="2" to-layer="1127" to-port="0"/>
		<edge from-layer="1123" from-port="1" to-layer="1127" to-port="1"/>
		<edge from-layer="1124" from-port="1" to-layer="1127" to-port="2"/>
		<edge from-layer="1125" from-port="1" to-layer="1127" to-port="3"/>
		<edge from-layer="1126" from-port="1" to-layer="1127" to-port="4"/>
		<edge from-layer="1128" from-port="1" to-layer="1129" to-port="0"/>
		<edge from-layer="1129" from-port="1" to-layer="1134" to-port="0"/>
		<edge from-layer="1130" from-port="1" to-layer="1134" to-port="1"/>
		<edge from-layer="1131" from-port="1" to-layer="1134" to-port="2"/>
		<edge from-layer="1132" from-port="1" to-layer="1134" to-port="3"/>
		<edge from-layer="1133" from-port="1" to-layer="1134" to-port="4"/>
		<edge from-layer="1127" from-port="5" to-layer="1135" to-port="0"/>
		<edge from-layer="1134" from-port="5" to-layer="1135" to-port="1"/>
		<edge from-layer="1135" from-port="2" to-layer="1137" to-port="0"/>
		<edge from-layer="1136" from-port="1" to-layer="1137" to-port="1"/>
		<edge from-layer="1137" from-port="2" to-layer="1138" to-port="0"/>
		<edge from-layer="1138" from-port="1" to-layer="1143" to-port="0"/>
		<edge from-layer="1139" from-port="1" to-layer="1143" to-port="1"/>
		<edge from-layer="1140" from-port="1" to-layer="1143" to-port="2"/>
		<edge from-layer="1141" from-port="1" to-layer="1143" to-port="3"/>
		<edge from-layer="1142" from-port="1" to-layer="1143" to-port="4"/>
		<edge from-layer="1104" from-port="5" to-layer="1144" to-port="0"/>
		<edge from-layer="1143" from-port="5" to-layer="1144" to-port="1"/>
		<edge from-layer="1144" from-port="2" to-layer="1149" to-port="0"/>
		<edge from-layer="1145" from-port="1" to-layer="1149" to-port="1"/>
		<edge from-layer="1146" from-port="1" to-layer="1149" to-port="2"/>
		<edge from-layer="1147" from-port="1" to-layer="1149" to-port="3"/>
		<edge from-layer="1148" from-port="1" to-layer="1149" to-port="4"/>
		<edge from-layer="1053" from-port="5" to-layer="1150" to-port="0"/>
		<edge from-layer="1149" from-port="5" to-layer="1150" to-port="1"/>
		<edge from-layer="1150" from-port="2" to-layer="1155" to-port="0"/>
		<edge from-layer="1151" from-port="1" to-layer="1155" to-port="1"/>
		<edge from-layer="1152" from-port="1" to-layer="1155" to-port="2"/>
		<edge from-layer="1153" from-port="1" to-layer="1155" to-port="3"/>
		<edge from-layer="1154" from-port="1" to-layer="1155" to-port="4"/>
		<edge from-layer="1156" from-port="1" to-layer="1157" to-port="0"/>
		<edge from-layer="1157" from-port="1" to-layer="1162" to-port="0"/>
		<edge from-layer="1158" from-port="1" to-layer="1162" to-port="1"/>
		<edge from-layer="1159" from-port="1" to-layer="1162" to-port="2"/>
		<edge from-layer="1160" from-port="1" to-layer="1162" to-port="3"/>
		<edge from-layer="1161" from-port="1" to-layer="1162" to-port="4"/>
		<edge from-layer="1155" from-port="5" to-layer="1163" to-port="0"/>
		<edge from-layer="1162" from-port="5" to-layer="1163" to-port="1"/>
		<edge from-layer="1163" from-port="2" to-layer="1165" to-port="0"/>
		<edge from-layer="1164" from-port="1" to-layer="1165" to-port="1"/>
		<edge from-layer="1165" from-port="2" to-layer="1167" to-port="0"/>
		<edge from-layer="1166" from-port="1" to-layer="1167" to-port="1"/>
		<edge from-layer="1167" from-port="2" to-layer="1172" to-port="0"/>
		<edge from-layer="1168" from-port="1" to-layer="1172" to-port="1"/>
		<edge from-layer="1169" from-port="1" to-layer="1172" to-port="2"/>
		<edge from-layer="1170" from-port="1" to-layer="1172" to-port="3"/>
		<edge from-layer="1171" from-port="1" to-layer="1172" to-port="4"/>
		<edge from-layer="1173" from-port="1" to-layer="1174" to-port="0"/>
		<edge from-layer="1174" from-port="1" to-layer="1179" to-port="0"/>
		<edge from-layer="1175" from-port="1" to-layer="1179" to-port="1"/>
		<edge from-layer="1176" from-port="1" to-layer="1179" to-port="2"/>
		<edge from-layer="1177" from-port="1" to-layer="1179" to-port="3"/>
		<edge from-layer="1178" from-port="1" to-layer="1179" to-port="4"/>
		<edge from-layer="1179" from-port="5" to-layer="1181" to-port="0"/>
		<edge from-layer="1180" from-port="1" to-layer="1181" to-port="1"/>
		<edge from-layer="1172" from-port="5" to-layer="1182" to-port="0"/>
		<edge from-layer="1181" from-port="2" to-layer="1182" to-port="1"/>
		<edge from-layer="1182" from-port="2" to-layer="1184" to-port="0"/>
		<edge from-layer="1183" from-port="1" to-layer="1184" to-port="1"/>
		<edge from-layer="1184" from-port="2" to-layer="1186" to-port="0"/>
		<edge from-layer="1185" from-port="1" to-layer="1186" to-port="1"/>
		<edge from-layer="1186" from-port="2" to-layer="1191" to-port="0"/>
		<edge from-layer="1187" from-port="1" to-layer="1191" to-port="1"/>
		<edge from-layer="1188" from-port="1" to-layer="1191" to-port="2"/>
		<edge from-layer="1189" from-port="1" to-layer="1191" to-port="3"/>
		<edge from-layer="1190" from-port="1" to-layer="1191" to-port="4"/>
		<edge from-layer="1192" from-port="1" to-layer="1193" to-port="0"/>
		<edge from-layer="1193" from-port="1" to-layer="1198" to-port="0"/>
		<edge from-layer="1194" from-port="1" to-layer="1198" to-port="1"/>
		<edge from-layer="1195" from-port="1" to-layer="1198" to-port="2"/>
		<edge from-layer="1196" from-port="1" to-layer="1198" to-port="3"/>
		<edge from-layer="1197" from-port="1" to-layer="1198" to-port="4"/>
		<edge from-layer="1191" from-port="5" to-layer="1199" to-port="0"/>
		<edge from-layer="1198" from-port="5" to-layer="1199" to-port="1"/>
		<edge from-layer="1199" from-port="2" to-layer="1201" to-port="0"/>
		<edge from-layer="1200" from-port="1" to-layer="1201" to-port="1"/>
		<edge from-layer="1201" from-port="2" to-layer="1206" to-port="0"/>
		<edge from-layer="1202" from-port="1" to-layer="1206" to-port="1"/>
		<edge from-layer="1203" from-port="1" to-layer="1206" to-port="2"/>
		<edge from-layer="1204" from-port="1" to-layer="1206" to-port="3"/>
		<edge from-layer="1205" from-port="1" to-layer="1206" to-port="4"/>
		<edge from-layer="1206" from-port="5" to-layer="1207" to-port="0"/>
		<edge from-layer="1207" from-port="1" to-layer="1212" to-port="0"/>
		<edge from-layer="1208" from-port="1" to-layer="1212" to-port="1"/>
		<edge from-layer="1209" from-port="1" to-layer="1212" to-port="2"/>
		<edge from-layer="1210" from-port="1" to-layer="1212" to-port="3"/>
		<edge from-layer="1211" from-port="1" to-layer="1212" to-port="4"/>
		<edge from-layer="1213" from-port="1" to-layer="1214" to-port="0"/>
		<edge from-layer="1214" from-port="1" to-layer="1219" to-port="0"/>
		<edge from-layer="1215" from-port="1" to-layer="1219" to-port="1"/>
		<edge from-layer="1216" from-port="1" to-layer="1219" to-port="2"/>
		<edge from-layer="1217" from-port="1" to-layer="1219" to-port="3"/>
		<edge from-layer="1218" from-port="1" to-layer="1219" to-port="4"/>
		<edge from-layer="1212" from-port="5" to-layer="1220" to-port="0"/>
		<edge from-layer="1219" from-port="5" to-layer="1220" to-port="1"/>
		<edge from-layer="1220" from-port="2" to-layer="1222" to-port="0"/>
		<edge from-layer="1221" from-port="1" to-layer="1222" to-port="1"/>
		<edge from-layer="1222" from-port="2" to-layer="1224" to-port="0"/>
		<edge from-layer="1223" from-port="1" to-layer="1224" to-port="1"/>
		<edge from-layer="1224" from-port="2" to-layer="1229" to-port="0"/>
		<edge from-layer="1225" from-port="1" to-layer="1229" to-port="1"/>
		<edge from-layer="1226" from-port="1" to-layer="1229" to-port="2"/>
		<edge from-layer="1227" from-port="1" to-layer="1229" to-port="3"/>
		<edge from-layer="1228" from-port="1" to-layer="1229" to-port="4"/>
		<edge from-layer="1230" from-port="1" to-layer="1231" to-port="0"/>
		<edge from-layer="1231" from-port="1" to-layer="1236" to-port="0"/>
		<edge from-layer="1232" from-port="1" to-layer="1236" to-port="1"/>
		<edge from-layer="1233" from-port="1" to-layer="1236" to-port="2"/>
		<edge from-layer="1234" from-port="1" to-layer="1236" to-port="3"/>
		<edge from-layer="1235" from-port="1" to-layer="1236" to-port="4"/>
		<edge from-layer="1229" from-port="5" to-layer="1237" to-port="0"/>
		<edge from-layer="1236" from-port="5" to-layer="1237" to-port="1"/>
		<edge from-layer="1237" from-port="2" to-layer="1239" to-port="0"/>
		<edge from-layer="1238" from-port="1" to-layer="1239" to-port="1"/>
		<edge from-layer="1239" from-port="2" to-layer="1240" to-port="0"/>
		<edge from-layer="1240" from-port="1" to-layer="1245" to-port="0"/>
		<edge from-layer="1241" from-port="1" to-layer="1245" to-port="1"/>
		<edge from-layer="1242" from-port="1" to-layer="1245" to-port="2"/>
		<edge from-layer="1243" from-port="1" to-layer="1245" to-port="3"/>
		<edge from-layer="1244" from-port="1" to-layer="1245" to-port="4"/>
		<edge from-layer="1206" from-port="5" to-layer="1246" to-port="0"/>
		<edge from-layer="1245" from-port="5" to-layer="1246" to-port="1"/>
		<edge from-layer="1246" from-port="2" to-layer="1251" to-port="0"/>
		<edge from-layer="1247" from-port="1" to-layer="1251" to-port="1"/>
		<edge from-layer="1248" from-port="1" to-layer="1251" to-port="2"/>
		<edge from-layer="1249" from-port="1" to-layer="1251" to-port="3"/>
		<edge from-layer="1250" from-port="1" to-layer="1251" to-port="4"/>
		<edge from-layer="1155" from-port="5" to-layer="1252" to-port="0"/>
		<edge from-layer="1251" from-port="5" to-layer="1252" to-port="1"/>
		<edge from-layer="1252" from-port="2" to-layer="1257" to-port="0"/>
		<edge from-layer="1253" from-port="1" to-layer="1257" to-port="1"/>
		<edge from-layer="1254" from-port="1" to-layer="1257" to-port="2"/>
		<edge from-layer="1255" from-port="1" to-layer="1257" to-port="3"/>
		<edge from-layer="1256" from-port="1" to-layer="1257" to-port="4"/>
		<edge from-layer="1258" from-port="1" to-layer="1259" to-port="0"/>
		<edge from-layer="1259" from-port="1" to-layer="1264" to-port="0"/>
		<edge from-layer="1260" from-port="1" to-layer="1264" to-port="1"/>
		<edge from-layer="1261" from-port="1" to-layer="1264" to-port="2"/>
		<edge from-layer="1262" from-port="1" to-layer="1264" to-port="3"/>
		<edge from-layer="1263" from-port="1" to-layer="1264" to-port="4"/>
		<edge from-layer="1257" from-port="5" to-layer="1265" to-port="0"/>
		<edge from-layer="1264" from-port="5" to-layer="1265" to-port="1"/>
		<edge from-layer="1265" from-port="2" to-layer="1267" to-port="0"/>
		<edge from-layer="1266" from-port="1" to-layer="1267" to-port="1"/>
		<edge from-layer="1267" from-port="2" to-layer="1269" to-port="0"/>
		<edge from-layer="1268" from-port="1" to-layer="1269" to-port="1"/>
		<edge from-layer="1269" from-port="2" to-layer="1274" to-port="0"/>
		<edge from-layer="1270" from-port="1" to-layer="1274" to-port="1"/>
		<edge from-layer="1271" from-port="1" to-layer="1274" to-port="2"/>
		<edge from-layer="1272" from-port="1" to-layer="1274" to-port="3"/>
		<edge from-layer="1273" from-port="1" to-layer="1274" to-port="4"/>
		<edge from-layer="1275" from-port="1" to-layer="1276" to-port="0"/>
		<edge from-layer="1276" from-port="1" to-layer="1281" to-port="0"/>
		<edge from-layer="1277" from-port="1" to-layer="1281" to-port="1"/>
		<edge from-layer="1278" from-port="1" to-layer="1281" to-port="2"/>
		<edge from-layer="1279" from-port="1" to-layer="1281" to-port="3"/>
		<edge from-layer="1280" from-port="1" to-layer="1281" to-port="4"/>
		<edge from-layer="1281" from-port="5" to-layer="1283" to-port="0"/>
		<edge from-layer="1282" from-port="1" to-layer="1283" to-port="1"/>
		<edge from-layer="1274" from-port="5" to-layer="1284" to-port="0"/>
		<edge from-layer="1283" from-port="2" to-layer="1284" to-port="1"/>
		<edge from-layer="1284" from-port="2" to-layer="1286" to-port="0"/>
		<edge from-layer="1285" from-port="1" to-layer="1286" to-port="1"/>
		<edge from-layer="1286" from-port="2" to-layer="1288" to-port="0"/>
		<edge from-layer="1287" from-port="1" to-layer="1288" to-port="1"/>
		<edge from-layer="1288" from-port="2" to-layer="1293" to-port="0"/>
		<edge from-layer="1289" from-port="1" to-layer="1293" to-port="1"/>
		<edge from-layer="1290" from-port="1" to-layer="1293" to-port="2"/>
		<edge from-layer="1291" from-port="1" to-layer="1293" to-port="3"/>
		<edge from-layer="1292" from-port="1" to-layer="1293" to-port="4"/>
		<edge from-layer="1294" from-port="1" to-layer="1295" to-port="0"/>
		<edge from-layer="1295" from-port="1" to-layer="1300" to-port="0"/>
		<edge from-layer="1296" from-port="1" to-layer="1300" to-port="1"/>
		<edge from-layer="1297" from-port="1" to-layer="1300" to-port="2"/>
		<edge from-layer="1298" from-port="1" to-layer="1300" to-port="3"/>
		<edge from-layer="1299" from-port="1" to-layer="1300" to-port="4"/>
		<edge from-layer="1293" from-port="5" to-layer="1301" to-port="0"/>
		<edge from-layer="1300" from-port="5" to-layer="1301" to-port="1"/>
		<edge from-layer="1301" from-port="2" to-layer="1303" to-port="0"/>
		<edge from-layer="1302" from-port="1" to-layer="1303" to-port="1"/>
		<edge from-layer="1303" from-port="2" to-layer="1308" to-port="0"/>
		<edge from-layer="1304" from-port="1" to-layer="1308" to-port="1"/>
		<edge from-layer="1305" from-port="1" to-layer="1308" to-port="2"/>
		<edge from-layer="1306" from-port="1" to-layer="1308" to-port="3"/>
		<edge from-layer="1307" from-port="1" to-layer="1308" to-port="4"/>
		<edge from-layer="1308" from-port="5" to-layer="1309" to-port="0"/>
		<edge from-layer="1309" from-port="1" to-layer="1314" to-port="0"/>
		<edge from-layer="1310" from-port="1" to-layer="1314" to-port="1"/>
		<edge from-layer="1311" from-port="1" to-layer="1314" to-port="2"/>
		<edge from-layer="1312" from-port="1" to-layer="1314" to-port="3"/>
		<edge from-layer="1313" from-port="1" to-layer="1314" to-port="4"/>
		<edge from-layer="1315" from-port="1" to-layer="1316" to-port="0"/>
		<edge from-layer="1316" from-port="1" to-layer="1321" to-port="0"/>
		<edge from-layer="1317" from-port="1" to-layer="1321" to-port="1"/>
		<edge from-layer="1318" from-port="1" to-layer="1321" to-port="2"/>
		<edge from-layer="1319" from-port="1" to-layer="1321" to-port="3"/>
		<edge from-layer="1320" from-port="1" to-layer="1321" to-port="4"/>
		<edge from-layer="1314" from-port="5" to-layer="1322" to-port="0"/>
		<edge from-layer="1321" from-port="5" to-layer="1322" to-port="1"/>
		<edge from-layer="1322" from-port="2" to-layer="1324" to-port="0"/>
		<edge from-layer="1323" from-port="1" to-layer="1324" to-port="1"/>
		<edge from-layer="1324" from-port="2" to-layer="1326" to-port="0"/>
		<edge from-layer="1325" from-port="1" to-layer="1326" to-port="1"/>
		<edge from-layer="1326" from-port="2" to-layer="1331" to-port="0"/>
		<edge from-layer="1327" from-port="1" to-layer="1331" to-port="1"/>
		<edge from-layer="1328" from-port="1" to-layer="1331" to-port="2"/>
		<edge from-layer="1329" from-port="1" to-layer="1331" to-port="3"/>
		<edge from-layer="1330" from-port="1" to-layer="1331" to-port="4"/>
		<edge from-layer="1332" from-port="1" to-layer="1333" to-port="0"/>
		<edge from-layer="1333" from-port="1" to-layer="1338" to-port="0"/>
		<edge from-layer="1334" from-port="1" to-layer="1338" to-port="1"/>
		<edge from-layer="1335" from-port="1" to-layer="1338" to-port="2"/>
		<edge from-layer="1336" from-port="1" to-layer="1338" to-port="3"/>
		<edge from-layer="1337" from-port="1" to-layer="1338" to-port="4"/>
		<edge from-layer="1331" from-port="5" to-layer="1339" to-port="0"/>
		<edge from-layer="1338" from-port="5" to-layer="1339" to-port="1"/>
		<edge from-layer="1339" from-port="2" to-layer="1341" to-port="0"/>
		<edge from-layer="1340" from-port="1" to-layer="1341" to-port="1"/>
		<edge from-layer="1341" from-port="2" to-layer="1342" to-port="0"/>
		<edge from-layer="1342" from-port="1" to-layer="1347" to-port="0"/>
		<edge from-layer="1343" from-port="1" to-layer="1347" to-port="1"/>
		<edge from-layer="1344" from-port="1" to-layer="1347" to-port="2"/>
		<edge from-layer="1345" from-port="1" to-layer="1347" to-port="3"/>
		<edge from-layer="1346" from-port="1" to-layer="1347" to-port="4"/>
		<edge from-layer="1308" from-port="5" to-layer="1348" to-port="0"/>
		<edge from-layer="1347" from-port="5" to-layer="1348" to-port="1"/>
		<edge from-layer="1348" from-port="2" to-layer="1353" to-port="0"/>
		<edge from-layer="1349" from-port="1" to-layer="1353" to-port="1"/>
		<edge from-layer="1350" from-port="1" to-layer="1353" to-port="2"/>
		<edge from-layer="1351" from-port="1" to-layer="1353" to-port="3"/>
		<edge from-layer="1352" from-port="1" to-layer="1353" to-port="4"/>
		<edge from-layer="1354" from-port="1" to-layer="1355" to-port="0"/>
		<edge from-layer="1355" from-port="1" to-layer="1360" to-port="0"/>
		<edge from-layer="1356" from-port="1" to-layer="1360" to-port="1"/>
		<edge from-layer="1357" from-port="1" to-layer="1360" to-port="2"/>
		<edge from-layer="1358" from-port="1" to-layer="1360" to-port="3"/>
		<edge from-layer="1359" from-port="1" to-layer="1360" to-port="4"/>
		<edge from-layer="1353" from-port="5" to-layer="1361" to-port="0"/>
		<edge from-layer="1360" from-port="5" to-layer="1361" to-port="1"/>
		<edge from-layer="1361" from-port="2" to-layer="1363" to-port="0"/>
		<edge from-layer="1362" from-port="1" to-layer="1363" to-port="1"/>
		<edge from-layer="1363" from-port="2" to-layer="1365" to-port="0"/>
		<edge from-layer="1364" from-port="1" to-layer="1365" to-port="1"/>
		<edge from-layer="1365" from-port="2" to-layer="1370" to-port="0"/>
		<edge from-layer="1366" from-port="1" to-layer="1370" to-port="1"/>
		<edge from-layer="1367" from-port="1" to-layer="1370" to-port="2"/>
		<edge from-layer="1368" from-port="1" to-layer="1370" to-port="3"/>
		<edge from-layer="1369" from-port="1" to-layer="1370" to-port="4"/>
		<edge from-layer="1371" from-port="1" to-layer="1372" to-port="0"/>
		<edge from-layer="1372" from-port="1" to-layer="1377" to-port="0"/>
		<edge from-layer="1373" from-port="1" to-layer="1377" to-port="1"/>
		<edge from-layer="1374" from-port="1" to-layer="1377" to-port="2"/>
		<edge from-layer="1375" from-port="1" to-layer="1377" to-port="3"/>
		<edge from-layer="1376" from-port="1" to-layer="1377" to-port="4"/>
		<edge from-layer="1377" from-port="5" to-layer="1379" to-port="0"/>
		<edge from-layer="1378" from-port="1" to-layer="1379" to-port="1"/>
		<edge from-layer="1370" from-port="5" to-layer="1380" to-port="0"/>
		<edge from-layer="1379" from-port="2" to-layer="1380" to-port="1"/>
		<edge from-layer="1380" from-port="2" to-layer="1382" to-port="0"/>
		<edge from-layer="1381" from-port="1" to-layer="1382" to-port="1"/>
		<edge from-layer="1382" from-port="2" to-layer="1384" to-port="0"/>
		<edge from-layer="1383" from-port="1" to-layer="1384" to-port="1"/>
		<edge from-layer="1384" from-port="2" to-layer="1389" to-port="0"/>
		<edge from-layer="1385" from-port="1" to-layer="1389" to-port="1"/>
		<edge from-layer="1386" from-port="1" to-layer="1389" to-port="2"/>
		<edge from-layer="1387" from-port="1" to-layer="1389" to-port="3"/>
		<edge from-layer="1388" from-port="1" to-layer="1389" to-port="4"/>
		<edge from-layer="1390" from-port="1" to-layer="1391" to-port="0"/>
		<edge from-layer="1391" from-port="1" to-layer="1396" to-port="0"/>
		<edge from-layer="1392" from-port="1" to-layer="1396" to-port="1"/>
		<edge from-layer="1393" from-port="1" to-layer="1396" to-port="2"/>
		<edge from-layer="1394" from-port="1" to-layer="1396" to-port="3"/>
		<edge from-layer="1395" from-port="1" to-layer="1396" to-port="4"/>
		<edge from-layer="1389" from-port="5" to-layer="1397" to-port="0"/>
		<edge from-layer="1396" from-port="5" to-layer="1397" to-port="1"/>
		<edge from-layer="1397" from-port="2" to-layer="1399" to-port="0"/>
		<edge from-layer="1398" from-port="1" to-layer="1399" to-port="1"/>
		<edge from-layer="1399" from-port="2" to-layer="1404" to-port="0"/>
		<edge from-layer="1400" from-port="1" to-layer="1404" to-port="1"/>
		<edge from-layer="1401" from-port="1" to-layer="1404" to-port="2"/>
		<edge from-layer="1402" from-port="1" to-layer="1404" to-port="3"/>
		<edge from-layer="1403" from-port="1" to-layer="1404" to-port="4"/>
		<edge from-layer="1404" from-port="5" to-layer="1405" to-port="0"/>
		<edge from-layer="1405" from-port="1" to-layer="1410" to-port="0"/>
		<edge from-layer="1406" from-port="1" to-layer="1410" to-port="1"/>
		<edge from-layer="1407" from-port="1" to-layer="1410" to-port="2"/>
		<edge from-layer="1408" from-port="1" to-layer="1410" to-port="3"/>
		<edge from-layer="1409" from-port="1" to-layer="1410" to-port="4"/>
		<edge from-layer="1411" from-port="1" to-layer="1412" to-port="0"/>
		<edge from-layer="1412" from-port="1" to-layer="1417" to-port="0"/>
		<edge from-layer="1413" from-port="1" to-layer="1417" to-port="1"/>
		<edge from-layer="1414" from-port="1" to-layer="1417" to-port="2"/>
		<edge from-layer="1415" from-port="1" to-layer="1417" to-port="3"/>
		<edge from-layer="1416" from-port="1" to-layer="1417" to-port="4"/>
		<edge from-layer="1410" from-port="5" to-layer="1418" to-port="0"/>
		<edge from-layer="1417" from-port="5" to-layer="1418" to-port="1"/>
		<edge from-layer="1418" from-port="2" to-layer="1420" to-port="0"/>
		<edge from-layer="1419" from-port="1" to-layer="1420" to-port="1"/>
		<edge from-layer="1420" from-port="2" to-layer="1422" to-port="0"/>
		<edge from-layer="1421" from-port="1" to-layer="1422" to-port="1"/>
		<edge from-layer="1422" from-port="2" to-layer="1427" to-port="0"/>
		<edge from-layer="1423" from-port="1" to-layer="1427" to-port="1"/>
		<edge from-layer="1424" from-port="1" to-layer="1427" to-port="2"/>
		<edge from-layer="1425" from-port="1" to-layer="1427" to-port="3"/>
		<edge from-layer="1426" from-port="1" to-layer="1427" to-port="4"/>
		<edge from-layer="1428" from-port="1" to-layer="1429" to-port="0"/>
		<edge from-layer="1429" from-port="1" to-layer="1434" to-port="0"/>
		<edge from-layer="1430" from-port="1" to-layer="1434" to-port="1"/>
		<edge from-layer="1431" from-port="1" to-layer="1434" to-port="2"/>
		<edge from-layer="1432" from-port="1" to-layer="1434" to-port="3"/>
		<edge from-layer="1433" from-port="1" to-layer="1434" to-port="4"/>
		<edge from-layer="1427" from-port="5" to-layer="1435" to-port="0"/>
		<edge from-layer="1434" from-port="5" to-layer="1435" to-port="1"/>
		<edge from-layer="1435" from-port="2" to-layer="1437" to-port="0"/>
		<edge from-layer="1436" from-port="1" to-layer="1437" to-port="1"/>
		<edge from-layer="1437" from-port="2" to-layer="1438" to-port="0"/>
		<edge from-layer="1438" from-port="1" to-layer="1443" to-port="0"/>
		<edge from-layer="1439" from-port="1" to-layer="1443" to-port="1"/>
		<edge from-layer="1440" from-port="1" to-layer="1443" to-port="2"/>
		<edge from-layer="1441" from-port="1" to-layer="1443" to-port="3"/>
		<edge from-layer="1442" from-port="1" to-layer="1443" to-port="4"/>
		<edge from-layer="1404" from-port="5" to-layer="1444" to-port="0"/>
		<edge from-layer="1443" from-port="5" to-layer="1444" to-port="1"/>
		<edge from-layer="1444" from-port="2" to-layer="1449" to-port="0"/>
		<edge from-layer="1445" from-port="1" to-layer="1449" to-port="1"/>
		<edge from-layer="1446" from-port="1" to-layer="1449" to-port="2"/>
		<edge from-layer="1447" from-port="1" to-layer="1449" to-port="3"/>
		<edge from-layer="1448" from-port="1" to-layer="1449" to-port="4"/>
		<edge from-layer="1353" from-port="5" to-layer="1450" to-port="0"/>
		<edge from-layer="1449" from-port="5" to-layer="1450" to-port="1"/>
		<edge from-layer="1450" from-port="2" to-layer="1455" to-port="0"/>
		<edge from-layer="1451" from-port="1" to-layer="1455" to-port="1"/>
		<edge from-layer="1452" from-port="1" to-layer="1455" to-port="2"/>
		<edge from-layer="1453" from-port="1" to-layer="1455" to-port="3"/>
		<edge from-layer="1454" from-port="1" to-layer="1455" to-port="4"/>
		<edge from-layer="1456" from-port="1" to-layer="1457" to-port="0"/>
		<edge from-layer="1457" from-port="1" to-layer="1462" to-port="0"/>
		<edge from-layer="1458" from-port="1" to-layer="1462" to-port="1"/>
		<edge from-layer="1459" from-port="1" to-layer="1462" to-port="2"/>
		<edge from-layer="1460" from-port="1" to-layer="1462" to-port="3"/>
		<edge from-layer="1461" from-port="1" to-layer="1462" to-port="4"/>
		<edge from-layer="1455" from-port="5" to-layer="1463" to-port="0"/>
		<edge from-layer="1462" from-port="5" to-layer="1463" to-port="1"/>
		<edge from-layer="1463" from-port="2" to-layer="1465" to-port="0"/>
		<edge from-layer="1464" from-port="1" to-layer="1465" to-port="1"/>
		<edge from-layer="1465" from-port="2" to-layer="1467" to-port="0"/>
		<edge from-layer="1466" from-port="1" to-layer="1467" to-port="1"/>
		<edge from-layer="1467" from-port="2" to-layer="1472" to-port="0"/>
		<edge from-layer="1468" from-port="1" to-layer="1472" to-port="1"/>
		<edge from-layer="1469" from-port="1" to-layer="1472" to-port="2"/>
		<edge from-layer="1470" from-port="1" to-layer="1472" to-port="3"/>
		<edge from-layer="1471" from-port="1" to-layer="1472" to-port="4"/>
		<edge from-layer="1473" from-port="1" to-layer="1474" to-port="0"/>
		<edge from-layer="1474" from-port="1" to-layer="1479" to-port="0"/>
		<edge from-layer="1475" from-port="1" to-layer="1479" to-port="1"/>
		<edge from-layer="1476" from-port="1" to-layer="1479" to-port="2"/>
		<edge from-layer="1477" from-port="1" to-layer="1479" to-port="3"/>
		<edge from-layer="1478" from-port="1" to-layer="1479" to-port="4"/>
		<edge from-layer="1479" from-port="5" to-layer="1481" to-port="0"/>
		<edge from-layer="1480" from-port="1" to-layer="1481" to-port="1"/>
		<edge from-layer="1472" from-port="5" to-layer="1482" to-port="0"/>
		<edge from-layer="1481" from-port="2" to-layer="1482" to-port="1"/>
		<edge from-layer="1482" from-port="2" to-layer="1484" to-port="0"/>
		<edge from-layer="1483" from-port="1" to-layer="1484" to-port="1"/>
		<edge from-layer="1484" from-port="2" to-layer="1486" to-port="0"/>
		<edge from-layer="1485" from-port="1" to-layer="1486" to-port="1"/>
		<edge from-layer="1486" from-port="2" to-layer="1491" to-port="0"/>
		<edge from-layer="1487" from-port="1" to-layer="1491" to-port="1"/>
		<edge from-layer="1488" from-port="1" to-layer="1491" to-port="2"/>
		<edge from-layer="1489" from-port="1" to-layer="1491" to-port="3"/>
		<edge from-layer="1490" from-port="1" to-layer="1491" to-port="4"/>
		<edge from-layer="1492" from-port="1" to-layer="1493" to-port="0"/>
		<edge from-layer="1493" from-port="1" to-layer="1498" to-port="0"/>
		<edge from-layer="1494" from-port="1" to-layer="1498" to-port="1"/>
		<edge from-layer="1495" from-port="1" to-layer="1498" to-port="2"/>
		<edge from-layer="1496" from-port="1" to-layer="1498" to-port="3"/>
		<edge from-layer="1497" from-port="1" to-layer="1498" to-port="4"/>
		<edge from-layer="1491" from-port="5" to-layer="1499" to-port="0"/>
		<edge from-layer="1498" from-port="5" to-layer="1499" to-port="1"/>
		<edge from-layer="1499" from-port="2" to-layer="1501" to-port="0"/>
		<edge from-layer="1500" from-port="1" to-layer="1501" to-port="1"/>
		<edge from-layer="1501" from-port="2" to-layer="1506" to-port="0"/>
		<edge from-layer="1502" from-port="1" to-layer="1506" to-port="1"/>
		<edge from-layer="1503" from-port="1" to-layer="1506" to-port="2"/>
		<edge from-layer="1504" from-port="1" to-layer="1506" to-port="3"/>
		<edge from-layer="1505" from-port="1" to-layer="1506" to-port="4"/>
		<edge from-layer="1506" from-port="5" to-layer="1507" to-port="0"/>
		<edge from-layer="1507" from-port="1" to-layer="1512" to-port="0"/>
		<edge from-layer="1508" from-port="1" to-layer="1512" to-port="1"/>
		<edge from-layer="1509" from-port="1" to-layer="1512" to-port="2"/>
		<edge from-layer="1510" from-port="1" to-layer="1512" to-port="3"/>
		<edge from-layer="1511" from-port="1" to-layer="1512" to-port="4"/>
		<edge from-layer="1513" from-port="1" to-layer="1514" to-port="0"/>
		<edge from-layer="1514" from-port="1" to-layer="1519" to-port="0"/>
		<edge from-layer="1515" from-port="1" to-layer="1519" to-port="1"/>
		<edge from-layer="1516" from-port="1" to-layer="1519" to-port="2"/>
		<edge from-layer="1517" from-port="1" to-layer="1519" to-port="3"/>
		<edge from-layer="1518" from-port="1" to-layer="1519" to-port="4"/>
		<edge from-layer="1512" from-port="5" to-layer="1520" to-port="0"/>
		<edge from-layer="1519" from-port="5" to-layer="1520" to-port="1"/>
		<edge from-layer="1520" from-port="2" to-layer="1522" to-port="0"/>
		<edge from-layer="1521" from-port="1" to-layer="1522" to-port="1"/>
		<edge from-layer="1522" from-port="2" to-layer="1524" to-port="0"/>
		<edge from-layer="1523" from-port="1" to-layer="1524" to-port="1"/>
		<edge from-layer="1524" from-port="2" to-layer="1529" to-port="0"/>
		<edge from-layer="1525" from-port="1" to-layer="1529" to-port="1"/>
		<edge from-layer="1526" from-port="1" to-layer="1529" to-port="2"/>
		<edge from-layer="1527" from-port="1" to-layer="1529" to-port="3"/>
		<edge from-layer="1528" from-port="1" to-layer="1529" to-port="4"/>
		<edge from-layer="1530" from-port="1" to-layer="1531" to-port="0"/>
		<edge from-layer="1531" from-port="1" to-layer="1536" to-port="0"/>
		<edge from-layer="1532" from-port="1" to-layer="1536" to-port="1"/>
		<edge from-layer="1533" from-port="1" to-layer="1536" to-port="2"/>
		<edge from-layer="1534" from-port="1" to-layer="1536" to-port="3"/>
		<edge from-layer="1535" from-port="1" to-layer="1536" to-port="4"/>
		<edge from-layer="1529" from-port="5" to-layer="1537" to-port="0"/>
		<edge from-layer="1536" from-port="5" to-layer="1537" to-port="1"/>
		<edge from-layer="1537" from-port="2" to-layer="1539" to-port="0"/>
		<edge from-layer="1538" from-port="1" to-layer="1539" to-port="1"/>
		<edge from-layer="1539" from-port="2" to-layer="1540" to-port="0"/>
		<edge from-layer="1540" from-port="1" to-layer="1545" to-port="0"/>
		<edge from-layer="1541" from-port="1" to-layer="1545" to-port="1"/>
		<edge from-layer="1542" from-port="1" to-layer="1545" to-port="2"/>
		<edge from-layer="1543" from-port="1" to-layer="1545" to-port="3"/>
		<edge from-layer="1544" from-port="1" to-layer="1545" to-port="4"/>
		<edge from-layer="1506" from-port="5" to-layer="1546" to-port="0"/>
		<edge from-layer="1545" from-port="5" to-layer="1546" to-port="1"/>
		<edge from-layer="1546" from-port="2" to-layer="1551" to-port="0"/>
		<edge from-layer="1547" from-port="1" to-layer="1551" to-port="1"/>
		<edge from-layer="1548" from-port="1" to-layer="1551" to-port="2"/>
		<edge from-layer="1549" from-port="1" to-layer="1551" to-port="3"/>
		<edge from-layer="1550" from-port="1" to-layer="1551" to-port="4"/>
		<edge from-layer="1455" from-port="5" to-layer="1552" to-port="0"/>
		<edge from-layer="1551" from-port="5" to-layer="1552" to-port="1"/>
		<edge from-layer="1552" from-port="2" to-layer="1557" to-port="0"/>
		<edge from-layer="1553" from-port="1" to-layer="1557" to-port="1"/>
		<edge from-layer="1554" from-port="1" to-layer="1557" to-port="2"/>
		<edge from-layer="1555" from-port="1" to-layer="1557" to-port="3"/>
		<edge from-layer="1556" from-port="1" to-layer="1557" to-port="4"/>
		<edge from-layer="1558" from-port="1" to-layer="1559" to-port="0"/>
		<edge from-layer="1559" from-port="1" to-layer="1564" to-port="0"/>
		<edge from-layer="1560" from-port="1" to-layer="1564" to-port="1"/>
		<edge from-layer="1561" from-port="1" to-layer="1564" to-port="2"/>
		<edge from-layer="1562" from-port="1" to-layer="1564" to-port="3"/>
		<edge from-layer="1563" from-port="1" to-layer="1564" to-port="4"/>
		<edge from-layer="1557" from-port="5" to-layer="1565" to-port="0"/>
		<edge from-layer="1564" from-port="5" to-layer="1565" to-port="1"/>
		<edge from-layer="1565" from-port="2" to-layer="1567" to-port="0"/>
		<edge from-layer="1566" from-port="1" to-layer="1567" to-port="1"/>
		<edge from-layer="1567" from-port="2" to-layer="1569" to-port="0"/>
		<edge from-layer="1568" from-port="1" to-layer="1569" to-port="1"/>
		<edge from-layer="1569" from-port="2" to-layer="1574" to-port="0"/>
		<edge from-layer="1570" from-port="1" to-layer="1574" to-port="1"/>
		<edge from-layer="1571" from-port="1" to-layer="1574" to-port="2"/>
		<edge from-layer="1572" from-port="1" to-layer="1574" to-port="3"/>
		<edge from-layer="1573" from-port="1" to-layer="1574" to-port="4"/>
		<edge from-layer="1575" from-port="1" to-layer="1576" to-port="0"/>
		<edge from-layer="1576" from-port="1" to-layer="1581" to-port="0"/>
		<edge from-layer="1577" from-port="1" to-layer="1581" to-port="1"/>
		<edge from-layer="1578" from-port="1" to-layer="1581" to-port="2"/>
		<edge from-layer="1579" from-port="1" to-layer="1581" to-port="3"/>
		<edge from-layer="1580" from-port="1" to-layer="1581" to-port="4"/>
		<edge from-layer="1581" from-port="5" to-layer="1583" to-port="0"/>
		<edge from-layer="1582" from-port="1" to-layer="1583" to-port="1"/>
		<edge from-layer="1574" from-port="5" to-layer="1584" to-port="0"/>
		<edge from-layer="1583" from-port="2" to-layer="1584" to-port="1"/>
		<edge from-layer="1584" from-port="2" to-layer="1586" to-port="0"/>
		<edge from-layer="1585" from-port="1" to-layer="1586" to-port="1"/>
		<edge from-layer="1586" from-port="2" to-layer="1591" to-port="0"/>
		<edge from-layer="1587" from-port="1" to-layer="1591" to-port="1"/>
		<edge from-layer="1588" from-port="1" to-layer="1591" to-port="2"/>
		<edge from-layer="1589" from-port="1" to-layer="1591" to-port="3"/>
		<edge from-layer="1590" from-port="1" to-layer="1591" to-port="4"/>
		<edge from-layer="1592" from-port="1" to-layer="1593" to-port="0"/>
		<edge from-layer="1593" from-port="1" to-layer="1598" to-port="0"/>
		<edge from-layer="1594" from-port="1" to-layer="1598" to-port="1"/>
		<edge from-layer="1595" from-port="1" to-layer="1598" to-port="2"/>
		<edge from-layer="1596" from-port="1" to-layer="1598" to-port="3"/>
		<edge from-layer="1597" from-port="1" to-layer="1598" to-port="4"/>
		<edge from-layer="1591" from-port="5" to-layer="1599" to-port="0"/>
		<edge from-layer="1598" from-port="5" to-layer="1599" to-port="1"/>
		<edge from-layer="1599" from-port="2" to-layer="1601" to-port="0"/>
		<edge from-layer="1600" from-port="1" to-layer="1601" to-port="1"/>
		<edge from-layer="1601" from-port="2" to-layer="1602" to-port="0"/>
	</edges>
	<meta_data>
		<MO_version value="unknown version"/>
		<cli_parameters>
			<blobs_as_inputs value="True"/>
			<caffe_parser_path value="DIR"/>
			<data_type value="FP16"/>
			<disable_nhwc_to_nchw value="False"/>
			<disable_omitting_optional value="False"/>
			<disable_resnet_optimization value="False"/>
			<disable_weights_compression value="False"/>
			<enable_concat_optimization value="False"/>
			<enable_flattening_nested_params value="False"/>
			<enable_ssd_gluoncv value="False"/>
			<extensions value="DIR"/>
			<framework value="onnx"/>
			<freeze_placeholder_with_value value="{}"/>
			<generate_deprecated_IR_V2 value="False"/>
			<generate_deprecated_IR_V7 value="False"/>
			<generate_experimental_IR_V10 value="True"/>
			<input value="0"/>
			<input_model value="DIR/Mobilenet_se_focal_121000.onnx"/>
			<input_model_is_text value="False"/>
			<input_shape value="[1,3,128,128]"/>
			<k value="DIR/CustomLayersMapping.xml"/>
			<keep_quantize_ops_in_IR value="True"/>
			<keep_shape_ops value="False"/>
			<legacy_mxnet_model value="False"/>
			<log_level value="ERROR"/>
			<mean_scale_values value="{'0': {'mean': None, 'scale': array([255.])}}"/>
			<mean_values value="()"/>
			<model_name value="face-reidentification-retail-0095"/>
			<move_to_preprocess value="False"/>
			<output_dir value="DIR"/>
			<placeholder_data_types value="{}"/>
			<placeholder_shapes value="{'0': array([  1,   3, 128, 128])}"/>
			<progress value="False"/>
			<remove_memory value="False"/>
			<remove_output_softmax value="False"/>
			<reverse_input_channels value="True"/>
			<save_params_from_nd value="False"/>
			<scale_values value="0[255.0]"/>
			<silent value="False"/>
			<stream_output value="False"/>
			<unset unset_cli_parameters="batch, counts, disable_fusing, disable_gfusing, finegrain_fusing, input_checkpoint, input_meta_graph, input_proto, input_symbol, mean_file, mean_file_offsets, nd_prefix_name, output, pretrained_model_name, saved_model_dir, saved_model_tags, scale, tensorboard_logdir, tensorflow_custom_layer_libraries, tensorflow_custom_operations_config_update, tensorflow_object_detection_api_pipeline_config, tensorflow_use_custom_operations_config, transformations_config"/>
		</cli_parameters>
	</meta_data>
	<quantization_parameters>
		<config>{
		'compression': {
			'algorithms': [
				{
					'name': 'DefaultQuantization',
					'params': {
						'preset': 'performance',
						'stat_subset_size': 300
					}
				}
			],
			'target_device': 'CPU'
		},
		'engine': {
			'models': [
				{
					'name': 'face-reidentification-retail-0095',
					'launchers': [
						{
							'framework': 'dlsdk',
							'tags': [
								'FP32'
							],
							'model': 'PATH',
							'weights': 'PATH',
							'adapter': 'reid',
							'device': 'CPU'
						}
					],
					'datasets': [
						{
							'name': 'lfw',
							'data_source': 'PATH',
							'annotation_conversion': {
								'converter': 'lfw',
								'pairs_file': 'PATH',
								'landmarks_file': 'PATH'
							},
							'annotation': 'lfw.pickle',
							'metrics': [
								{
									'type': 'pairwise_accuracy_subsets'
								}
							],
							'preprocessing': [
								{
									'type': 'point_alignment',
									'size': 400
								},
								{
									'type': 'resize',
									'size': 128
								}
							]
						}
					]
				},
				{
					'name': 'face-reidentification-retail-0095',
					'launchers': [
						{
							'framework': 'dlsdk',
							'tags': [
								'FP16'
							],
							'model': 'PATH',
							'weights': 'PATH',
							'adapter': 'reid',
							'device': 'CPU'
						}
					],
					'datasets': [
						{
							'name': 'lfw',
							'data_source': 'PATH',
							'annotation_conversion': {
								'converter': 'lfw',
								'pairs_file': 'PATH',
								'landmarks_file': 'PATH'
							},
							'annotation': 'lfw.pickle',
							'metrics': [
								{
									'type': 'pairwise_accuracy_subsets'
								}
							],
							'preprocessing': [
								{
									'type': 'point_alignment',
									'size': 400
								},
								{
									'type': 'resize',
									'size': 128
								}
							]
						}
					]
				},
				{
					'name': 'face-reidentification-retail-0095',
					'launchers': [
						{
							'framework': 'dlsdk',
							'tags': [
								'FP16-INT8'
							],
							'model': 'PATH',
							'weights': 'PATH',
							'adapter': 'reid',
							'device': 'CPU'
						}
					],
					'datasets': [
						{
							'name': 'lfw',
							'data_source': 'PATH',
							'annotation_conversion': {
								'converter': 'lfw',
								'pairs_file': 'PATH',
								'landmarks_file': 'PATH'
							},
							'annotation': 'lfw.pickle',
							'metrics': [
								{
									'type': 'pairwise_accuracy_subsets'
								}
							],
							'preprocessing': [
								{
									'type': 'point_alignment',
									'size': 400
								},
								{
									'type': 'resize',
									'size': 128
								}
							]
						}
					]
				}
			],
			'global_definitions': '../dataset_definitions.yml',
			'stat_requests_number': null,
			'eval_requests_number': null,
			'type': 'accuracy_checker'
		}
	}</config>
		<version value="1.0"/>
		<cli_params value="{'evaluate': False, 'output_dir': 'PATH', 'direct_dump': True, 'log_level': 'INFO', 'pbar': False, 'keep_uncompressed_weights': False}"/>
	</quantization_parameters>
</net>
