<?xml version="1.0" ?>
<net name="mobilenet_ssd_672x384" version="10">
	<layers>
		<layer id="0" name="data" type="Parameter" version="opset1">
			<data element_type="f16" shape="1,3,384,672"/>
			<output>
				<port id="0" precision="FP16">
					<dim>1</dim>
					<dim>3</dim>
					<dim>384</dim>
					<dim>672</dim>
				</port>
			</output>
		</layer>
		<layer id="1" name="data_mul_1276712771/copy_const508_const" type="Const" version="opset1">
			<data element_type="f16" offset="0" shape="1,1,1,1" size="2"/>
			<output>
				<port id="1" precision="FP16">
					<dim>1</dim>
					<dim>1</dim>
					<dim>1</dim>
					<dim>1</dim>
				</port>
			</output>
		</layer>
		<layer id="2" name="Mul_/Fused_Mul_" type="Multiply" version="opset1">
			<input>
				<port id="0">
					<dim>1</dim>
					<dim>3</dim>
					<dim>384</dim>
					<dim>672</dim>
				</port>
				<port id="1">
					<dim>1</dim>
					<dim>1</dim>
					<dim>1</dim>
					<dim>1</dim>
				</port>
			</input>
			<output>
				<port id="2" precision="FP16">
					<dim>1</dim>
					<dim>3</dim>
					<dim>384</dim>
					<dim>672</dim>
				</port>
			</output>
		</layer>
		<layer id="3" name="data_add_1276812773/copy_const510_const" type="Const" version="opset1">
			<data element_type="f16" offset="2" shape="1,3,1,1" size="6"/>
			<output>
				<port id="1" precision="FP16">
					<dim>1</dim>
					<dim>3</dim>
					<dim>1</dim>
					<dim>1</dim>
				</port>
			</output>
		</layer>
		<layer id="4" name="Add_/Fused_Add_" type="Add" version="opset1">
			<input>
				<port id="0">
					<dim>1</dim>
					<dim>3</dim>
					<dim>384</dim>
					<dim>672</dim>
				</port>
				<port id="1">
					<dim>1</dim>
					<dim>3</dim>
					<dim>1</dim>
					<dim>1</dim>
				</port>
			</input>
			<output>
				<port id="2" precision="FP16">
					<dim>1</dim>
					<dim>3</dim>
					<dim>384</dim>
					<dim>672</dim>
				</port>
			</output>
		</layer>
		<layer id="5" name="29522956_const" type="Const" version="opset1">
			<data element_type="f16" offset="8" shape="" size="2"/>
			<output>
				<port id="1" precision="FP16"/>
			</output>
		</layer>
		<layer id="6" name="29532957_const" type="Const" version="opset1">
			<data element_type="f16" offset="10" shape="" size="2"/>
			<output>
				<port id="1" precision="FP16"/>
			</output>
		</layer>
		<layer id="7" name="29542958_const" type="Const" version="opset1">
			<data element_type="f16" offset="8" shape="" size="2"/>
			<output>
				<port id="1" precision="FP16"/>
			</output>
		</layer>
		<layer id="8" name="29552959_const" type="Const" version="opset1">
			<data element_type="f16" offset="10" shape="" size="2"/>
			<output>
				<port id="1" precision="FP16"/>
			</output>
		</layer>
		<layer id="9" name="conv1/fq_input_0" type="FakeQuantize" version="opset1">
			<data levels="256"/>
			<input>
				<port id="0">
					<dim>1</dim>
					<dim>3</dim>
					<dim>384</dim>
					<dim>672</dim>
				</port>
				<port id="1"/>
				<port id="2"/>
				<port id="3"/>
				<port id="4"/>
			</input>
			<output>
				<port id="5" precision="FP16">
					<dim>1</dim>
					<dim>3</dim>
					<dim>384</dim>
					<dim>672</dim>
				</port>
			</output>
		</layer>
		<layer id="10" name="conv1/fq_weights_1/Convert_to_float/Cast_06518_const" type="Const" version="opset1">
			<data element_type="u8" offset="12" shape="24,3,3,3" size="648"/>
			<output>
				<port id="1" precision="U8">
					<dim>24</dim>
					<dim>3</dim>
					<dim>3</dim>
					<dim>3</dim>
				</port>
			</output>
		</layer>
		<layer id="11" name="conv1/fq_weights_1/Convert_to_float" type="Convert" version="opset1">
			<data destination_type="f16"/>
			<input>
				<port id="0">
					<dim>24</dim>
					<dim>3</dim>
					<dim>3</dim>
					<dim>3</dim>
				</port>
			</input>
			<output>
				<port id="1" precision="FP16">
					<dim>24</dim>
					<dim>3</dim>
					<dim>3</dim>
					<dim>3</dim>
				</port>
			</output>
		</layer>
		<layer id="12" name="conv1/fq_weights_1/Copy/out_low5433_const" type="Const" version="opset1">
			<data element_type="f16" offset="660" shape="1" size="2"/>
			<output>
				<port id="1" precision="FP16">
					<dim>1</dim>
				</port>
			</output>
		</layer>
		<layer id="13" name="conv1/fq_weights_1/Copy/out_high5434_const" type="Const" version="opset1">
			<data element_type="f16" offset="662" shape="1" size="2"/>
			<output>
				<port id="1" precision="FP16">
					<dim>1</dim>
				</port>
			</output>
		</layer>
		<layer id="14" name="29642968_const" type="Const" version="opset1">
			<data element_type="f16" offset="664" shape="24,1,1,1" size="48"/>
			<output>
				<port id="1" precision="FP16">
					<dim>24</dim>
					<dim>1</dim>
					<dim>1</dim>
					<dim>1</dim>
				</port>
			</output>
		</layer>
		<layer id="15" name="29652969_const" type="Const" version="opset1">
			<data element_type="f16" offset="712" shape="24,1,1,1" size="48"/>
			<output>
				<port id="1" precision="FP16">
					<dim>24</dim>
					<dim>1</dim>
					<dim>1</dim>
					<dim>1</dim>
				</port>
			</output>
		</layer>
		<layer id="16" name="conv1/fq_weights_1" type="FakeQuantize" version="opset1">
			<data levels="255"/>
			<input>
				<port id="0">
					<dim>24</dim>
					<dim>3</dim>
					<dim>3</dim>
					<dim>3</dim>
				</port>
				<port id="1">
					<dim>1</dim>
				</port>
				<port id="2">
					<dim>1</dim>
				</port>
				<port id="3">
					<dim>24</dim>
					<dim>1</dim>
					<dim>1</dim>
					<dim>1</dim>
				</port>
				<port id="4">
					<dim>24</dim>
					<dim>1</dim>
					<dim>1</dim>
					<dim>1</dim>
				</port>
			</input>
			<output>
				<port id="5" precision="FP16">
					<dim>24</dim>
					<dim>3</dim>
					<dim>3</dim>
					<dim>3</dim>
				</port>
			</output>
		</layer>
		<layer id="17" name="conv1" type="Convolution" version="opset1">
			<data dilations="1,1" output_padding="0,0" pads_begin="1,1" pads_end="1,1" strides="2,2"/>
			<input>
				<port id="0">
					<dim>1</dim>
					<dim>3</dim>
					<dim>384</dim>
					<dim>672</dim>
				</port>
				<port id="1">
					<dim>24</dim>
					<dim>3</dim>
					<dim>3</dim>
					<dim>3</dim>
				</port>
			</input>
			<output>
				<port id="2" precision="FP16">
					<dim>1</dim>
					<dim>24</dim>
					<dim>192</dim>
					<dim>336</dim>
				</port>
			</output>
		</layer>
		<layer id="18" name="data_add_1277612781/copy_const514_const" type="Const" version="opset1">
			<data element_type="f16" offset="760" shape="1,24,1,1" size="48"/>
			<output>
				<port id="1" precision="FP16">
					<dim>1</dim>
					<dim>24</dim>
					<dim>1</dim>
					<dim>1</dim>
				</port>
			</output>
		</layer>
		<layer id="19" name="conv1/bn/variance/Fused_Add_" type="Add" version="opset1">
			<input>
				<port id="0">
					<dim>1</dim>
					<dim>24</dim>
					<dim>192</dim>
					<dim>336</dim>
				</port>
				<port id="1">
					<dim>1</dim>
					<dim>24</dim>
					<dim>1</dim>
					<dim>1</dim>
				</port>
			</input>
			<output>
				<port id="2" precision="FP16">
					<dim>1</dim>
					<dim>24</dim>
					<dim>192</dim>
					<dim>336</dim>
				</port>
			</output>
		</layer>
		<layer id="20" name="relu1" type="ReLU" version="opset1">
			<input>
				<port id="0">
					<dim>1</dim>
					<dim>24</dim>
					<dim>192</dim>
					<dim>336</dim>
				</port>
			</input>
			<output>
				<port id="1" precision="FP16">
					<dim>1</dim>
					<dim>24</dim>
					<dim>192</dim>
					<dim>336</dim>
				</port>
			</output>
		</layer>
		<layer id="21" name="18321836_const" type="Const" version="opset1">
			<data element_type="f16" offset="808" shape="1,24,1,1" size="48"/>
			<output>
				<port id="1" precision="FP16">
					<dim>1</dim>
					<dim>24</dim>
					<dim>1</dim>
					<dim>1</dim>
				</port>
			</output>
		</layer>
		<layer id="22" name="18331837_const" type="Const" version="opset1">
			<data element_type="f16" offset="856" shape="1,24,1,1" size="48"/>
			<output>
				<port id="1" precision="FP16">
					<dim>1</dim>
					<dim>24</dim>
					<dim>1</dim>
					<dim>1</dim>
				</port>
			</output>
		</layer>
		<layer id="23" name="18341838_const" type="Const" version="opset1">
			<data element_type="f16" offset="808" shape="1,24,1,1" size="48"/>
			<output>
				<port id="1" precision="FP16">
					<dim>1</dim>
					<dim>24</dim>
					<dim>1</dim>
					<dim>1</dim>
				</port>
			</output>
		</layer>
		<layer id="24" name="18351839_const" type="Const" version="opset1">
			<data element_type="f16" offset="856" shape="1,24,1,1" size="48"/>
			<output>
				<port id="1" precision="FP16">
					<dim>1</dim>
					<dim>24</dim>
					<dim>1</dim>
					<dim>1</dim>
				</port>
			</output>
		</layer>
		<layer id="25" name="conv2_1/dw/fq_input_0" type="FakeQuantize" version="opset1">
			<data levels="256"/>
			<input>
				<port id="0">
					<dim>1</dim>
					<dim>24</dim>
					<dim>192</dim>
					<dim>336</dim>
				</port>
				<port id="1">
					<dim>1</dim>
					<dim>24</dim>
					<dim>1</dim>
					<dim>1</dim>
				</port>
				<port id="2">
					<dim>1</dim>
					<dim>24</dim>
					<dim>1</dim>
					<dim>1</dim>
				</port>
				<port id="3">
					<dim>1</dim>
					<dim>24</dim>
					<dim>1</dim>
					<dim>1</dim>
				</port>
				<port id="4">
					<dim>1</dim>
					<dim>24</dim>
					<dim>1</dim>
					<dim>1</dim>
				</port>
			</input>
			<output>
				<port id="5" precision="FP16">
					<dim>1</dim>
					<dim>24</dim>
					<dim>192</dim>
					<dim>336</dim>
				</port>
			</output>
		</layer>
		<layer id="26" name="conv2_1/dw/fq_weights_1/Convert_to_float/Cast_06582_const" type="Const" version="opset1">
			<data element_type="u8" offset="904" shape="24,1,3,3" size="216"/>
			<output>
				<port id="1" precision="U8">
					<dim>24</dim>
					<dim>1</dim>
					<dim>3</dim>
					<dim>3</dim>
				</port>
			</output>
		</layer>
		<layer id="27" name="conv2_1/dw/fq_weights_1/Convert_to_float" type="Convert" version="opset1">
			<data destination_type="f16"/>
			<input>
				<port id="0">
					<dim>24</dim>
					<dim>1</dim>
					<dim>3</dim>
					<dim>3</dim>
				</port>
			</input>
			<output>
				<port id="1" precision="FP16">
					<dim>24</dim>
					<dim>1</dim>
					<dim>3</dim>
					<dim>3</dim>
				</port>
			</output>
		</layer>
		<layer id="28" name="conv2_1/dw/fq_weights_1/Copy/out_low5449_const" type="Const" version="opset1">
			<data element_type="f16" offset="660" shape="1" size="2"/>
			<output>
				<port id="1" precision="FP16">
					<dim>1</dim>
				</port>
			</output>
		</layer>
		<layer id="29" name="conv2_1/dw/fq_weights_1/Copy/out_high5450_const" type="Const" version="opset1">
			<data element_type="f16" offset="662" shape="1" size="2"/>
			<output>
				<port id="1" precision="FP16">
					<dim>1</dim>
				</port>
			</output>
		</layer>
		<layer id="30" name="18441848_const" type="Const" version="opset1">
			<data element_type="f16" offset="1120" shape="24,1,1,1" size="48"/>
			<output>
				<port id="1" precision="FP16">
					<dim>24</dim>
					<dim>1</dim>
					<dim>1</dim>
					<dim>1</dim>
				</port>
			</output>
		</layer>
		<layer id="31" name="18451849_const" type="Const" version="opset1">
			<data element_type="f16" offset="1168" shape="24,1,1,1" size="48"/>
			<output>
				<port id="1" precision="FP16">
					<dim>24</dim>
					<dim>1</dim>
					<dim>1</dim>
					<dim>1</dim>
				</port>
			</output>
		</layer>
		<layer id="32" name="conv2_1/dw/fq_weights_1" type="FakeQuantize" version="opset1">
			<data levels="255"/>
			<input>
				<port id="0">
					<dim>24</dim>
					<dim>1</dim>
					<dim>3</dim>
					<dim>3</dim>
				</port>
				<port id="1">
					<dim>1</dim>
				</port>
				<port id="2">
					<dim>1</dim>
				</port>
				<port id="3">
					<dim>24</dim>
					<dim>1</dim>
					<dim>1</dim>
					<dim>1</dim>
				</port>
				<port id="4">
					<dim>24</dim>
					<dim>1</dim>
					<dim>1</dim>
					<dim>1</dim>
				</port>
			</input>
			<output>
				<port id="5" precision="FP16">
					<dim>24</dim>
					<dim>1</dim>
					<dim>3</dim>
					<dim>3</dim>
				</port>
			</output>
		</layer>
		<layer id="33" name="7332/value7334_const" type="Const" version="opset1">
			<data element_type="i64" offset="1216" shape="5" size="40"/>
			<output>
				<port id="1" precision="I64">
					<dim>5</dim>
				</port>
			</output>
		</layer>
		<layer id="34" name="7332" type="Reshape" version="opset1">
			<data special_zero="True"/>
			<input>
				<port id="0">
					<dim>24</dim>
					<dim>1</dim>
					<dim>3</dim>
					<dim>3</dim>
				</port>
				<port id="1">
					<dim>5</dim>
				</port>
			</input>
			<output>
				<port id="2" precision="FP16">
					<dim>24</dim>
					<dim>1</dim>
					<dim>1</dim>
					<dim>3</dim>
					<dim>3</dim>
				</port>
			</output>
		</layer>
		<layer id="35" name="conv2_1/dw" type="GroupConvolution" version="opset1">
			<data dilations="1,1" output_padding="0,0" pads_begin="1,1" pads_end="1,1" strides="1,1"/>
			<input>
				<port id="0">
					<dim>1</dim>
					<dim>24</dim>
					<dim>192</dim>
					<dim>336</dim>
				</port>
				<port id="1">
					<dim>24</dim>
					<dim>1</dim>
					<dim>1</dim>
					<dim>3</dim>
					<dim>3</dim>
				</port>
			</input>
			<output>
				<port id="2" precision="FP16">
					<dim>1</dim>
					<dim>24</dim>
					<dim>192</dim>
					<dim>336</dim>
				</port>
			</output>
		</layer>
		<layer id="36" name="data_add_1278412789/copy_const519_const" type="Const" version="opset1">
			<data element_type="f16" offset="1256" shape="1,24,1,1" size="48"/>
			<output>
				<port id="1" precision="FP16">
					<dim>1</dim>
					<dim>24</dim>
					<dim>1</dim>
					<dim>1</dim>
				</port>
			</output>
		</layer>
		<layer id="37" name="conv2_1/dw/bn/variance/Fused_Add_" type="Add" version="opset1">
			<input>
				<port id="0">
					<dim>1</dim>
					<dim>24</dim>
					<dim>192</dim>
					<dim>336</dim>
				</port>
				<port id="1">
					<dim>1</dim>
					<dim>24</dim>
					<dim>1</dim>
					<dim>1</dim>
				</port>
			</input>
			<output>
				<port id="2" precision="FP16">
					<dim>1</dim>
					<dim>24</dim>
					<dim>192</dim>
					<dim>336</dim>
				</port>
			</output>
		</layer>
		<layer id="38" name="relu2_1/dw" type="ReLU" version="opset1">
			<input>
				<port id="0">
					<dim>1</dim>
					<dim>24</dim>
					<dim>192</dim>
					<dim>336</dim>
				</port>
			</input>
			<output>
				<port id="1" precision="FP16">
					<dim>1</dim>
					<dim>24</dim>
					<dim>192</dim>
					<dim>336</dim>
				</port>
			</output>
		</layer>
		<layer id="39" name="20922096_const" type="Const" version="opset1">
			<data element_type="f16" offset="1304" shape="" size="2"/>
			<output>
				<port id="1" precision="FP16"/>
			</output>
		</layer>
		<layer id="40" name="20932097_const" type="Const" version="opset1">
			<data element_type="f16" offset="1306" shape="" size="2"/>
			<output>
				<port id="1" precision="FP16"/>
			</output>
		</layer>
		<layer id="41" name="20942098_const" type="Const" version="opset1">
			<data element_type="f16" offset="1304" shape="" size="2"/>
			<output>
				<port id="1" precision="FP16"/>
			</output>
		</layer>
		<layer id="42" name="20952099_const" type="Const" version="opset1">
			<data element_type="f16" offset="1306" shape="" size="2"/>
			<output>
				<port id="1" precision="FP16"/>
			</output>
		</layer>
		<layer id="43" name="conv2_1/sep/fq_input_0" type="FakeQuantize" version="opset1">
			<data levels="256"/>
			<input>
				<port id="0">
					<dim>1</dim>
					<dim>24</dim>
					<dim>192</dim>
					<dim>336</dim>
				</port>
				<port id="1"/>
				<port id="2"/>
				<port id="3"/>
				<port id="4"/>
			</input>
			<output>
				<port id="5" precision="FP16">
					<dim>1</dim>
					<dim>24</dim>
					<dim>192</dim>
					<dim>336</dim>
				</port>
			</output>
		</layer>
		<layer id="44" name="conv2_1/sep/fq_weights_1/Convert_to_float/Cast_06372_const" type="Const" version="opset1">
			<data element_type="u8" offset="1308" shape="56,24,1,1" size="1344"/>
			<output>
				<port id="1" precision="U8">
					<dim>56</dim>
					<dim>24</dim>
					<dim>1</dim>
					<dim>1</dim>
				</port>
			</output>
		</layer>
		<layer id="45" name="conv2_1/sep/fq_weights_1/Convert_to_float" type="Convert" version="opset1">
			<data destination_type="f16"/>
			<input>
				<port id="0">
					<dim>56</dim>
					<dim>24</dim>
					<dim>1</dim>
					<dim>1</dim>
				</port>
			</input>
			<output>
				<port id="1" precision="FP16">
					<dim>56</dim>
					<dim>24</dim>
					<dim>1</dim>
					<dim>1</dim>
				</port>
			</output>
		</layer>
		<layer id="46" name="conv2_1/sep/fq_weights_1/Copy/out_low5177_const" type="Const" version="opset1">
			<data element_type="f16" offset="2652" shape="1" size="2"/>
			<output>
				<port id="1" precision="FP16">
					<dim>1</dim>
				</port>
			</output>
		</layer>
		<layer id="47" name="conv2_1/sep/fq_weights_1/Copy/out_high5178_const" type="Const" version="opset1">
			<data element_type="f16" offset="662" shape="1" size="2"/>
			<output>
				<port id="1" precision="FP16">
					<dim>1</dim>
				</port>
			</output>
		</layer>
		<layer id="48" name="21042108_const" type="Const" version="opset1">
			<data element_type="f16" offset="2654" shape="56,1,1,1" size="112"/>
			<output>
				<port id="1" precision="FP16">
					<dim>56</dim>
					<dim>1</dim>
					<dim>1</dim>
					<dim>1</dim>
				</port>
			</output>
		</layer>
		<layer id="49" name="21052109_const" type="Const" version="opset1">
			<data element_type="f16" offset="2766" shape="56,1,1,1" size="112"/>
			<output>
				<port id="1" precision="FP16">
					<dim>56</dim>
					<dim>1</dim>
					<dim>1</dim>
					<dim>1</dim>
				</port>
			</output>
		</layer>
		<layer id="50" name="conv2_1/sep/fq_weights_1" type="FakeQuantize" version="opset1">
			<data levels="255"/>
			<input>
				<port id="0">
					<dim>56</dim>
					<dim>24</dim>
					<dim>1</dim>
					<dim>1</dim>
				</port>
				<port id="1">
					<dim>1</dim>
				</port>
				<port id="2">
					<dim>1</dim>
				</port>
				<port id="3">
					<dim>56</dim>
					<dim>1</dim>
					<dim>1</dim>
					<dim>1</dim>
				</port>
				<port id="4">
					<dim>56</dim>
					<dim>1</dim>
					<dim>1</dim>
					<dim>1</dim>
				</port>
			</input>
			<output>
				<port id="5" precision="FP16">
					<dim>56</dim>
					<dim>24</dim>
					<dim>1</dim>
					<dim>1</dim>
				</port>
			</output>
		</layer>
		<layer id="51" name="conv2_1/sep" type="Convolution" version="opset1">
			<data dilations="1,1" output_padding="0,0" pads_begin="0,0" pads_end="0,0" strides="1,1"/>
			<input>
				<port id="0">
					<dim>1</dim>
					<dim>24</dim>
					<dim>192</dim>
					<dim>336</dim>
				</port>
				<port id="1">
					<dim>56</dim>
					<dim>24</dim>
					<dim>1</dim>
					<dim>1</dim>
				</port>
			</input>
			<output>
				<port id="2" precision="FP16">
					<dim>1</dim>
					<dim>56</dim>
					<dim>192</dim>
					<dim>336</dim>
				</port>
			</output>
		</layer>
		<layer id="52" name="data_add_1279212797/copy_const524_const" type="Const" version="opset1">
			<data element_type="f16" offset="2878" shape="1,56,1,1" size="112"/>
			<output>
				<port id="1" precision="FP16">
					<dim>1</dim>
					<dim>56</dim>
					<dim>1</dim>
					<dim>1</dim>
				</port>
			</output>
		</layer>
		<layer id="53" name="conv2_1/sep/bn/variance/Fused_Add_" type="Add" version="opset1">
			<input>
				<port id="0">
					<dim>1</dim>
					<dim>56</dim>
					<dim>192</dim>
					<dim>336</dim>
				</port>
				<port id="1">
					<dim>1</dim>
					<dim>56</dim>
					<dim>1</dim>
					<dim>1</dim>
				</port>
			</input>
			<output>
				<port id="2" precision="FP16">
					<dim>1</dim>
					<dim>56</dim>
					<dim>192</dim>
					<dim>336</dim>
				</port>
			</output>
		</layer>
		<layer id="54" name="relu2_1/sep" type="ReLU" version="opset1">
			<input>
				<port id="0">
					<dim>1</dim>
					<dim>56</dim>
					<dim>192</dim>
					<dim>336</dim>
				</port>
			</input>
			<output>
				<port id="1" precision="FP16">
					<dim>1</dim>
					<dim>56</dim>
					<dim>192</dim>
					<dim>336</dim>
				</port>
			</output>
		</layer>
		<layer id="55" name="18121816_const" type="Const" version="opset1">
			<data element_type="f16" offset="2990" shape="1,56,1,1" size="112"/>
			<output>
				<port id="1" precision="FP16">
					<dim>1</dim>
					<dim>56</dim>
					<dim>1</dim>
					<dim>1</dim>
				</port>
			</output>
		</layer>
		<layer id="56" name="18131817_const" type="Const" version="opset1">
			<data element_type="f16" offset="3102" shape="1,56,1,1" size="112"/>
			<output>
				<port id="1" precision="FP16">
					<dim>1</dim>
					<dim>56</dim>
					<dim>1</dim>
					<dim>1</dim>
				</port>
			</output>
		</layer>
		<layer id="57" name="18141818_const" type="Const" version="opset1">
			<data element_type="f16" offset="2990" shape="1,56,1,1" size="112"/>
			<output>
				<port id="1" precision="FP16">
					<dim>1</dim>
					<dim>56</dim>
					<dim>1</dim>
					<dim>1</dim>
				</port>
			</output>
		</layer>
		<layer id="58" name="18151819_const" type="Const" version="opset1">
			<data element_type="f16" offset="3102" shape="1,56,1,1" size="112"/>
			<output>
				<port id="1" precision="FP16">
					<dim>1</dim>
					<dim>56</dim>
					<dim>1</dim>
					<dim>1</dim>
				</port>
			</output>
		</layer>
		<layer id="59" name="conv2_2/dw/fq_input_0" type="FakeQuantize" version="opset1">
			<data levels="256"/>
			<input>
				<port id="0">
					<dim>1</dim>
					<dim>56</dim>
					<dim>192</dim>
					<dim>336</dim>
				</port>
				<port id="1">
					<dim>1</dim>
					<dim>56</dim>
					<dim>1</dim>
					<dim>1</dim>
				</port>
				<port id="2">
					<dim>1</dim>
					<dim>56</dim>
					<dim>1</dim>
					<dim>1</dim>
				</port>
				<port id="3">
					<dim>1</dim>
					<dim>56</dim>
					<dim>1</dim>
					<dim>1</dim>
				</port>
				<port id="4">
					<dim>1</dim>
					<dim>56</dim>
					<dim>1</dim>
					<dim>1</dim>
				</port>
			</input>
			<output>
				<port id="5" precision="FP16">
					<dim>1</dim>
					<dim>56</dim>
					<dim>192</dim>
					<dim>336</dim>
				</port>
			</output>
		</layer>
		<layer id="60" name="conv2_2/dw/fq_weights_1/Convert_to_float/Cast_06456_const" type="Const" version="opset1">
			<data element_type="u8" offset="3214" shape="56,1,3,3" size="504"/>
			<output>
				<port id="1" precision="U8">
					<dim>56</dim>
					<dim>1</dim>
					<dim>3</dim>
					<dim>3</dim>
				</port>
			</output>
		</layer>
		<layer id="61" name="conv2_2/dw/fq_weights_1/Convert_to_float" type="Convert" version="opset1">
			<data destination_type="f16"/>
			<input>
				<port id="0">
					<dim>56</dim>
					<dim>1</dim>
					<dim>3</dim>
					<dim>3</dim>
				</port>
			</input>
			<output>
				<port id="1" precision="FP16">
					<dim>56</dim>
					<dim>1</dim>
					<dim>3</dim>
					<dim>3</dim>
				</port>
			</output>
		</layer>
		<layer id="62" name="conv2_2/dw/fq_weights_1/Copy/out_low5609_const" type="Const" version="opset1">
			<data element_type="f16" offset="2652" shape="1" size="2"/>
			<output>
				<port id="1" precision="FP16">
					<dim>1</dim>
				</port>
			</output>
		</layer>
		<layer id="63" name="conv2_2/dw/fq_weights_1/Copy/out_high5610_const" type="Const" version="opset1">
			<data element_type="f16" offset="662" shape="1" size="2"/>
			<output>
				<port id="1" precision="FP16">
					<dim>1</dim>
				</port>
			</output>
		</layer>
		<layer id="64" name="18241828_const" type="Const" version="opset1">
			<data element_type="f16" offset="3718" shape="56,1,1,1" size="112"/>
			<output>
				<port id="1" precision="FP16">
					<dim>56</dim>
					<dim>1</dim>
					<dim>1</dim>
					<dim>1</dim>
				</port>
			</output>
		</layer>
		<layer id="65" name="18251829_const" type="Const" version="opset1">
			<data element_type="f16" offset="3830" shape="56,1,1,1" size="112"/>
			<output>
				<port id="1" precision="FP16">
					<dim>56</dim>
					<dim>1</dim>
					<dim>1</dim>
					<dim>1</dim>
				</port>
			</output>
		</layer>
		<layer id="66" name="conv2_2/dw/fq_weights_1" type="FakeQuantize" version="opset1">
			<data levels="255"/>
			<input>
				<port id="0">
					<dim>56</dim>
					<dim>1</dim>
					<dim>3</dim>
					<dim>3</dim>
				</port>
				<port id="1">
					<dim>1</dim>
				</port>
				<port id="2">
					<dim>1</dim>
				</port>
				<port id="3">
					<dim>56</dim>
					<dim>1</dim>
					<dim>1</dim>
					<dim>1</dim>
				</port>
				<port id="4">
					<dim>56</dim>
					<dim>1</dim>
					<dim>1</dim>
					<dim>1</dim>
				</port>
			</input>
			<output>
				<port id="5" precision="FP16">
					<dim>56</dim>
					<dim>1</dim>
					<dim>3</dim>
					<dim>3</dim>
				</port>
			</output>
		</layer>
		<layer id="67" name="7308/value7310_const" type="Const" version="opset1">
			<data element_type="i64" offset="3942" shape="5" size="40"/>
			<output>
				<port id="1" precision="I64">
					<dim>5</dim>
				</port>
			</output>
		</layer>
		<layer id="68" name="7308" type="Reshape" version="opset1">
			<data special_zero="True"/>
			<input>
				<port id="0">
					<dim>56</dim>
					<dim>1</dim>
					<dim>3</dim>
					<dim>3</dim>
				</port>
				<port id="1">
					<dim>5</dim>
				</port>
			</input>
			<output>
				<port id="2" precision="FP16">
					<dim>56</dim>
					<dim>1</dim>
					<dim>1</dim>
					<dim>3</dim>
					<dim>3</dim>
				</port>
			</output>
		</layer>
		<layer id="69" name="conv2_2/dw" type="GroupConvolution" version="opset1">
			<data dilations="1,1" output_padding="0,0" pads_begin="1,1" pads_end="1,1" strides="2,2"/>
			<input>
				<port id="0">
					<dim>1</dim>
					<dim>56</dim>
					<dim>192</dim>
					<dim>336</dim>
				</port>
				<port id="1">
					<dim>56</dim>
					<dim>1</dim>
					<dim>1</dim>
					<dim>3</dim>
					<dim>3</dim>
				</port>
			</input>
			<output>
				<port id="2" precision="FP16">
					<dim>1</dim>
					<dim>56</dim>
					<dim>96</dim>
					<dim>168</dim>
				</port>
			</output>
		</layer>
		<layer id="70" name="data_add_1280012805/copy_const529_const" type="Const" version="opset1">
			<data element_type="f16" offset="3982" shape="1,56,1,1" size="112"/>
			<output>
				<port id="1" precision="FP16">
					<dim>1</dim>
					<dim>56</dim>
					<dim>1</dim>
					<dim>1</dim>
				</port>
			</output>
		</layer>
		<layer id="71" name="conv2_2/dw/bn/variance/Fused_Add_" type="Add" version="opset1">
			<input>
				<port id="0">
					<dim>1</dim>
					<dim>56</dim>
					<dim>96</dim>
					<dim>168</dim>
				</port>
				<port id="1">
					<dim>1</dim>
					<dim>56</dim>
					<dim>1</dim>
					<dim>1</dim>
				</port>
			</input>
			<output>
				<port id="2" precision="FP16">
					<dim>1</dim>
					<dim>56</dim>
					<dim>96</dim>
					<dim>168</dim>
				</port>
			</output>
		</layer>
		<layer id="72" name="relu2_2/dw" type="ReLU" version="opset1">
			<input>
				<port id="0">
					<dim>1</dim>
					<dim>56</dim>
					<dim>96</dim>
					<dim>168</dim>
				</port>
			</input>
			<output>
				<port id="1" precision="FP16">
					<dim>1</dim>
					<dim>56</dim>
					<dim>96</dim>
					<dim>168</dim>
				</port>
			</output>
		</layer>
		<layer id="73" name="21522156_const" type="Const" version="opset1">
			<data element_type="f16" offset="4094" shape="" size="2"/>
			<output>
				<port id="1" precision="FP16"/>
			</output>
		</layer>
		<layer id="74" name="21532157_const" type="Const" version="opset1">
			<data element_type="f16" offset="4096" shape="" size="2"/>
			<output>
				<port id="1" precision="FP16"/>
			</output>
		</layer>
		<layer id="75" name="21542158_const" type="Const" version="opset1">
			<data element_type="f16" offset="4094" shape="" size="2"/>
			<output>
				<port id="1" precision="FP16"/>
			</output>
		</layer>
		<layer id="76" name="21552159_const" type="Const" version="opset1">
			<data element_type="f16" offset="4096" shape="" size="2"/>
			<output>
				<port id="1" precision="FP16"/>
			</output>
		</layer>
		<layer id="77" name="conv2_2/sep/fq_input_0" type="FakeQuantize" version="opset1">
			<data levels="256"/>
			<input>
				<port id="0">
					<dim>1</dim>
					<dim>56</dim>
					<dim>96</dim>
					<dim>168</dim>
				</port>
				<port id="1"/>
				<port id="2"/>
				<port id="3"/>
				<port id="4"/>
			</input>
			<output>
				<port id="5" precision="FP16">
					<dim>1</dim>
					<dim>56</dim>
					<dim>96</dim>
					<dim>168</dim>
				</port>
			</output>
		</layer>
		<layer id="78" name="conv2_2/sep/fq_weights_1/Convert_to_float/Cast_06544_const" type="Const" version="opset1">
			<data element_type="u8" offset="4098" shape="104,56,1,1" size="5824"/>
			<output>
				<port id="1" precision="U8">
					<dim>104</dim>
					<dim>56</dim>
					<dim>1</dim>
					<dim>1</dim>
				</port>
			</output>
		</layer>
		<layer id="79" name="conv2_2/sep/fq_weights_1/Convert_to_float" type="Convert" version="opset1">
			<data destination_type="f16"/>
			<input>
				<port id="0">
					<dim>104</dim>
					<dim>56</dim>
					<dim>1</dim>
					<dim>1</dim>
				</port>
			</input>
			<output>
				<port id="1" precision="FP16">
					<dim>104</dim>
					<dim>56</dim>
					<dim>1</dim>
					<dim>1</dim>
				</port>
			</output>
		</layer>
		<layer id="80" name="conv2_2/sep/fq_weights_1/Copy/out_low5185_const" type="Const" version="opset1">
			<data element_type="f16" offset="9922" shape="1" size="2"/>
			<output>
				<port id="1" precision="FP16">
					<dim>1</dim>
				</port>
			</output>
		</layer>
		<layer id="81" name="conv2_2/sep/fq_weights_1/Copy/out_high5186_const" type="Const" version="opset1">
			<data element_type="f16" offset="662" shape="1" size="2"/>
			<output>
				<port id="1" precision="FP16">
					<dim>1</dim>
				</port>
			</output>
		</layer>
		<layer id="82" name="21642168_const" type="Const" version="opset1">
			<data element_type="f16" offset="9924" shape="104,1,1,1" size="208"/>
			<output>
				<port id="1" precision="FP16">
					<dim>104</dim>
					<dim>1</dim>
					<dim>1</dim>
					<dim>1</dim>
				</port>
			</output>
		</layer>
		<layer id="83" name="21652169_const" type="Const" version="opset1">
			<data element_type="f16" offset="10132" shape="104,1,1,1" size="208"/>
			<output>
				<port id="1" precision="FP16">
					<dim>104</dim>
					<dim>1</dim>
					<dim>1</dim>
					<dim>1</dim>
				</port>
			</output>
		</layer>
		<layer id="84" name="conv2_2/sep/fq_weights_1" type="FakeQuantize" version="opset1">
			<data levels="255"/>
			<input>
				<port id="0">
					<dim>104</dim>
					<dim>56</dim>
					<dim>1</dim>
					<dim>1</dim>
				</port>
				<port id="1">
					<dim>1</dim>
				</port>
				<port id="2">
					<dim>1</dim>
				</port>
				<port id="3">
					<dim>104</dim>
					<dim>1</dim>
					<dim>1</dim>
					<dim>1</dim>
				</port>
				<port id="4">
					<dim>104</dim>
					<dim>1</dim>
					<dim>1</dim>
					<dim>1</dim>
				</port>
			</input>
			<output>
				<port id="5" precision="FP16">
					<dim>104</dim>
					<dim>56</dim>
					<dim>1</dim>
					<dim>1</dim>
				</port>
			</output>
		</layer>
		<layer id="85" name="conv2_2/sep" type="Convolution" version="opset1">
			<data dilations="1,1" output_padding="0,0" pads_begin="0,0" pads_end="0,0" strides="1,1"/>
			<input>
				<port id="0">
					<dim>1</dim>
					<dim>56</dim>
					<dim>96</dim>
					<dim>168</dim>
				</port>
				<port id="1">
					<dim>104</dim>
					<dim>56</dim>
					<dim>1</dim>
					<dim>1</dim>
				</port>
			</input>
			<output>
				<port id="2" precision="FP16">
					<dim>1</dim>
					<dim>104</dim>
					<dim>96</dim>
					<dim>168</dim>
				</port>
			</output>
		</layer>
		<layer id="86" name="data_add_1280812813/copy_const534_const" type="Const" version="opset1">
			<data element_type="f16" offset="10340" shape="1,104,1,1" size="208"/>
			<output>
				<port id="1" precision="FP16">
					<dim>1</dim>
					<dim>104</dim>
					<dim>1</dim>
					<dim>1</dim>
				</port>
			</output>
		</layer>
		<layer id="87" name="conv2_2/sep/bn/variance/Fused_Add_" type="Add" version="opset1">
			<input>
				<port id="0">
					<dim>1</dim>
					<dim>104</dim>
					<dim>96</dim>
					<dim>168</dim>
				</port>
				<port id="1">
					<dim>1</dim>
					<dim>104</dim>
					<dim>1</dim>
					<dim>1</dim>
				</port>
			</input>
			<output>
				<port id="2" precision="FP16">
					<dim>1</dim>
					<dim>104</dim>
					<dim>96</dim>
					<dim>168</dim>
				</port>
			</output>
		</layer>
		<layer id="88" name="relu2_2/sep" type="ReLU" version="opset1">
			<input>
				<port id="0">
					<dim>1</dim>
					<dim>104</dim>
					<dim>96</dim>
					<dim>168</dim>
				</port>
			</input>
			<output>
				<port id="1" precision="FP16">
					<dim>1</dim>
					<dim>104</dim>
					<dim>96</dim>
					<dim>168</dim>
				</port>
			</output>
		</layer>
		<layer id="89" name="22922296_const" type="Const" version="opset1">
			<data element_type="f16" offset="10548" shape="1,104,1,1" size="208"/>
			<output>
				<port id="1" precision="FP16">
					<dim>1</dim>
					<dim>104</dim>
					<dim>1</dim>
					<dim>1</dim>
				</port>
			</output>
		</layer>
		<layer id="90" name="22932297_const" type="Const" version="opset1">
			<data element_type="f16" offset="10756" shape="1,104,1,1" size="208"/>
			<output>
				<port id="1" precision="FP16">
					<dim>1</dim>
					<dim>104</dim>
					<dim>1</dim>
					<dim>1</dim>
				</port>
			</output>
		</layer>
		<layer id="91" name="22942298_const" type="Const" version="opset1">
			<data element_type="f16" offset="10548" shape="1,104,1,1" size="208"/>
			<output>
				<port id="1" precision="FP16">
					<dim>1</dim>
					<dim>104</dim>
					<dim>1</dim>
					<dim>1</dim>
				</port>
			</output>
		</layer>
		<layer id="92" name="22952299_const" type="Const" version="opset1">
			<data element_type="f16" offset="10756" shape="1,104,1,1" size="208"/>
			<output>
				<port id="1" precision="FP16">
					<dim>1</dim>
					<dim>104</dim>
					<dim>1</dim>
					<dim>1</dim>
				</port>
			</output>
		</layer>
		<layer id="93" name="conv3_1/dw/fq_input_0" type="FakeQuantize" version="opset1">
			<data levels="256"/>
			<input>
				<port id="0">
					<dim>1</dim>
					<dim>104</dim>
					<dim>96</dim>
					<dim>168</dim>
				</port>
				<port id="1">
					<dim>1</dim>
					<dim>104</dim>
					<dim>1</dim>
					<dim>1</dim>
				</port>
				<port id="2">
					<dim>1</dim>
					<dim>104</dim>
					<dim>1</dim>
					<dim>1</dim>
				</port>
				<port id="3">
					<dim>1</dim>
					<dim>104</dim>
					<dim>1</dim>
					<dim>1</dim>
				</port>
				<port id="4">
					<dim>1</dim>
					<dim>104</dim>
					<dim>1</dim>
					<dim>1</dim>
				</port>
			</input>
			<output>
				<port id="5" precision="FP16">
					<dim>1</dim>
					<dim>104</dim>
					<dim>96</dim>
					<dim>168</dim>
				</port>
			</output>
		</layer>
		<layer id="94" name="conv3_1/dw/fq_weights_1/Convert_to_float/Cast_06502_const" type="Const" version="opset1">
			<data element_type="u8" offset="10964" shape="104,1,3,3" size="936"/>
			<output>
				<port id="1" precision="U8">
					<dim>104</dim>
					<dim>1</dim>
					<dim>3</dim>
					<dim>3</dim>
				</port>
			</output>
		</layer>
		<layer id="95" name="conv3_1/dw/fq_weights_1/Convert_to_float" type="Convert" version="opset1">
			<data destination_type="f16"/>
			<input>
				<port id="0">
					<dim>104</dim>
					<dim>1</dim>
					<dim>3</dim>
					<dim>3</dim>
				</port>
			</input>
			<output>
				<port id="1" precision="FP16">
					<dim>104</dim>
					<dim>1</dim>
					<dim>3</dim>
					<dim>3</dim>
				</port>
			</output>
		</layer>
		<layer id="96" name="conv3_1/dw/fq_weights_1/Copy/out_low5617_const" type="Const" version="opset1">
			<data element_type="f16" offset="9922" shape="1" size="2"/>
			<output>
				<port id="1" precision="FP16">
					<dim>1</dim>
				</port>
			</output>
		</layer>
		<layer id="97" name="conv3_1/dw/fq_weights_1/Copy/out_high5618_const" type="Const" version="opset1">
			<data element_type="f16" offset="662" shape="1" size="2"/>
			<output>
				<port id="1" precision="FP16">
					<dim>1</dim>
				</port>
			</output>
		</layer>
		<layer id="98" name="23042308_const" type="Const" version="opset1">
			<data element_type="f16" offset="11900" shape="104,1,1,1" size="208"/>
			<output>
				<port id="1" precision="FP16">
					<dim>104</dim>
					<dim>1</dim>
					<dim>1</dim>
					<dim>1</dim>
				</port>
			</output>
		</layer>
		<layer id="99" name="23052309_const" type="Const" version="opset1">
			<data element_type="f16" offset="12108" shape="104,1,1,1" size="208"/>
			<output>
				<port id="1" precision="FP16">
					<dim>104</dim>
					<dim>1</dim>
					<dim>1</dim>
					<dim>1</dim>
				</port>
			</output>
		</layer>
		<layer id="100" name="conv3_1/dw/fq_weights_1" type="FakeQuantize" version="opset1">
			<data levels="255"/>
			<input>
				<port id="0">
					<dim>104</dim>
					<dim>1</dim>
					<dim>3</dim>
					<dim>3</dim>
				</port>
				<port id="1">
					<dim>1</dim>
				</port>
				<port id="2">
					<dim>1</dim>
				</port>
				<port id="3">
					<dim>104</dim>
					<dim>1</dim>
					<dim>1</dim>
					<dim>1</dim>
				</port>
				<port id="4">
					<dim>104</dim>
					<dim>1</dim>
					<dim>1</dim>
					<dim>1</dim>
				</port>
			</input>
			<output>
				<port id="5" precision="FP16">
					<dim>104</dim>
					<dim>1</dim>
					<dim>3</dim>
					<dim>3</dim>
				</port>
			</output>
		</layer>
		<layer id="101" name="7340/value7342_const" type="Const" version="opset1">
			<data element_type="i64" offset="12316" shape="5" size="40"/>
			<output>
				<port id="1" precision="I64">
					<dim>5</dim>
				</port>
			</output>
		</layer>
		<layer id="102" name="7340" type="Reshape" version="opset1">
			<data special_zero="True"/>
			<input>
				<port id="0">
					<dim>104</dim>
					<dim>1</dim>
					<dim>3</dim>
					<dim>3</dim>
				</port>
				<port id="1">
					<dim>5</dim>
				</port>
			</input>
			<output>
				<port id="2" precision="FP16">
					<dim>104</dim>
					<dim>1</dim>
					<dim>1</dim>
					<dim>3</dim>
					<dim>3</dim>
				</port>
			</output>
		</layer>
		<layer id="103" name="conv3_1/dw" type="GroupConvolution" version="opset1">
			<data dilations="1,1" output_padding="0,0" pads_begin="1,1" pads_end="1,1" strides="1,1"/>
			<input>
				<port id="0">
					<dim>1</dim>
					<dim>104</dim>
					<dim>96</dim>
					<dim>168</dim>
				</port>
				<port id="1">
					<dim>104</dim>
					<dim>1</dim>
					<dim>1</dim>
					<dim>3</dim>
					<dim>3</dim>
				</port>
			</input>
			<output>
				<port id="2" precision="FP16">
					<dim>1</dim>
					<dim>104</dim>
					<dim>96</dim>
					<dim>168</dim>
				</port>
			</output>
		</layer>
		<layer id="104" name="data_add_1281612821/copy_const539_const" type="Const" version="opset1">
			<data element_type="f16" offset="12356" shape="1,104,1,1" size="208"/>
			<output>
				<port id="1" precision="FP16">
					<dim>1</dim>
					<dim>104</dim>
					<dim>1</dim>
					<dim>1</dim>
				</port>
			</output>
		</layer>
		<layer id="105" name="conv3_1/dw/bn/variance/Fused_Add_" type="Add" version="opset1">
			<input>
				<port id="0">
					<dim>1</dim>
					<dim>104</dim>
					<dim>96</dim>
					<dim>168</dim>
				</port>
				<port id="1">
					<dim>1</dim>
					<dim>104</dim>
					<dim>1</dim>
					<dim>1</dim>
				</port>
			</input>
			<output>
				<port id="2" precision="FP16">
					<dim>1</dim>
					<dim>104</dim>
					<dim>96</dim>
					<dim>168</dim>
				</port>
			</output>
		</layer>
		<layer id="106" name="relu3_1/dw" type="ReLU" version="opset1">
			<input>
				<port id="0">
					<dim>1</dim>
					<dim>104</dim>
					<dim>96</dim>
					<dim>168</dim>
				</port>
			</input>
			<output>
				<port id="1" precision="FP16">
					<dim>1</dim>
					<dim>104</dim>
					<dim>96</dim>
					<dim>168</dim>
				</port>
			</output>
		</layer>
		<layer id="107" name="28322836_const" type="Const" version="opset1">
			<data element_type="f16" offset="12564" shape="" size="2"/>
			<output>
				<port id="1" precision="FP16"/>
			</output>
		</layer>
		<layer id="108" name="28332837_const" type="Const" version="opset1">
			<data element_type="f16" offset="12566" shape="" size="2"/>
			<output>
				<port id="1" precision="FP16"/>
			</output>
		</layer>
		<layer id="109" name="28342838_const" type="Const" version="opset1">
			<data element_type="f16" offset="12564" shape="" size="2"/>
			<output>
				<port id="1" precision="FP16"/>
			</output>
		</layer>
		<layer id="110" name="28352839_const" type="Const" version="opset1">
			<data element_type="f16" offset="12566" shape="" size="2"/>
			<output>
				<port id="1" precision="FP16"/>
			</output>
		</layer>
		<layer id="111" name="conv3_1/sep/fq_input_0" type="FakeQuantize" version="opset1">
			<data levels="256"/>
			<input>
				<port id="0">
					<dim>1</dim>
					<dim>104</dim>
					<dim>96</dim>
					<dim>168</dim>
				</port>
				<port id="1"/>
				<port id="2"/>
				<port id="3"/>
				<port id="4"/>
			</input>
			<output>
				<port id="5" precision="FP16">
					<dim>1</dim>
					<dim>104</dim>
					<dim>96</dim>
					<dim>168</dim>
				</port>
			</output>
		</layer>
		<layer id="112" name="conv3_1/sep/fq_weights_1/Convert_to_float/Cast_06388_const" type="Const" version="opset1">
			<data element_type="u8" offset="12568" shape="120,104,1,1" size="12480"/>
			<output>
				<port id="1" precision="U8">
					<dim>120</dim>
					<dim>104</dim>
					<dim>1</dim>
					<dim>1</dim>
				</port>
			</output>
		</layer>
		<layer id="113" name="conv3_1/sep/fq_weights_1/Convert_to_float" type="Convert" version="opset1">
			<data destination_type="f16"/>
			<input>
				<port id="0">
					<dim>120</dim>
					<dim>104</dim>
					<dim>1</dim>
					<dim>1</dim>
				</port>
			</input>
			<output>
				<port id="1" precision="FP16">
					<dim>120</dim>
					<dim>104</dim>
					<dim>1</dim>
					<dim>1</dim>
				</port>
			</output>
		</layer>
		<layer id="114" name="conv3_1/sep/fq_weights_1/Copy/out_low5201_const" type="Const" version="opset1">
			<data element_type="f16" offset="25048" shape="1" size="2"/>
			<output>
				<port id="1" precision="FP16">
					<dim>1</dim>
				</port>
			</output>
		</layer>
		<layer id="115" name="conv3_1/sep/fq_weights_1/Copy/out_high5202_const" type="Const" version="opset1">
			<data element_type="f16" offset="662" shape="1" size="2"/>
			<output>
				<port id="1" precision="FP16">
					<dim>1</dim>
				</port>
			</output>
		</layer>
		<layer id="116" name="28442848_const" type="Const" version="opset1">
			<data element_type="f16" offset="25050" shape="120,1,1,1" size="240"/>
			<output>
				<port id="1" precision="FP16">
					<dim>120</dim>
					<dim>1</dim>
					<dim>1</dim>
					<dim>1</dim>
				</port>
			</output>
		</layer>
		<layer id="117" name="28452849_const" type="Const" version="opset1">
			<data element_type="f16" offset="25290" shape="120,1,1,1" size="240"/>
			<output>
				<port id="1" precision="FP16">
					<dim>120</dim>
					<dim>1</dim>
					<dim>1</dim>
					<dim>1</dim>
				</port>
			</output>
		</layer>
		<layer id="118" name="conv3_1/sep/fq_weights_1" type="FakeQuantize" version="opset1">
			<data levels="255"/>
			<input>
				<port id="0">
					<dim>120</dim>
					<dim>104</dim>
					<dim>1</dim>
					<dim>1</dim>
				</port>
				<port id="1">
					<dim>1</dim>
				</port>
				<port id="2">
					<dim>1</dim>
				</port>
				<port id="3">
					<dim>120</dim>
					<dim>1</dim>
					<dim>1</dim>
					<dim>1</dim>
				</port>
				<port id="4">
					<dim>120</dim>
					<dim>1</dim>
					<dim>1</dim>
					<dim>1</dim>
				</port>
			</input>
			<output>
				<port id="5" precision="FP16">
					<dim>120</dim>
					<dim>104</dim>
					<dim>1</dim>
					<dim>1</dim>
				</port>
			</output>
		</layer>
		<layer id="119" name="conv3_1/sep" type="Convolution" version="opset1">
			<data dilations="1,1" output_padding="0,0" pads_begin="0,0" pads_end="0,0" strides="1,1"/>
			<input>
				<port id="0">
					<dim>1</dim>
					<dim>104</dim>
					<dim>96</dim>
					<dim>168</dim>
				</port>
				<port id="1">
					<dim>120</dim>
					<dim>104</dim>
					<dim>1</dim>
					<dim>1</dim>
				</port>
			</input>
			<output>
				<port id="2" precision="FP16">
					<dim>1</dim>
					<dim>120</dim>
					<dim>96</dim>
					<dim>168</dim>
				</port>
			</output>
		</layer>
		<layer id="120" name="data_add_1282412829/copy_const544_const" type="Const" version="opset1">
			<data element_type="f16" offset="25530" shape="1,120,1,1" size="240"/>
			<output>
				<port id="1" precision="FP16">
					<dim>1</dim>
					<dim>120</dim>
					<dim>1</dim>
					<dim>1</dim>
				</port>
			</output>
		</layer>
		<layer id="121" name="conv3_1/sep/bn/variance/Fused_Add_" type="Add" version="opset1">
			<input>
				<port id="0">
					<dim>1</dim>
					<dim>120</dim>
					<dim>96</dim>
					<dim>168</dim>
				</port>
				<port id="1">
					<dim>1</dim>
					<dim>120</dim>
					<dim>1</dim>
					<dim>1</dim>
				</port>
			</input>
			<output>
				<port id="2" precision="FP16">
					<dim>1</dim>
					<dim>120</dim>
					<dim>96</dim>
					<dim>168</dim>
				</port>
			</output>
		</layer>
		<layer id="122" name="relu3_1/sep" type="ReLU" version="opset1">
			<input>
				<port id="0">
					<dim>1</dim>
					<dim>120</dim>
					<dim>96</dim>
					<dim>168</dim>
				</port>
			</input>
			<output>
				<port id="1" precision="FP16">
					<dim>1</dim>
					<dim>120</dim>
					<dim>96</dim>
					<dim>168</dim>
				</port>
			</output>
		</layer>
		<layer id="123" name="23322336_const" type="Const" version="opset1">
			<data element_type="f16" offset="25770" shape="1,120,1,1" size="240"/>
			<output>
				<port id="1" precision="FP16">
					<dim>1</dim>
					<dim>120</dim>
					<dim>1</dim>
					<dim>1</dim>
				</port>
			</output>
		</layer>
		<layer id="124" name="23332337_const" type="Const" version="opset1">
			<data element_type="f16" offset="26010" shape="1,120,1,1" size="240"/>
			<output>
				<port id="1" precision="FP16">
					<dim>1</dim>
					<dim>120</dim>
					<dim>1</dim>
					<dim>1</dim>
				</port>
			</output>
		</layer>
		<layer id="125" name="23342338_const" type="Const" version="opset1">
			<data element_type="f16" offset="25770" shape="1,120,1,1" size="240"/>
			<output>
				<port id="1" precision="FP16">
					<dim>1</dim>
					<dim>120</dim>
					<dim>1</dim>
					<dim>1</dim>
				</port>
			</output>
		</layer>
		<layer id="126" name="23352339_const" type="Const" version="opset1">
			<data element_type="f16" offset="26010" shape="1,120,1,1" size="240"/>
			<output>
				<port id="1" precision="FP16">
					<dim>1</dim>
					<dim>120</dim>
					<dim>1</dim>
					<dim>1</dim>
				</port>
			</output>
		</layer>
		<layer id="127" name="conv3_2/dw/fq_input_0" type="FakeQuantize" version="opset1">
			<data levels="256"/>
			<input>
				<port id="0">
					<dim>1</dim>
					<dim>120</dim>
					<dim>96</dim>
					<dim>168</dim>
				</port>
				<port id="1">
					<dim>1</dim>
					<dim>120</dim>
					<dim>1</dim>
					<dim>1</dim>
				</port>
				<port id="2">
					<dim>1</dim>
					<dim>120</dim>
					<dim>1</dim>
					<dim>1</dim>
				</port>
				<port id="3">
					<dim>1</dim>
					<dim>120</dim>
					<dim>1</dim>
					<dim>1</dim>
				</port>
				<port id="4">
					<dim>1</dim>
					<dim>120</dim>
					<dim>1</dim>
					<dim>1</dim>
				</port>
			</input>
			<output>
				<port id="5" precision="FP16">
					<dim>1</dim>
					<dim>120</dim>
					<dim>96</dim>
					<dim>168</dim>
				</port>
			</output>
		</layer>
		<layer id="128" name="conv3_2/dw/fq_weights_1/Convert_to_float/Cast_06370_const" type="Const" version="opset1">
			<data element_type="u8" offset="26250" shape="120,1,3,3" size="1080"/>
			<output>
				<port id="1" precision="U8">
					<dim>120</dim>
					<dim>1</dim>
					<dim>3</dim>
					<dim>3</dim>
				</port>
			</output>
		</layer>
		<layer id="129" name="conv3_2/dw/fq_weights_1/Convert_to_float" type="Convert" version="opset1">
			<data destination_type="f16"/>
			<input>
				<port id="0">
					<dim>120</dim>
					<dim>1</dim>
					<dim>3</dim>
					<dim>3</dim>
				</port>
			</input>
			<output>
				<port id="1" precision="FP16">
					<dim>120</dim>
					<dim>1</dim>
					<dim>3</dim>
					<dim>3</dim>
				</port>
			</output>
		</layer>
		<layer id="130" name="conv3_2/dw/fq_weights_1/Copy/out_low5257_const" type="Const" version="opset1">
			<data element_type="f16" offset="25048" shape="1" size="2"/>
			<output>
				<port id="1" precision="FP16">
					<dim>1</dim>
				</port>
			</output>
		</layer>
		<layer id="131" name="conv3_2/dw/fq_weights_1/Copy/out_high5258_const" type="Const" version="opset1">
			<data element_type="f16" offset="662" shape="1" size="2"/>
			<output>
				<port id="1" precision="FP16">
					<dim>1</dim>
				</port>
			</output>
		</layer>
		<layer id="132" name="23442348_const" type="Const" version="opset1">
			<data element_type="f16" offset="27330" shape="120,1,1,1" size="240"/>
			<output>
				<port id="1" precision="FP16">
					<dim>120</dim>
					<dim>1</dim>
					<dim>1</dim>
					<dim>1</dim>
				</port>
			</output>
		</layer>
		<layer id="133" name="23452349_const" type="Const" version="opset1">
			<data element_type="f16" offset="27570" shape="120,1,1,1" size="240"/>
			<output>
				<port id="1" precision="FP16">
					<dim>120</dim>
					<dim>1</dim>
					<dim>1</dim>
					<dim>1</dim>
				</port>
			</output>
		</layer>
		<layer id="134" name="conv3_2/dw/fq_weights_1" type="FakeQuantize" version="opset1">
			<data levels="255"/>
			<input>
				<port id="0">
					<dim>120</dim>
					<dim>1</dim>
					<dim>3</dim>
					<dim>3</dim>
				</port>
				<port id="1">
					<dim>1</dim>
				</port>
				<port id="2">
					<dim>1</dim>
				</port>
				<port id="3">
					<dim>120</dim>
					<dim>1</dim>
					<dim>1</dim>
					<dim>1</dim>
				</port>
				<port id="4">
					<dim>120</dim>
					<dim>1</dim>
					<dim>1</dim>
					<dim>1</dim>
				</port>
			</input>
			<output>
				<port id="5" precision="FP16">
					<dim>120</dim>
					<dim>1</dim>
					<dim>3</dim>
					<dim>3</dim>
				</port>
			</output>
		</layer>
		<layer id="135" name="7296/value7298_const" type="Const" version="opset1">
			<data element_type="i64" offset="27810" shape="5" size="40"/>
			<output>
				<port id="1" precision="I64">
					<dim>5</dim>
				</port>
			</output>
		</layer>
		<layer id="136" name="7296" type="Reshape" version="opset1">
			<data special_zero="True"/>
			<input>
				<port id="0">
					<dim>120</dim>
					<dim>1</dim>
					<dim>3</dim>
					<dim>3</dim>
				</port>
				<port id="1">
					<dim>5</dim>
				</port>
			</input>
			<output>
				<port id="2" precision="FP16">
					<dim>120</dim>
					<dim>1</dim>
					<dim>1</dim>
					<dim>3</dim>
					<dim>3</dim>
				</port>
			</output>
		</layer>
		<layer id="137" name="conv3_2/dw" type="GroupConvolution" version="opset1">
			<data dilations="1,1" output_padding="0,0" pads_begin="1,1" pads_end="1,1" strides="2,2"/>
			<input>
				<port id="0">
					<dim>1</dim>
					<dim>120</dim>
					<dim>96</dim>
					<dim>168</dim>
				</port>
				<port id="1">
					<dim>120</dim>
					<dim>1</dim>
					<dim>1</dim>
					<dim>3</dim>
					<dim>3</dim>
				</port>
			</input>
			<output>
				<port id="2" precision="FP16">
					<dim>1</dim>
					<dim>120</dim>
					<dim>48</dim>
					<dim>84</dim>
				</port>
			</output>
		</layer>
		<layer id="138" name="data_add_1283212837/copy_const549_const" type="Const" version="opset1">
			<data element_type="f16" offset="27850" shape="1,120,1,1" size="240"/>
			<output>
				<port id="1" precision="FP16">
					<dim>1</dim>
					<dim>120</dim>
					<dim>1</dim>
					<dim>1</dim>
				</port>
			</output>
		</layer>
		<layer id="139" name="conv3_2/dw/bn/variance/Fused_Add_" type="Add" version="opset1">
			<input>
				<port id="0">
					<dim>1</dim>
					<dim>120</dim>
					<dim>48</dim>
					<dim>84</dim>
				</port>
				<port id="1">
					<dim>1</dim>
					<dim>120</dim>
					<dim>1</dim>
					<dim>1</dim>
				</port>
			</input>
			<output>
				<port id="2" precision="FP16">
					<dim>1</dim>
					<dim>120</dim>
					<dim>48</dim>
					<dim>84</dim>
				</port>
			</output>
		</layer>
		<layer id="140" name="relu3_2/dw" type="ReLU" version="opset1">
			<input>
				<port id="0">
					<dim>1</dim>
					<dim>120</dim>
					<dim>48</dim>
					<dim>84</dim>
				</port>
			</input>
			<output>
				<port id="1" precision="FP16">
					<dim>1</dim>
					<dim>120</dim>
					<dim>48</dim>
					<dim>84</dim>
				</port>
			</output>
		</layer>
		<layer id="141" name="23922396_const" type="Const" version="opset1">
			<data element_type="f16" offset="28090" shape="" size="2"/>
			<output>
				<port id="1" precision="FP16"/>
			</output>
		</layer>
		<layer id="142" name="23932397_const" type="Const" version="opset1">
			<data element_type="f16" offset="28092" shape="" size="2"/>
			<output>
				<port id="1" precision="FP16"/>
			</output>
		</layer>
		<layer id="143" name="23942398_const" type="Const" version="opset1">
			<data element_type="f16" offset="28090" shape="" size="2"/>
			<output>
				<port id="1" precision="FP16"/>
			</output>
		</layer>
		<layer id="144" name="23952399_const" type="Const" version="opset1">
			<data element_type="f16" offset="28092" shape="" size="2"/>
			<output>
				<port id="1" precision="FP16"/>
			</output>
		</layer>
		<layer id="145" name="conv3_2/sep/fq_input_0" type="FakeQuantize" version="opset1">
			<data levels="256"/>
			<input>
				<port id="0">
					<dim>1</dim>
					<dim>120</dim>
					<dim>48</dim>
					<dim>84</dim>
				</port>
				<port id="1"/>
				<port id="2"/>
				<port id="3"/>
				<port id="4"/>
			</input>
			<output>
				<port id="5" precision="FP16">
					<dim>1</dim>
					<dim>120</dim>
					<dim>48</dim>
					<dim>84</dim>
				</port>
			</output>
		</layer>
		<layer id="146" name="conv3_2/sep/fq_weights_1/Convert_to_float/Cast_06534_const" type="Const" version="opset1">
			<data element_type="u8" offset="28094" shape="232,120,1,1" size="27840"/>
			<output>
				<port id="1" precision="U8">
					<dim>232</dim>
					<dim>120</dim>
					<dim>1</dim>
					<dim>1</dim>
				</port>
			</output>
		</layer>
		<layer id="147" name="conv3_2/sep/fq_weights_1/Convert_to_float" type="Convert" version="opset1">
			<data destination_type="f16"/>
			<input>
				<port id="0">
					<dim>232</dim>
					<dim>120</dim>
					<dim>1</dim>
					<dim>1</dim>
				</port>
			</input>
			<output>
				<port id="1" precision="FP16">
					<dim>232</dim>
					<dim>120</dim>
					<dim>1</dim>
					<dim>1</dim>
				</port>
			</output>
		</layer>
		<layer id="148" name="conv3_2/sep/fq_weights_1/Copy/out_low5489_const" type="Const" version="opset1">
			<data element_type="f16" offset="55934" shape="1" size="2"/>
			<output>
				<port id="1" precision="FP16">
					<dim>1</dim>
				</port>
			</output>
		</layer>
		<layer id="149" name="conv3_2/sep/fq_weights_1/Copy/out_high5490_const" type="Const" version="opset1">
			<data element_type="f16" offset="662" shape="1" size="2"/>
			<output>
				<port id="1" precision="FP16">
					<dim>1</dim>
				</port>
			</output>
		</layer>
		<layer id="150" name="24042408_const" type="Const" version="opset1">
			<data element_type="f16" offset="55936" shape="232,1,1,1" size="464"/>
			<output>
				<port id="1" precision="FP16">
					<dim>232</dim>
					<dim>1</dim>
					<dim>1</dim>
					<dim>1</dim>
				</port>
			</output>
		</layer>
		<layer id="151" name="24052409_const" type="Const" version="opset1">
			<data element_type="f16" offset="56400" shape="232,1,1,1" size="464"/>
			<output>
				<port id="1" precision="FP16">
					<dim>232</dim>
					<dim>1</dim>
					<dim>1</dim>
					<dim>1</dim>
				</port>
			</output>
		</layer>
		<layer id="152" name="conv3_2/sep/fq_weights_1" type="FakeQuantize" version="opset1">
			<data levels="255"/>
			<input>
				<port id="0">
					<dim>232</dim>
					<dim>120</dim>
					<dim>1</dim>
					<dim>1</dim>
				</port>
				<port id="1">
					<dim>1</dim>
				</port>
				<port id="2">
					<dim>1</dim>
				</port>
				<port id="3">
					<dim>232</dim>
					<dim>1</dim>
					<dim>1</dim>
					<dim>1</dim>
				</port>
				<port id="4">
					<dim>232</dim>
					<dim>1</dim>
					<dim>1</dim>
					<dim>1</dim>
				</port>
			</input>
			<output>
				<port id="5" precision="FP16">
					<dim>232</dim>
					<dim>120</dim>
					<dim>1</dim>
					<dim>1</dim>
				</port>
			</output>
		</layer>
		<layer id="153" name="conv3_2/sep" type="Convolution" version="opset1">
			<data dilations="1,1" output_padding="0,0" pads_begin="0,0" pads_end="0,0" strides="1,1"/>
			<input>
				<port id="0">
					<dim>1</dim>
					<dim>120</dim>
					<dim>48</dim>
					<dim>84</dim>
				</port>
				<port id="1">
					<dim>232</dim>
					<dim>120</dim>
					<dim>1</dim>
					<dim>1</dim>
				</port>
			</input>
			<output>
				<port id="2" precision="FP16">
					<dim>1</dim>
					<dim>232</dim>
					<dim>48</dim>
					<dim>84</dim>
				</port>
			</output>
		</layer>
		<layer id="154" name="data_add_1284012845/copy_const554_const" type="Const" version="opset1">
			<data element_type="f16" offset="56864" shape="1,232,1,1" size="464"/>
			<output>
				<port id="1" precision="FP16">
					<dim>1</dim>
					<dim>232</dim>
					<dim>1</dim>
					<dim>1</dim>
				</port>
			</output>
		</layer>
		<layer id="155" name="conv3_2/sep/bn/variance/Fused_Add_" type="Add" version="opset1">
			<input>
				<port id="0">
					<dim>1</dim>
					<dim>232</dim>
					<dim>48</dim>
					<dim>84</dim>
				</port>
				<port id="1">
					<dim>1</dim>
					<dim>232</dim>
					<dim>1</dim>
					<dim>1</dim>
				</port>
			</input>
			<output>
				<port id="2" precision="FP16">
					<dim>1</dim>
					<dim>232</dim>
					<dim>48</dim>
					<dim>84</dim>
				</port>
			</output>
		</layer>
		<layer id="156" name="relu3_2/sep" type="ReLU" version="opset1">
			<input>
				<port id="0">
					<dim>1</dim>
					<dim>232</dim>
					<dim>48</dim>
					<dim>84</dim>
				</port>
			</input>
			<output>
				<port id="1" precision="FP16">
					<dim>1</dim>
					<dim>232</dim>
					<dim>48</dim>
					<dim>84</dim>
				</port>
			</output>
		</layer>
		<layer id="157" name="19521956_const" type="Const" version="opset1">
			<data element_type="f16" offset="57328" shape="1,232,1,1" size="464"/>
			<output>
				<port id="1" precision="FP16">
					<dim>1</dim>
					<dim>232</dim>
					<dim>1</dim>
					<dim>1</dim>
				</port>
			</output>
		</layer>
		<layer id="158" name="19531957_const" type="Const" version="opset1">
			<data element_type="f16" offset="57792" shape="1,232,1,1" size="464"/>
			<output>
				<port id="1" precision="FP16">
					<dim>1</dim>
					<dim>232</dim>
					<dim>1</dim>
					<dim>1</dim>
				</port>
			</output>
		</layer>
		<layer id="159" name="19541958_const" type="Const" version="opset1">
			<data element_type="f16" offset="57328" shape="1,232,1,1" size="464"/>
			<output>
				<port id="1" precision="FP16">
					<dim>1</dim>
					<dim>232</dim>
					<dim>1</dim>
					<dim>1</dim>
				</port>
			</output>
		</layer>
		<layer id="160" name="19551959_const" type="Const" version="opset1">
			<data element_type="f16" offset="57792" shape="1,232,1,1" size="464"/>
			<output>
				<port id="1" precision="FP16">
					<dim>1</dim>
					<dim>232</dim>
					<dim>1</dim>
					<dim>1</dim>
				</port>
			</output>
		</layer>
		<layer id="161" name="conv4_1/dw/fq_input_0" type="FakeQuantize" version="opset1">
			<data levels="256"/>
			<input>
				<port id="0">
					<dim>1</dim>
					<dim>232</dim>
					<dim>48</dim>
					<dim>84</dim>
				</port>
				<port id="1">
					<dim>1</dim>
					<dim>232</dim>
					<dim>1</dim>
					<dim>1</dim>
				</port>
				<port id="2">
					<dim>1</dim>
					<dim>232</dim>
					<dim>1</dim>
					<dim>1</dim>
				</port>
				<port id="3">
					<dim>1</dim>
					<dim>232</dim>
					<dim>1</dim>
					<dim>1</dim>
				</port>
				<port id="4">
					<dim>1</dim>
					<dim>232</dim>
					<dim>1</dim>
					<dim>1</dim>
				</port>
			</input>
			<output>
				<port id="5" precision="FP16">
					<dim>1</dim>
					<dim>232</dim>
					<dim>48</dim>
					<dim>84</dim>
				</port>
			</output>
		</layer>
		<layer id="162" name="conv4_1/dw/fq_weights_1/Convert_to_float/Cast_06598_const" type="Const" version="opset1">
			<data element_type="u8" offset="58256" shape="232,1,3,3" size="2088"/>
			<output>
				<port id="1" precision="U8">
					<dim>232</dim>
					<dim>1</dim>
					<dim>3</dim>
					<dim>3</dim>
				</port>
			</output>
		</layer>
		<layer id="163" name="conv4_1/dw/fq_weights_1/Convert_to_float" type="Convert" version="opset1">
			<data destination_type="f16"/>
			<input>
				<port id="0">
					<dim>232</dim>
					<dim>1</dim>
					<dim>3</dim>
					<dim>3</dim>
				</port>
			</input>
			<output>
				<port id="1" precision="FP16">
					<dim>232</dim>
					<dim>1</dim>
					<dim>3</dim>
					<dim>3</dim>
				</port>
			</output>
		</layer>
		<layer id="164" name="conv4_1/dw/fq_weights_1/Copy/out_low5249_const" type="Const" version="opset1">
			<data element_type="f16" offset="55934" shape="1" size="2"/>
			<output>
				<port id="1" precision="FP16">
					<dim>1</dim>
				</port>
			</output>
		</layer>
		<layer id="165" name="conv4_1/dw/fq_weights_1/Copy/out_high5250_const" type="Const" version="opset1">
			<data element_type="f16" offset="662" shape="1" size="2"/>
			<output>
				<port id="1" precision="FP16">
					<dim>1</dim>
				</port>
			</output>
		</layer>
		<layer id="166" name="19641968_const" type="Const" version="opset1">
			<data element_type="f16" offset="60344" shape="232,1,1,1" size="464"/>
			<output>
				<port id="1" precision="FP16">
					<dim>232</dim>
					<dim>1</dim>
					<dim>1</dim>
					<dim>1</dim>
				</port>
			</output>
		</layer>
		<layer id="167" name="19651969_const" type="Const" version="opset1">
			<data element_type="f16" offset="60808" shape="232,1,1,1" size="464"/>
			<output>
				<port id="1" precision="FP16">
					<dim>232</dim>
					<dim>1</dim>
					<dim>1</dim>
					<dim>1</dim>
				</port>
			</output>
		</layer>
		<layer id="168" name="conv4_1/dw/fq_weights_1" type="FakeQuantize" version="opset1">
			<data levels="255"/>
			<input>
				<port id="0">
					<dim>232</dim>
					<dim>1</dim>
					<dim>3</dim>
					<dim>3</dim>
				</port>
				<port id="1">
					<dim>1</dim>
				</port>
				<port id="2">
					<dim>1</dim>
				</port>
				<port id="3">
					<dim>232</dim>
					<dim>1</dim>
					<dim>1</dim>
					<dim>1</dim>
				</port>
				<port id="4">
					<dim>232</dim>
					<dim>1</dim>
					<dim>1</dim>
					<dim>1</dim>
				</port>
			</input>
			<output>
				<port id="5" precision="FP16">
					<dim>232</dim>
					<dim>1</dim>
					<dim>3</dim>
					<dim>3</dim>
				</port>
			</output>
		</layer>
		<layer id="169" name="7336/value7338_const" type="Const" version="opset1">
			<data element_type="i64" offset="61272" shape="5" size="40"/>
			<output>
				<port id="1" precision="I64">
					<dim>5</dim>
				</port>
			</output>
		</layer>
		<layer id="170" name="7336" type="Reshape" version="opset1">
			<data special_zero="True"/>
			<input>
				<port id="0">
					<dim>232</dim>
					<dim>1</dim>
					<dim>3</dim>
					<dim>3</dim>
				</port>
				<port id="1">
					<dim>5</dim>
				</port>
			</input>
			<output>
				<port id="2" precision="FP16">
					<dim>232</dim>
					<dim>1</dim>
					<dim>1</dim>
					<dim>3</dim>
					<dim>3</dim>
				</port>
			</output>
		</layer>
		<layer id="171" name="conv4_1/dw" type="GroupConvolution" version="opset1">
			<data dilations="1,1" output_padding="0,0" pads_begin="1,1" pads_end="1,1" strides="1,1"/>
			<input>
				<port id="0">
					<dim>1</dim>
					<dim>232</dim>
					<dim>48</dim>
					<dim>84</dim>
				</port>
				<port id="1">
					<dim>232</dim>
					<dim>1</dim>
					<dim>1</dim>
					<dim>3</dim>
					<dim>3</dim>
				</port>
			</input>
			<output>
				<port id="2" precision="FP16">
					<dim>1</dim>
					<dim>232</dim>
					<dim>48</dim>
					<dim>84</dim>
				</port>
			</output>
		</layer>
		<layer id="172" name="data_add_1284812853/copy_const559_const" type="Const" version="opset1">
			<data element_type="f16" offset="61312" shape="1,232,1,1" size="464"/>
			<output>
				<port id="1" precision="FP16">
					<dim>1</dim>
					<dim>232</dim>
					<dim>1</dim>
					<dim>1</dim>
				</port>
			</output>
		</layer>
		<layer id="173" name="conv4_1/dw/bn/variance/Fused_Add_" type="Add" version="opset1">
			<input>
				<port id="0">
					<dim>1</dim>
					<dim>232</dim>
					<dim>48</dim>
					<dim>84</dim>
				</port>
				<port id="1">
					<dim>1</dim>
					<dim>232</dim>
					<dim>1</dim>
					<dim>1</dim>
				</port>
			</input>
			<output>
				<port id="2" precision="FP16">
					<dim>1</dim>
					<dim>232</dim>
					<dim>48</dim>
					<dim>84</dim>
				</port>
			</output>
		</layer>
		<layer id="174" name="relu4_1/dw" type="ReLU" version="opset1">
			<input>
				<port id="0">
					<dim>1</dim>
					<dim>232</dim>
					<dim>48</dim>
					<dim>84</dim>
				</port>
			</input>
			<output>
				<port id="1" precision="FP16">
					<dim>1</dim>
					<dim>232</dim>
					<dim>48</dim>
					<dim>84</dim>
				</port>
			</output>
		</layer>
		<layer id="175" name="22122216_const" type="Const" version="opset1">
			<data element_type="f16" offset="61776" shape="" size="2"/>
			<output>
				<port id="1" precision="FP16"/>
			</output>
		</layer>
		<layer id="176" name="22132217_const" type="Const" version="opset1">
			<data element_type="f16" offset="61778" shape="" size="2"/>
			<output>
				<port id="1" precision="FP16"/>
			</output>
		</layer>
		<layer id="177" name="22142218_const" type="Const" version="opset1">
			<data element_type="f16" offset="61776" shape="" size="2"/>
			<output>
				<port id="1" precision="FP16"/>
			</output>
		</layer>
		<layer id="178" name="22152219_const" type="Const" version="opset1">
			<data element_type="f16" offset="61778" shape="" size="2"/>
			<output>
				<port id="1" precision="FP16"/>
			</output>
		</layer>
		<layer id="179" name="conv4_1/sep/fq_input_0" type="FakeQuantize" version="opset1">
			<data levels="256"/>
			<input>
				<port id="0">
					<dim>1</dim>
					<dim>232</dim>
					<dim>48</dim>
					<dim>84</dim>
				</port>
				<port id="1"/>
				<port id="2"/>
				<port id="3"/>
				<port id="4"/>
			</input>
			<output>
				<port id="5" precision="FP16">
					<dim>1</dim>
					<dim>232</dim>
					<dim>48</dim>
					<dim>84</dim>
				</port>
			</output>
		</layer>
		<layer id="180" name="conv4_1/sep/fq_weights_1/Convert_to_float/Cast_06448_const" type="Const" version="opset1">
			<data element_type="u8" offset="61780" shape="232,232,1,1" size="53824"/>
			<output>
				<port id="1" precision="U8">
					<dim>232</dim>
					<dim>232</dim>
					<dim>1</dim>
					<dim>1</dim>
				</port>
			</output>
		</layer>
		<layer id="181" name="conv4_1/sep/fq_weights_1/Convert_to_float" type="Convert" version="opset1">
			<data destination_type="f16"/>
			<input>
				<port id="0">
					<dim>232</dim>
					<dim>232</dim>
					<dim>1</dim>
					<dim>1</dim>
				</port>
			</input>
			<output>
				<port id="1" precision="FP16">
					<dim>232</dim>
					<dim>232</dim>
					<dim>1</dim>
					<dim>1</dim>
				</port>
			</output>
		</layer>
		<layer id="182" name="conv4_1/sep/fq_weights_1/Copy/out_low5497_const" type="Const" version="opset1">
			<data element_type="f16" offset="115604" shape="1" size="2"/>
			<output>
				<port id="1" precision="FP16">
					<dim>1</dim>
				</port>
			</output>
		</layer>
		<layer id="183" name="conv4_1/sep/fq_weights_1/Copy/out_high5498_const" type="Const" version="opset1">
			<data element_type="f16" offset="662" shape="1" size="2"/>
			<output>
				<port id="1" precision="FP16">
					<dim>1</dim>
				</port>
			</output>
		</layer>
		<layer id="184" name="22242228_const" type="Const" version="opset1">
			<data element_type="f16" offset="115606" shape="232,1,1,1" size="464"/>
			<output>
				<port id="1" precision="FP16">
					<dim>232</dim>
					<dim>1</dim>
					<dim>1</dim>
					<dim>1</dim>
				</port>
			</output>
		</layer>
		<layer id="185" name="22252229_const" type="Const" version="opset1">
			<data element_type="f16" offset="116070" shape="232,1,1,1" size="464"/>
			<output>
				<port id="1" precision="FP16">
					<dim>232</dim>
					<dim>1</dim>
					<dim>1</dim>
					<dim>1</dim>
				</port>
			</output>
		</layer>
		<layer id="186" name="conv4_1/sep/fq_weights_1" type="FakeQuantize" version="opset1">
			<data levels="255"/>
			<input>
				<port id="0">
					<dim>232</dim>
					<dim>232</dim>
					<dim>1</dim>
					<dim>1</dim>
				</port>
				<port id="1">
					<dim>1</dim>
				</port>
				<port id="2">
					<dim>1</dim>
				</port>
				<port id="3">
					<dim>232</dim>
					<dim>1</dim>
					<dim>1</dim>
					<dim>1</dim>
				</port>
				<port id="4">
					<dim>232</dim>
					<dim>1</dim>
					<dim>1</dim>
					<dim>1</dim>
				</port>
			</input>
			<output>
				<port id="5" precision="FP16">
					<dim>232</dim>
					<dim>232</dim>
					<dim>1</dim>
					<dim>1</dim>
				</port>
			</output>
		</layer>
		<layer id="187" name="conv4_1/sep" type="Convolution" version="opset1">
			<data dilations="1,1" output_padding="0,0" pads_begin="0,0" pads_end="0,0" strides="1,1"/>
			<input>
				<port id="0">
					<dim>1</dim>
					<dim>232</dim>
					<dim>48</dim>
					<dim>84</dim>
				</port>
				<port id="1">
					<dim>232</dim>
					<dim>232</dim>
					<dim>1</dim>
					<dim>1</dim>
				</port>
			</input>
			<output>
				<port id="2" precision="FP16">
					<dim>1</dim>
					<dim>232</dim>
					<dim>48</dim>
					<dim>84</dim>
				</port>
			</output>
		</layer>
		<layer id="188" name="data_add_1285612861/copy_const564_const" type="Const" version="opset1">
			<data element_type="f16" offset="116534" shape="1,232,1,1" size="464"/>
			<output>
				<port id="1" precision="FP16">
					<dim>1</dim>
					<dim>232</dim>
					<dim>1</dim>
					<dim>1</dim>
				</port>
			</output>
		</layer>
		<layer id="189" name="conv4_1/sep/bn/variance/Fused_Add_" type="Add" version="opset1">
			<input>
				<port id="0">
					<dim>1</dim>
					<dim>232</dim>
					<dim>48</dim>
					<dim>84</dim>
				</port>
				<port id="1">
					<dim>1</dim>
					<dim>232</dim>
					<dim>1</dim>
					<dim>1</dim>
				</port>
			</input>
			<output>
				<port id="2" precision="FP16">
					<dim>1</dim>
					<dim>232</dim>
					<dim>48</dim>
					<dim>84</dim>
				</port>
			</output>
		</layer>
		<layer id="190" name="relu4_1/sep" type="ReLU" version="opset1">
			<input>
				<port id="0">
					<dim>1</dim>
					<dim>232</dim>
					<dim>48</dim>
					<dim>84</dim>
				</port>
			</input>
			<output>
				<port id="1" precision="FP16">
					<dim>1</dim>
					<dim>232</dim>
					<dim>48</dim>
					<dim>84</dim>
				</port>
			</output>
		</layer>
		<layer id="191" name="19321936_const" type="Const" version="opset1">
			<data element_type="f16" offset="57328" shape="1,232,1,1" size="464"/>
			<output>
				<port id="1" precision="FP16">
					<dim>1</dim>
					<dim>232</dim>
					<dim>1</dim>
					<dim>1</dim>
				</port>
			</output>
		</layer>
		<layer id="192" name="19331937_const" type="Const" version="opset1">
			<data element_type="f16" offset="116998" shape="1,232,1,1" size="464"/>
			<output>
				<port id="1" precision="FP16">
					<dim>1</dim>
					<dim>232</dim>
					<dim>1</dim>
					<dim>1</dim>
				</port>
			</output>
		</layer>
		<layer id="193" name="19341938_const" type="Const" version="opset1">
			<data element_type="f16" offset="57328" shape="1,232,1,1" size="464"/>
			<output>
				<port id="1" precision="FP16">
					<dim>1</dim>
					<dim>232</dim>
					<dim>1</dim>
					<dim>1</dim>
				</port>
			</output>
		</layer>
		<layer id="194" name="19351939_const" type="Const" version="opset1">
			<data element_type="f16" offset="116998" shape="1,232,1,1" size="464"/>
			<output>
				<port id="1" precision="FP16">
					<dim>1</dim>
					<dim>232</dim>
					<dim>1</dim>
					<dim>1</dim>
				</port>
			</output>
		</layer>
		<layer id="195" name="conv4_2/dw/fq_input_0" type="FakeQuantize" version="opset1">
			<data levels="256"/>
			<input>
				<port id="0">
					<dim>1</dim>
					<dim>232</dim>
					<dim>48</dim>
					<dim>84</dim>
				</port>
				<port id="1">
					<dim>1</dim>
					<dim>232</dim>
					<dim>1</dim>
					<dim>1</dim>
				</port>
				<port id="2">
					<dim>1</dim>
					<dim>232</dim>
					<dim>1</dim>
					<dim>1</dim>
				</port>
				<port id="3">
					<dim>1</dim>
					<dim>232</dim>
					<dim>1</dim>
					<dim>1</dim>
				</port>
				<port id="4">
					<dim>1</dim>
					<dim>232</dim>
					<dim>1</dim>
					<dim>1</dim>
				</port>
			</input>
			<output>
				<port id="5" precision="FP16">
					<dim>1</dim>
					<dim>232</dim>
					<dim>48</dim>
					<dim>84</dim>
				</port>
			</output>
		</layer>
		<layer id="196" name="conv4_2/dw/fq_weights_1/Convert_to_float/Cast_06574_const" type="Const" version="opset1">
			<data element_type="u8" offset="117462" shape="232,1,3,3" size="2088"/>
			<output>
				<port id="1" precision="U8">
					<dim>232</dim>
					<dim>1</dim>
					<dim>3</dim>
					<dim>3</dim>
				</port>
			</output>
		</layer>
		<layer id="197" name="conv4_2/dw/fq_weights_1/Convert_to_float" type="Convert" version="opset1">
			<data destination_type="f16"/>
			<input>
				<port id="0">
					<dim>232</dim>
					<dim>1</dim>
					<dim>3</dim>
					<dim>3</dim>
				</port>
			</input>
			<output>
				<port id="1" precision="FP16">
					<dim>232</dim>
					<dim>1</dim>
					<dim>3</dim>
					<dim>3</dim>
				</port>
			</output>
		</layer>
		<layer id="198" name="conv4_2/dw/fq_weights_1/Copy/out_low5505_const" type="Const" version="opset1">
			<data element_type="f16" offset="115604" shape="1" size="2"/>
			<output>
				<port id="1" precision="FP16">
					<dim>1</dim>
				</port>
			</output>
		</layer>
		<layer id="199" name="conv4_2/dw/fq_weights_1/Copy/out_high5506_const" type="Const" version="opset1">
			<data element_type="f16" offset="662" shape="1" size="2"/>
			<output>
				<port id="1" precision="FP16">
					<dim>1</dim>
				</port>
			</output>
		</layer>
		<layer id="200" name="19441948_const" type="Const" version="opset1">
			<data element_type="f16" offset="119550" shape="232,1,1,1" size="464"/>
			<output>
				<port id="1" precision="FP16">
					<dim>232</dim>
					<dim>1</dim>
					<dim>1</dim>
					<dim>1</dim>
				</port>
			</output>
		</layer>
		<layer id="201" name="19451949_const" type="Const" version="opset1">
			<data element_type="f16" offset="120014" shape="232,1,1,1" size="464"/>
			<output>
				<port id="1" precision="FP16">
					<dim>232</dim>
					<dim>1</dim>
					<dim>1</dim>
					<dim>1</dim>
				</port>
			</output>
		</layer>
		<layer id="202" name="conv4_2/dw/fq_weights_1" type="FakeQuantize" version="opset1">
			<data levels="255"/>
			<input>
				<port id="0">
					<dim>232</dim>
					<dim>1</dim>
					<dim>3</dim>
					<dim>3</dim>
				</port>
				<port id="1">
					<dim>1</dim>
				</port>
				<port id="2">
					<dim>1</dim>
				</port>
				<port id="3">
					<dim>232</dim>
					<dim>1</dim>
					<dim>1</dim>
					<dim>1</dim>
				</port>
				<port id="4">
					<dim>232</dim>
					<dim>1</dim>
					<dim>1</dim>
					<dim>1</dim>
				</port>
			</input>
			<output>
				<port id="5" precision="FP16">
					<dim>232</dim>
					<dim>1</dim>
					<dim>3</dim>
					<dim>3</dim>
				</port>
			</output>
		</layer>
		<layer id="203" name="7344/value7346_const" type="Const" version="opset1">
			<data element_type="i64" offset="61272" shape="5" size="40"/>
			<output>
				<port id="1" precision="I64">
					<dim>5</dim>
				</port>
			</output>
		</layer>
		<layer id="204" name="7344" type="Reshape" version="opset1">
			<data special_zero="True"/>
			<input>
				<port id="0">
					<dim>232</dim>
					<dim>1</dim>
					<dim>3</dim>
					<dim>3</dim>
				</port>
				<port id="1">
					<dim>5</dim>
				</port>
			</input>
			<output>
				<port id="2" precision="FP16">
					<dim>232</dim>
					<dim>1</dim>
					<dim>1</dim>
					<dim>3</dim>
					<dim>3</dim>
				</port>
			</output>
		</layer>
		<layer id="205" name="conv4_2/dw" type="GroupConvolution" version="opset1">
			<data dilations="1,1" output_padding="0,0" pads_begin="1,1" pads_end="1,1" strides="2,2"/>
			<input>
				<port id="0">
					<dim>1</dim>
					<dim>232</dim>
					<dim>48</dim>
					<dim>84</dim>
				</port>
				<port id="1">
					<dim>232</dim>
					<dim>1</dim>
					<dim>1</dim>
					<dim>3</dim>
					<dim>3</dim>
				</port>
			</input>
			<output>
				<port id="2" precision="FP16">
					<dim>1</dim>
					<dim>232</dim>
					<dim>24</dim>
					<dim>42</dim>
				</port>
			</output>
		</layer>
		<layer id="206" name="data_add_1286412869/copy_const569_const" type="Const" version="opset1">
			<data element_type="f16" offset="120478" shape="1,232,1,1" size="464"/>
			<output>
				<port id="1" precision="FP16">
					<dim>1</dim>
					<dim>232</dim>
					<dim>1</dim>
					<dim>1</dim>
				</port>
			</output>
		</layer>
		<layer id="207" name="conv4_2/dw/bn/variance/Fused_Add_" type="Add" version="opset1">
			<input>
				<port id="0">
					<dim>1</dim>
					<dim>232</dim>
					<dim>24</dim>
					<dim>42</dim>
				</port>
				<port id="1">
					<dim>1</dim>
					<dim>232</dim>
					<dim>1</dim>
					<dim>1</dim>
				</port>
			</input>
			<output>
				<port id="2" precision="FP16">
					<dim>1</dim>
					<dim>232</dim>
					<dim>24</dim>
					<dim>42</dim>
				</port>
			</output>
		</layer>
		<layer id="208" name="relu4_2/dw" type="ReLU" version="opset1">
			<input>
				<port id="0">
					<dim>1</dim>
					<dim>232</dim>
					<dim>24</dim>
					<dim>42</dim>
				</port>
			</input>
			<output>
				<port id="1" precision="FP16">
					<dim>1</dim>
					<dim>232</dim>
					<dim>24</dim>
					<dim>42</dim>
				</port>
			</output>
		</layer>
		<layer id="209" name="19721976_const" type="Const" version="opset1">
			<data element_type="f16" offset="120942" shape="" size="2"/>
			<output>
				<port id="1" precision="FP16"/>
			</output>
		</layer>
		<layer id="210" name="19731977_const" type="Const" version="opset1">
			<data element_type="f16" offset="120944" shape="" size="2"/>
			<output>
				<port id="1" precision="FP16"/>
			</output>
		</layer>
		<layer id="211" name="19741978_const" type="Const" version="opset1">
			<data element_type="f16" offset="120942" shape="" size="2"/>
			<output>
				<port id="1" precision="FP16"/>
			</output>
		</layer>
		<layer id="212" name="19751979_const" type="Const" version="opset1">
			<data element_type="f16" offset="120944" shape="" size="2"/>
			<output>
				<port id="1" precision="FP16"/>
			</output>
		</layer>
		<layer id="213" name="conv4_2/sep/fq_input_0" type="FakeQuantize" version="opset1">
			<data levels="256"/>
			<input>
				<port id="0">
					<dim>1</dim>
					<dim>232</dim>
					<dim>24</dim>
					<dim>42</dim>
				</port>
				<port id="1"/>
				<port id="2"/>
				<port id="3"/>
				<port id="4"/>
			</input>
			<output>
				<port id="5" precision="FP16">
					<dim>1</dim>
					<dim>232</dim>
					<dim>24</dim>
					<dim>42</dim>
				</port>
			</output>
		</layer>
		<layer id="214" name="conv4_2/sep/fq_weights_1/Convert_to_float/Cast_06446_const" type="Const" version="opset1">
			<data element_type="u8" offset="120946" shape="360,232,1,1" size="83520"/>
			<output>
				<port id="1" precision="U8">
					<dim>360</dim>
					<dim>232</dim>
					<dim>1</dim>
					<dim>1</dim>
				</port>
			</output>
		</layer>
		<layer id="215" name="conv4_2/sep/fq_weights_1/Convert_to_float" type="Convert" version="opset1">
			<data destination_type="f16"/>
			<input>
				<port id="0">
					<dim>360</dim>
					<dim>232</dim>
					<dim>1</dim>
					<dim>1</dim>
				</port>
			</input>
			<output>
				<port id="1" precision="FP16">
					<dim>360</dim>
					<dim>232</dim>
					<dim>1</dim>
					<dim>1</dim>
				</port>
			</output>
		</layer>
		<layer id="216" name="conv4_2/sep/fq_weights_1/Copy/out_low5353_const" type="Const" version="opset1">
			<data element_type="f16" offset="204466" shape="1" size="2"/>
			<output>
				<port id="1" precision="FP16">
					<dim>1</dim>
				</port>
			</output>
		</layer>
		<layer id="217" name="conv4_2/sep/fq_weights_1/Copy/out_high5354_const" type="Const" version="opset1">
			<data element_type="f16" offset="662" shape="1" size="2"/>
			<output>
				<port id="1" precision="FP16">
					<dim>1</dim>
				</port>
			</output>
		</layer>
		<layer id="218" name="19841988_const" type="Const" version="opset1">
			<data element_type="f16" offset="204468" shape="360,1,1,1" size="720"/>
			<output>
				<port id="1" precision="FP16">
					<dim>360</dim>
					<dim>1</dim>
					<dim>1</dim>
					<dim>1</dim>
				</port>
			</output>
		</layer>
		<layer id="219" name="19851989_const" type="Const" version="opset1">
			<data element_type="f16" offset="205188" shape="360,1,1,1" size="720"/>
			<output>
				<port id="1" precision="FP16">
					<dim>360</dim>
					<dim>1</dim>
					<dim>1</dim>
					<dim>1</dim>
				</port>
			</output>
		</layer>
		<layer id="220" name="conv4_2/sep/fq_weights_1" type="FakeQuantize" version="opset1">
			<data levels="255"/>
			<input>
				<port id="0">
					<dim>360</dim>
					<dim>232</dim>
					<dim>1</dim>
					<dim>1</dim>
				</port>
				<port id="1">
					<dim>1</dim>
				</port>
				<port id="2">
					<dim>1</dim>
				</port>
				<port id="3">
					<dim>360</dim>
					<dim>1</dim>
					<dim>1</dim>
					<dim>1</dim>
				</port>
				<port id="4">
					<dim>360</dim>
					<dim>1</dim>
					<dim>1</dim>
					<dim>1</dim>
				</port>
			</input>
			<output>
				<port id="5" precision="FP16">
					<dim>360</dim>
					<dim>232</dim>
					<dim>1</dim>
					<dim>1</dim>
				</port>
			</output>
		</layer>
		<layer id="221" name="conv4_2/sep" type="Convolution" version="opset1">
			<data dilations="1,1" output_padding="0,0" pads_begin="0,0" pads_end="0,0" strides="1,1"/>
			<input>
				<port id="0">
					<dim>1</dim>
					<dim>232</dim>
					<dim>24</dim>
					<dim>42</dim>
				</port>
				<port id="1">
					<dim>360</dim>
					<dim>232</dim>
					<dim>1</dim>
					<dim>1</dim>
				</port>
			</input>
			<output>
				<port id="2" precision="FP16">
					<dim>1</dim>
					<dim>360</dim>
					<dim>24</dim>
					<dim>42</dim>
				</port>
			</output>
		</layer>
		<layer id="222" name="data_add_1287212877/copy_const574_const" type="Const" version="opset1">
			<data element_type="f16" offset="205908" shape="1,360,1,1" size="720"/>
			<output>
				<port id="1" precision="FP16">
					<dim>1</dim>
					<dim>360</dim>
					<dim>1</dim>
					<dim>1</dim>
				</port>
			</output>
		</layer>
		<layer id="223" name="conv4_2/sep/bn/variance/Fused_Add_" type="Add" version="opset1">
			<input>
				<port id="0">
					<dim>1</dim>
					<dim>360</dim>
					<dim>24</dim>
					<dim>42</dim>
				</port>
				<port id="1">
					<dim>1</dim>
					<dim>360</dim>
					<dim>1</dim>
					<dim>1</dim>
				</port>
			</input>
			<output>
				<port id="2" precision="FP16">
					<dim>1</dim>
					<dim>360</dim>
					<dim>24</dim>
					<dim>42</dim>
				</port>
			</output>
		</layer>
		<layer id="224" name="relu4_2/sep" type="ReLU" version="opset1">
			<input>
				<port id="0">
					<dim>1</dim>
					<dim>360</dim>
					<dim>24</dim>
					<dim>42</dim>
				</port>
			</input>
			<output>
				<port id="1" precision="FP16">
					<dim>1</dim>
					<dim>360</dim>
					<dim>24</dim>
					<dim>42</dim>
				</port>
			</output>
		</layer>
		<layer id="225" name="21722176_const" type="Const" version="opset1">
			<data element_type="f16" offset="206628" shape="1,360,1,1" size="720"/>
			<output>
				<port id="1" precision="FP16">
					<dim>1</dim>
					<dim>360</dim>
					<dim>1</dim>
					<dim>1</dim>
				</port>
			</output>
		</layer>
		<layer id="226" name="21732177_const" type="Const" version="opset1">
			<data element_type="f16" offset="207348" shape="1,360,1,1" size="720"/>
			<output>
				<port id="1" precision="FP16">
					<dim>1</dim>
					<dim>360</dim>
					<dim>1</dim>
					<dim>1</dim>
				</port>
			</output>
		</layer>
		<layer id="227" name="21742178_const" type="Const" version="opset1">
			<data element_type="f16" offset="206628" shape="1,360,1,1" size="720"/>
			<output>
				<port id="1" precision="FP16">
					<dim>1</dim>
					<dim>360</dim>
					<dim>1</dim>
					<dim>1</dim>
				</port>
			</output>
		</layer>
		<layer id="228" name="21752179_const" type="Const" version="opset1">
			<data element_type="f16" offset="207348" shape="1,360,1,1" size="720"/>
			<output>
				<port id="1" precision="FP16">
					<dim>1</dim>
					<dim>360</dim>
					<dim>1</dim>
					<dim>1</dim>
				</port>
			</output>
		</layer>
		<layer id="229" name="conv5_1/dw/fq_input_0" type="FakeQuantize" version="opset1">
			<data levels="256"/>
			<input>
				<port id="0">
					<dim>1</dim>
					<dim>360</dim>
					<dim>24</dim>
					<dim>42</dim>
				</port>
				<port id="1">
					<dim>1</dim>
					<dim>360</dim>
					<dim>1</dim>
					<dim>1</dim>
				</port>
				<port id="2">
					<dim>1</dim>
					<dim>360</dim>
					<dim>1</dim>
					<dim>1</dim>
				</port>
				<port id="3">
					<dim>1</dim>
					<dim>360</dim>
					<dim>1</dim>
					<dim>1</dim>
				</port>
				<port id="4">
					<dim>1</dim>
					<dim>360</dim>
					<dim>1</dim>
					<dim>1</dim>
				</port>
			</input>
			<output>
				<port id="5" precision="FP16">
					<dim>1</dim>
					<dim>360</dim>
					<dim>24</dim>
					<dim>42</dim>
				</port>
			</output>
		</layer>
		<layer id="230" name="conv5_1/dw/fq_weights_1/Convert_to_float/Cast_06386_const" type="Const" version="opset1">
			<data element_type="u8" offset="208068" shape="360,1,3,3" size="3240"/>
			<output>
				<port id="1" precision="U8">
					<dim>360</dim>
					<dim>1</dim>
					<dim>3</dim>
					<dim>3</dim>
				</port>
			</output>
		</layer>
		<layer id="231" name="conv5_1/dw/fq_weights_1/Convert_to_float" type="Convert" version="opset1">
			<data destination_type="f16"/>
			<input>
				<port id="0">
					<dim>360</dim>
					<dim>1</dim>
					<dim>3</dim>
					<dim>3</dim>
				</port>
			</input>
			<output>
				<port id="1" precision="FP16">
					<dim>360</dim>
					<dim>1</dim>
					<dim>3</dim>
					<dim>3</dim>
				</port>
			</output>
		</layer>
		<layer id="232" name="conv5_1/dw/fq_weights_1/Copy/out_low5537_const" type="Const" version="opset1">
			<data element_type="f16" offset="204466" shape="1" size="2"/>
			<output>
				<port id="1" precision="FP16">
					<dim>1</dim>
				</port>
			</output>
		</layer>
		<layer id="233" name="conv5_1/dw/fq_weights_1/Copy/out_high5538_const" type="Const" version="opset1">
			<data element_type="f16" offset="662" shape="1" size="2"/>
			<output>
				<port id="1" precision="FP16">
					<dim>1</dim>
				</port>
			</output>
		</layer>
		<layer id="234" name="21842188_const" type="Const" version="opset1">
			<data element_type="f16" offset="211308" shape="360,1,1,1" size="720"/>
			<output>
				<port id="1" precision="FP16">
					<dim>360</dim>
					<dim>1</dim>
					<dim>1</dim>
					<dim>1</dim>
				</port>
			</output>
		</layer>
		<layer id="235" name="21852189_const" type="Const" version="opset1">
			<data element_type="f16" offset="212028" shape="360,1,1,1" size="720"/>
			<output>
				<port id="1" precision="FP16">
					<dim>360</dim>
					<dim>1</dim>
					<dim>1</dim>
					<dim>1</dim>
				</port>
			</output>
		</layer>
		<layer id="236" name="conv5_1/dw/fq_weights_1" type="FakeQuantize" version="opset1">
			<data levels="255"/>
			<input>
				<port id="0">
					<dim>360</dim>
					<dim>1</dim>
					<dim>3</dim>
					<dim>3</dim>
				</port>
				<port id="1">
					<dim>1</dim>
				</port>
				<port id="2">
					<dim>1</dim>
				</port>
				<port id="3">
					<dim>360</dim>
					<dim>1</dim>
					<dim>1</dim>
					<dim>1</dim>
				</port>
				<port id="4">
					<dim>360</dim>
					<dim>1</dim>
					<dim>1</dim>
					<dim>1</dim>
				</port>
			</input>
			<output>
				<port id="5" precision="FP16">
					<dim>360</dim>
					<dim>1</dim>
					<dim>3</dim>
					<dim>3</dim>
				</port>
			</output>
		</layer>
		<layer id="237" name="7348/value7350_const" type="Const" version="opset1">
			<data element_type="i64" offset="212748" shape="5" size="40"/>
			<output>
				<port id="1" precision="I64">
					<dim>5</dim>
				</port>
			</output>
		</layer>
		<layer id="238" name="7348" type="Reshape" version="opset1">
			<data special_zero="True"/>
			<input>
				<port id="0">
					<dim>360</dim>
					<dim>1</dim>
					<dim>3</dim>
					<dim>3</dim>
				</port>
				<port id="1">
					<dim>5</dim>
				</port>
			</input>
			<output>
				<port id="2" precision="FP16">
					<dim>360</dim>
					<dim>1</dim>
					<dim>1</dim>
					<dim>3</dim>
					<dim>3</dim>
				</port>
			</output>
		</layer>
		<layer id="239" name="conv5_1/dw" type="GroupConvolution" version="opset1">
			<data dilations="1,1" output_padding="0,0" pads_begin="1,1" pads_end="1,1" strides="1,1"/>
			<input>
				<port id="0">
					<dim>1</dim>
					<dim>360</dim>
					<dim>24</dim>
					<dim>42</dim>
				</port>
				<port id="1">
					<dim>360</dim>
					<dim>1</dim>
					<dim>1</dim>
					<dim>3</dim>
					<dim>3</dim>
				</port>
			</input>
			<output>
				<port id="2" precision="FP16">
					<dim>1</dim>
					<dim>360</dim>
					<dim>24</dim>
					<dim>42</dim>
				</port>
			</output>
		</layer>
		<layer id="240" name="data_add_1288012885/copy_const579_const" type="Const" version="opset1">
			<data element_type="f16" offset="212788" shape="1,360,1,1" size="720"/>
			<output>
				<port id="1" precision="FP16">
					<dim>1</dim>
					<dim>360</dim>
					<dim>1</dim>
					<dim>1</dim>
				</port>
			</output>
		</layer>
		<layer id="241" name="conv5_1/dw/bn/variance/Fused_Add_" type="Add" version="opset1">
			<input>
				<port id="0">
					<dim>1</dim>
					<dim>360</dim>
					<dim>24</dim>
					<dim>42</dim>
				</port>
				<port id="1">
					<dim>1</dim>
					<dim>360</dim>
					<dim>1</dim>
					<dim>1</dim>
				</port>
			</input>
			<output>
				<port id="2" precision="FP16">
					<dim>1</dim>
					<dim>360</dim>
					<dim>24</dim>
					<dim>42</dim>
				</port>
			</output>
		</layer>
		<layer id="242" name="relu5_1/dw" type="ReLU" version="opset1">
			<input>
				<port id="0">
					<dim>1</dim>
					<dim>360</dim>
					<dim>24</dim>
					<dim>42</dim>
				</port>
			</input>
			<output>
				<port id="1" precision="FP16">
					<dim>1</dim>
					<dim>360</dim>
					<dim>24</dim>
					<dim>42</dim>
				</port>
			</output>
		</layer>
		<layer id="243" name="25122516_const" type="Const" version="opset1">
			<data element_type="f16" offset="213508" shape="" size="2"/>
			<output>
				<port id="1" precision="FP16"/>
			</output>
		</layer>
		<layer id="244" name="25132517_const" type="Const" version="opset1">
			<data element_type="f16" offset="213510" shape="" size="2"/>
			<output>
				<port id="1" precision="FP16"/>
			</output>
		</layer>
		<layer id="245" name="25142518_const" type="Const" version="opset1">
			<data element_type="f16" offset="213508" shape="" size="2"/>
			<output>
				<port id="1" precision="FP16"/>
			</output>
		</layer>
		<layer id="246" name="25152519_const" type="Const" version="opset1">
			<data element_type="f16" offset="213510" shape="" size="2"/>
			<output>
				<port id="1" precision="FP16"/>
			</output>
		</layer>
		<layer id="247" name="conv5_1/sep/fq_input_0" type="FakeQuantize" version="opset1">
			<data levels="256"/>
			<input>
				<port id="0">
					<dim>1</dim>
					<dim>360</dim>
					<dim>24</dim>
					<dim>42</dim>
				</port>
				<port id="1"/>
				<port id="2"/>
				<port id="3"/>
				<port id="4"/>
			</input>
			<output>
				<port id="5" precision="FP16">
					<dim>1</dim>
					<dim>360</dim>
					<dim>24</dim>
					<dim>42</dim>
				</port>
			</output>
		</layer>
		<layer id="248" name="conv5_1/sep/fq_weights_1/Convert_to_float/Cast_06568_const" type="Const" version="opset1">
			<data element_type="u8" offset="213512" shape="328,360,1,1" size="118080"/>
			<output>
				<port id="1" precision="U8">
					<dim>328</dim>
					<dim>360</dim>
					<dim>1</dim>
					<dim>1</dim>
				</port>
			</output>
		</layer>
		<layer id="249" name="conv5_1/sep/fq_weights_1/Convert_to_float" type="Convert" version="opset1">
			<data destination_type="f16"/>
			<input>
				<port id="0">
					<dim>328</dim>
					<dim>360</dim>
					<dim>1</dim>
					<dim>1</dim>
				</port>
			</input>
			<output>
				<port id="1" precision="FP16">
					<dim>328</dim>
					<dim>360</dim>
					<dim>1</dim>
					<dim>1</dim>
				</port>
			</output>
		</layer>
		<layer id="250" name="conv5_1/sep/fq_weights_1/Copy/out_low5545_const" type="Const" version="opset1">
			<data element_type="f16" offset="331592" shape="1" size="2"/>
			<output>
				<port id="1" precision="FP16">
					<dim>1</dim>
				</port>
			</output>
		</layer>
		<layer id="251" name="conv5_1/sep/fq_weights_1/Copy/out_high5546_const" type="Const" version="opset1">
			<data element_type="f16" offset="662" shape="1" size="2"/>
			<output>
				<port id="1" precision="FP16">
					<dim>1</dim>
				</port>
			</output>
		</layer>
		<layer id="252" name="25242528_const" type="Const" version="opset1">
			<data element_type="f16" offset="331594" shape="328,1,1,1" size="656"/>
			<output>
				<port id="1" precision="FP16">
					<dim>328</dim>
					<dim>1</dim>
					<dim>1</dim>
					<dim>1</dim>
				</port>
			</output>
		</layer>
		<layer id="253" name="25252529_const" type="Const" version="opset1">
			<data element_type="f16" offset="332250" shape="328,1,1,1" size="656"/>
			<output>
				<port id="1" precision="FP16">
					<dim>328</dim>
					<dim>1</dim>
					<dim>1</dim>
					<dim>1</dim>
				</port>
			</output>
		</layer>
		<layer id="254" name="conv5_1/sep/fq_weights_1" type="FakeQuantize" version="opset1">
			<data levels="255"/>
			<input>
				<port id="0">
					<dim>328</dim>
					<dim>360</dim>
					<dim>1</dim>
					<dim>1</dim>
				</port>
				<port id="1">
					<dim>1</dim>
				</port>
				<port id="2">
					<dim>1</dim>
				</port>
				<port id="3">
					<dim>328</dim>
					<dim>1</dim>
					<dim>1</dim>
					<dim>1</dim>
				</port>
				<port id="4">
					<dim>328</dim>
					<dim>1</dim>
					<dim>1</dim>
					<dim>1</dim>
				</port>
			</input>
			<output>
				<port id="5" precision="FP16">
					<dim>328</dim>
					<dim>360</dim>
					<dim>1</dim>
					<dim>1</dim>
				</port>
			</output>
		</layer>
		<layer id="255" name="conv5_1/sep" type="Convolution" version="opset1">
			<data dilations="1,1" output_padding="0,0" pads_begin="0,0" pads_end="0,0" strides="1,1"/>
			<input>
				<port id="0">
					<dim>1</dim>
					<dim>360</dim>
					<dim>24</dim>
					<dim>42</dim>
				</port>
				<port id="1">
					<dim>328</dim>
					<dim>360</dim>
					<dim>1</dim>
					<dim>1</dim>
				</port>
			</input>
			<output>
				<port id="2" precision="FP16">
					<dim>1</dim>
					<dim>328</dim>
					<dim>24</dim>
					<dim>42</dim>
				</port>
			</output>
		</layer>
		<layer id="256" name="data_add_1288812893/copy_const584_const" type="Const" version="opset1">
			<data element_type="f16" offset="332906" shape="1,328,1,1" size="656"/>
			<output>
				<port id="1" precision="FP16">
					<dim>1</dim>
					<dim>328</dim>
					<dim>1</dim>
					<dim>1</dim>
				</port>
			</output>
		</layer>
		<layer id="257" name="conv5_1/sep/bn/variance/Fused_Add_" type="Add" version="opset1">
			<input>
				<port id="0">
					<dim>1</dim>
					<dim>328</dim>
					<dim>24</dim>
					<dim>42</dim>
				</port>
				<port id="1">
					<dim>1</dim>
					<dim>328</dim>
					<dim>1</dim>
					<dim>1</dim>
				</port>
			</input>
			<output>
				<port id="2" precision="FP16">
					<dim>1</dim>
					<dim>328</dim>
					<dim>24</dim>
					<dim>42</dim>
				</port>
			</output>
		</layer>
		<layer id="258" name="relu5_1/sep" type="ReLU" version="opset1">
			<input>
				<port id="0">
					<dim>1</dim>
					<dim>328</dim>
					<dim>24</dim>
					<dim>42</dim>
				</port>
			</input>
			<output>
				<port id="1" precision="FP16">
					<dim>1</dim>
					<dim>328</dim>
					<dim>24</dim>
					<dim>42</dim>
				</port>
			</output>
		</layer>
		<layer id="259" name="28922896_const" type="Const" version="opset1">
			<data element_type="f16" offset="333562" shape="1,328,1,1" size="656"/>
			<output>
				<port id="1" precision="FP16">
					<dim>1</dim>
					<dim>328</dim>
					<dim>1</dim>
					<dim>1</dim>
				</port>
			</output>
		</layer>
		<layer id="260" name="28932897_const" type="Const" version="opset1">
			<data element_type="f16" offset="334218" shape="1,328,1,1" size="656"/>
			<output>
				<port id="1" precision="FP16">
					<dim>1</dim>
					<dim>328</dim>
					<dim>1</dim>
					<dim>1</dim>
				</port>
			</output>
		</layer>
		<layer id="261" name="28942898_const" type="Const" version="opset1">
			<data element_type="f16" offset="333562" shape="1,328,1,1" size="656"/>
			<output>
				<port id="1" precision="FP16">
					<dim>1</dim>
					<dim>328</dim>
					<dim>1</dim>
					<dim>1</dim>
				</port>
			</output>
		</layer>
		<layer id="262" name="28952899_const" type="Const" version="opset1">
			<data element_type="f16" offset="334218" shape="1,328,1,1" size="656"/>
			<output>
				<port id="1" precision="FP16">
					<dim>1</dim>
					<dim>328</dim>
					<dim>1</dim>
					<dim>1</dim>
				</port>
			</output>
		</layer>
		<layer id="263" name="conv5_2/dw/fq_input_0" type="FakeQuantize" version="opset1">
			<data levels="256"/>
			<input>
				<port id="0">
					<dim>1</dim>
					<dim>328</dim>
					<dim>24</dim>
					<dim>42</dim>
				</port>
				<port id="1">
					<dim>1</dim>
					<dim>328</dim>
					<dim>1</dim>
					<dim>1</dim>
				</port>
				<port id="2">
					<dim>1</dim>
					<dim>328</dim>
					<dim>1</dim>
					<dim>1</dim>
				</port>
				<port id="3">
					<dim>1</dim>
					<dim>328</dim>
					<dim>1</dim>
					<dim>1</dim>
				</port>
				<port id="4">
					<dim>1</dim>
					<dim>328</dim>
					<dim>1</dim>
					<dim>1</dim>
				</port>
			</input>
			<output>
				<port id="5" precision="FP16">
					<dim>1</dim>
					<dim>328</dim>
					<dim>24</dim>
					<dim>42</dim>
				</port>
			</output>
		</layer>
		<layer id="264" name="conv5_2/dw/fq_weights_1/Convert_to_float/Cast_06450_const" type="Const" version="opset1">
			<data element_type="u8" offset="334874" shape="328,1,3,3" size="2952"/>
			<output>
				<port id="1" precision="U8">
					<dim>328</dim>
					<dim>1</dim>
					<dim>3</dim>
					<dim>3</dim>
				</port>
			</output>
		</layer>
		<layer id="265" name="conv5_2/dw/fq_weights_1/Convert_to_float" type="Convert" version="opset1">
			<data destination_type="f16"/>
			<input>
				<port id="0">
					<dim>328</dim>
					<dim>1</dim>
					<dim>3</dim>
					<dim>3</dim>
				</port>
			</input>
			<output>
				<port id="1" precision="FP16">
					<dim>328</dim>
					<dim>1</dim>
					<dim>3</dim>
					<dim>3</dim>
				</port>
			</output>
		</layer>
		<layer id="266" name="conv5_2/dw/fq_weights_1/Copy/out_low5425_const" type="Const" version="opset1">
			<data element_type="f16" offset="331592" shape="1" size="2"/>
			<output>
				<port id="1" precision="FP16">
					<dim>1</dim>
				</port>
			</output>
		</layer>
		<layer id="267" name="conv5_2/dw/fq_weights_1/Copy/out_high5426_const" type="Const" version="opset1">
			<data element_type="f16" offset="662" shape="1" size="2"/>
			<output>
				<port id="1" precision="FP16">
					<dim>1</dim>
				</port>
			</output>
		</layer>
		<layer id="268" name="29042908_const" type="Const" version="opset1">
			<data element_type="f16" offset="337826" shape="328,1,1,1" size="656"/>
			<output>
				<port id="1" precision="FP16">
					<dim>328</dim>
					<dim>1</dim>
					<dim>1</dim>
					<dim>1</dim>
				</port>
			</output>
		</layer>
		<layer id="269" name="29052909_const" type="Const" version="opset1">
			<data element_type="f16" offset="338482" shape="328,1,1,1" size="656"/>
			<output>
				<port id="1" precision="FP16">
					<dim>328</dim>
					<dim>1</dim>
					<dim>1</dim>
					<dim>1</dim>
				</port>
			</output>
		</layer>
		<layer id="270" name="conv5_2/dw/fq_weights_1" type="FakeQuantize" version="opset1">
			<data levels="255"/>
			<input>
				<port id="0">
					<dim>328</dim>
					<dim>1</dim>
					<dim>3</dim>
					<dim>3</dim>
				</port>
				<port id="1">
					<dim>1</dim>
				</port>
				<port id="2">
					<dim>1</dim>
				</port>
				<port id="3">
					<dim>328</dim>
					<dim>1</dim>
					<dim>1</dim>
					<dim>1</dim>
				</port>
				<port id="4">
					<dim>328</dim>
					<dim>1</dim>
					<dim>1</dim>
					<dim>1</dim>
				</port>
			</input>
			<output>
				<port id="5" precision="FP16">
					<dim>328</dim>
					<dim>1</dim>
					<dim>3</dim>
					<dim>3</dim>
				</port>
			</output>
		</layer>
		<layer id="271" name="7316/value7318_const" type="Const" version="opset1">
			<data element_type="i64" offset="339138" shape="5" size="40"/>
			<output>
				<port id="1" precision="I64">
					<dim>5</dim>
				</port>
			</output>
		</layer>
		<layer id="272" name="7316" type="Reshape" version="opset1">
			<data special_zero="True"/>
			<input>
				<port id="0">
					<dim>328</dim>
					<dim>1</dim>
					<dim>3</dim>
					<dim>3</dim>
				</port>
				<port id="1">
					<dim>5</dim>
				</port>
			</input>
			<output>
				<port id="2" precision="FP16">
					<dim>328</dim>
					<dim>1</dim>
					<dim>1</dim>
					<dim>3</dim>
					<dim>3</dim>
				</port>
			</output>
		</layer>
		<layer id="273" name="conv5_2/dw" type="GroupConvolution" version="opset1">
			<data dilations="1,1" output_padding="0,0" pads_begin="1,1" pads_end="1,1" strides="1,1"/>
			<input>
				<port id="0">
					<dim>1</dim>
					<dim>328</dim>
					<dim>24</dim>
					<dim>42</dim>
				</port>
				<port id="1">
					<dim>328</dim>
					<dim>1</dim>
					<dim>1</dim>
					<dim>3</dim>
					<dim>3</dim>
				</port>
			</input>
			<output>
				<port id="2" precision="FP16">
					<dim>1</dim>
					<dim>328</dim>
					<dim>24</dim>
					<dim>42</dim>
				</port>
			</output>
		</layer>
		<layer id="274" name="data_add_1289612901/copy_const589_const" type="Const" version="opset1">
			<data element_type="f16" offset="339178" shape="1,328,1,1" size="656"/>
			<output>
				<port id="1" precision="FP16">
					<dim>1</dim>
					<dim>328</dim>
					<dim>1</dim>
					<dim>1</dim>
				</port>
			</output>
		</layer>
		<layer id="275" name="conv5_2/dw/bn/variance/Fused_Add_" type="Add" version="opset1">
			<input>
				<port id="0">
					<dim>1</dim>
					<dim>328</dim>
					<dim>24</dim>
					<dim>42</dim>
				</port>
				<port id="1">
					<dim>1</dim>
					<dim>328</dim>
					<dim>1</dim>
					<dim>1</dim>
				</port>
			</input>
			<output>
				<port id="2" precision="FP16">
					<dim>1</dim>
					<dim>328</dim>
					<dim>24</dim>
					<dim>42</dim>
				</port>
			</output>
		</layer>
		<layer id="276" name="relu5_2/dw" type="ReLU" version="opset1">
			<input>
				<port id="0">
					<dim>1</dim>
					<dim>328</dim>
					<dim>24</dim>
					<dim>42</dim>
				</port>
			</input>
			<output>
				<port id="1" precision="FP16">
					<dim>1</dim>
					<dim>328</dim>
					<dim>24</dim>
					<dim>42</dim>
				</port>
			</output>
		</layer>
		<layer id="277" name="18521856_const" type="Const" version="opset1">
			<data element_type="f16" offset="339834" shape="" size="2"/>
			<output>
				<port id="1" precision="FP16"/>
			</output>
		</layer>
		<layer id="278" name="18531857_const" type="Const" version="opset1">
			<data element_type="f16" offset="339836" shape="" size="2"/>
			<output>
				<port id="1" precision="FP16"/>
			</output>
		</layer>
		<layer id="279" name="18541858_const" type="Const" version="opset1">
			<data element_type="f16" offset="339834" shape="" size="2"/>
			<output>
				<port id="1" precision="FP16"/>
			</output>
		</layer>
		<layer id="280" name="18551859_const" type="Const" version="opset1">
			<data element_type="f16" offset="339836" shape="" size="2"/>
			<output>
				<port id="1" precision="FP16"/>
			</output>
		</layer>
		<layer id="281" name="conv5_2/sep/fq_input_0" type="FakeQuantize" version="opset1">
			<data levels="256"/>
			<input>
				<port id="0">
					<dim>1</dim>
					<dim>328</dim>
					<dim>24</dim>
					<dim>42</dim>
				</port>
				<port id="1"/>
				<port id="2"/>
				<port id="3"/>
				<port id="4"/>
			</input>
			<output>
				<port id="5" precision="FP16">
					<dim>1</dim>
					<dim>328</dim>
					<dim>24</dim>
					<dim>42</dim>
				</port>
			</output>
		</layer>
		<layer id="282" name="conv5_2/sep/fq_weights_1/Convert_to_float/Cast_06454_const" type="Const" version="opset1">
			<data element_type="u8" offset="339838" shape="304,328,1,1" size="99712"/>
			<output>
				<port id="1" precision="U8">
					<dim>304</dim>
					<dim>328</dim>
					<dim>1</dim>
					<dim>1</dim>
				</port>
			</output>
		</layer>
		<layer id="283" name="conv5_2/sep/fq_weights_1/Convert_to_float" type="Convert" version="opset1">
			<data destination_type="f16"/>
			<input>
				<port id="0">
					<dim>304</dim>
					<dim>328</dim>
					<dim>1</dim>
					<dim>1</dim>
				</port>
			</input>
			<output>
				<port id="1" precision="FP16">
					<dim>304</dim>
					<dim>328</dim>
					<dim>1</dim>
					<dim>1</dim>
				</port>
			</output>
		</layer>
		<layer id="284" name="conv5_2/sep/fq_weights_1/Copy/out_low5665_const" type="Const" version="opset1">
			<data element_type="f16" offset="439550" shape="1" size="2"/>
			<output>
				<port id="1" precision="FP16">
					<dim>1</dim>
				</port>
			</output>
		</layer>
		<layer id="285" name="conv5_2/sep/fq_weights_1/Copy/out_high5666_const" type="Const" version="opset1">
			<data element_type="f16" offset="662" shape="1" size="2"/>
			<output>
				<port id="1" precision="FP16">
					<dim>1</dim>
				</port>
			</output>
		</layer>
		<layer id="286" name="18641868_const" type="Const" version="opset1">
			<data element_type="f16" offset="439552" shape="304,1,1,1" size="608"/>
			<output>
				<port id="1" precision="FP16">
					<dim>304</dim>
					<dim>1</dim>
					<dim>1</dim>
					<dim>1</dim>
				</port>
			</output>
		</layer>
		<layer id="287" name="18651869_const" type="Const" version="opset1">
			<data element_type="f16" offset="440160" shape="304,1,1,1" size="608"/>
			<output>
				<port id="1" precision="FP16">
					<dim>304</dim>
					<dim>1</dim>
					<dim>1</dim>
					<dim>1</dim>
				</port>
			</output>
		</layer>
		<layer id="288" name="conv5_2/sep/fq_weights_1" type="FakeQuantize" version="opset1">
			<data levels="255"/>
			<input>
				<port id="0">
					<dim>304</dim>
					<dim>328</dim>
					<dim>1</dim>
					<dim>1</dim>
				</port>
				<port id="1">
					<dim>1</dim>
				</port>
				<port id="2">
					<dim>1</dim>
				</port>
				<port id="3">
					<dim>304</dim>
					<dim>1</dim>
					<dim>1</dim>
					<dim>1</dim>
				</port>
				<port id="4">
					<dim>304</dim>
					<dim>1</dim>
					<dim>1</dim>
					<dim>1</dim>
				</port>
			</input>
			<output>
				<port id="5" precision="FP16">
					<dim>304</dim>
					<dim>328</dim>
					<dim>1</dim>
					<dim>1</dim>
				</port>
			</output>
		</layer>
		<layer id="289" name="conv5_2/sep" type="Convolution" version="opset1">
			<data dilations="1,1" output_padding="0,0" pads_begin="0,0" pads_end="0,0" strides="1,1"/>
			<input>
				<port id="0">
					<dim>1</dim>
					<dim>328</dim>
					<dim>24</dim>
					<dim>42</dim>
				</port>
				<port id="1">
					<dim>304</dim>
					<dim>328</dim>
					<dim>1</dim>
					<dim>1</dim>
				</port>
			</input>
			<output>
				<port id="2" precision="FP16">
					<dim>1</dim>
					<dim>304</dim>
					<dim>24</dim>
					<dim>42</dim>
				</port>
			</output>
		</layer>
		<layer id="290" name="data_add_1290412909/copy_const594_const" type="Const" version="opset1">
			<data element_type="f16" offset="440768" shape="1,304,1,1" size="608"/>
			<output>
				<port id="1" precision="FP16">
					<dim>1</dim>
					<dim>304</dim>
					<dim>1</dim>
					<dim>1</dim>
				</port>
			</output>
		</layer>
		<layer id="291" name="conv5_2/sep/bn/variance/Fused_Add_" type="Add" version="opset1">
			<input>
				<port id="0">
					<dim>1</dim>
					<dim>304</dim>
					<dim>24</dim>
					<dim>42</dim>
				</port>
				<port id="1">
					<dim>1</dim>
					<dim>304</dim>
					<dim>1</dim>
					<dim>1</dim>
				</port>
			</input>
			<output>
				<port id="2" precision="FP16">
					<dim>1</dim>
					<dim>304</dim>
					<dim>24</dim>
					<dim>42</dim>
				</port>
			</output>
		</layer>
		<layer id="292" name="relu5_2/sep" type="ReLU" version="opset1">
			<input>
				<port id="0">
					<dim>1</dim>
					<dim>304</dim>
					<dim>24</dim>
					<dim>42</dim>
				</port>
			</input>
			<output>
				<port id="1" precision="FP16">
					<dim>1</dim>
					<dim>304</dim>
					<dim>24</dim>
					<dim>42</dim>
				</port>
			</output>
		</layer>
		<layer id="293" name="25322536_const" type="Const" version="opset1">
			<data element_type="f16" offset="441376" shape="1,304,1,1" size="608"/>
			<output>
				<port id="1" precision="FP16">
					<dim>1</dim>
					<dim>304</dim>
					<dim>1</dim>
					<dim>1</dim>
				</port>
			</output>
		</layer>
		<layer id="294" name="25332537_const" type="Const" version="opset1">
			<data element_type="f16" offset="441984" shape="1,304,1,1" size="608"/>
			<output>
				<port id="1" precision="FP16">
					<dim>1</dim>
					<dim>304</dim>
					<dim>1</dim>
					<dim>1</dim>
				</port>
			</output>
		</layer>
		<layer id="295" name="25342538_const" type="Const" version="opset1">
			<data element_type="f16" offset="441376" shape="1,304,1,1" size="608"/>
			<output>
				<port id="1" precision="FP16">
					<dim>1</dim>
					<dim>304</dim>
					<dim>1</dim>
					<dim>1</dim>
				</port>
			</output>
		</layer>
		<layer id="296" name="25352539_const" type="Const" version="opset1">
			<data element_type="f16" offset="441984" shape="1,304,1,1" size="608"/>
			<output>
				<port id="1" precision="FP16">
					<dim>1</dim>
					<dim>304</dim>
					<dim>1</dim>
					<dim>1</dim>
				</port>
			</output>
		</layer>
		<layer id="297" name="conv5_3/dw/fq_input_0" type="FakeQuantize" version="opset1">
			<data levels="256"/>
			<input>
				<port id="0">
					<dim>1</dim>
					<dim>304</dim>
					<dim>24</dim>
					<dim>42</dim>
				</port>
				<port id="1">
					<dim>1</dim>
					<dim>304</dim>
					<dim>1</dim>
					<dim>1</dim>
				</port>
				<port id="2">
					<dim>1</dim>
					<dim>304</dim>
					<dim>1</dim>
					<dim>1</dim>
				</port>
				<port id="3">
					<dim>1</dim>
					<dim>304</dim>
					<dim>1</dim>
					<dim>1</dim>
				</port>
				<port id="4">
					<dim>1</dim>
					<dim>304</dim>
					<dim>1</dim>
					<dim>1</dim>
				</port>
			</input>
			<output>
				<port id="5" precision="FP16">
					<dim>1</dim>
					<dim>304</dim>
					<dim>24</dim>
					<dim>42</dim>
				</port>
			</output>
		</layer>
		<layer id="298" name="conv5_3/dw/fq_weights_1/Convert_to_float/Cast_06430_const" type="Const" version="opset1">
			<data element_type="u8" offset="442592" shape="304,1,3,3" size="2736"/>
			<output>
				<port id="1" precision="U8">
					<dim>304</dim>
					<dim>1</dim>
					<dim>3</dim>
					<dim>3</dim>
				</port>
			</output>
		</layer>
		<layer id="299" name="conv5_3/dw/fq_weights_1/Convert_to_float" type="Convert" version="opset1">
			<data destination_type="f16"/>
			<input>
				<port id="0">
					<dim>304</dim>
					<dim>1</dim>
					<dim>3</dim>
					<dim>3</dim>
				</port>
			</input>
			<output>
				<port id="1" precision="FP16">
					<dim>304</dim>
					<dim>1</dim>
					<dim>3</dim>
					<dim>3</dim>
				</port>
			</output>
		</layer>
		<layer id="300" name="conv5_3/dw/fq_weights_1/Copy/out_low5233_const" type="Const" version="opset1">
			<data element_type="f16" offset="439550" shape="1" size="2"/>
			<output>
				<port id="1" precision="FP16">
					<dim>1</dim>
				</port>
			</output>
		</layer>
		<layer id="301" name="conv5_3/dw/fq_weights_1/Copy/out_high5234_const" type="Const" version="opset1">
			<data element_type="f16" offset="662" shape="1" size="2"/>
			<output>
				<port id="1" precision="FP16">
					<dim>1</dim>
				</port>
			</output>
		</layer>
		<layer id="302" name="25442548_const" type="Const" version="opset1">
			<data element_type="f16" offset="445328" shape="304,1,1,1" size="608"/>
			<output>
				<port id="1" precision="FP16">
					<dim>304</dim>
					<dim>1</dim>
					<dim>1</dim>
					<dim>1</dim>
				</port>
			</output>
		</layer>
		<layer id="303" name="25452549_const" type="Const" version="opset1">
			<data element_type="f16" offset="445936" shape="304,1,1,1" size="608"/>
			<output>
				<port id="1" precision="FP16">
					<dim>304</dim>
					<dim>1</dim>
					<dim>1</dim>
					<dim>1</dim>
				</port>
			</output>
		</layer>
		<layer id="304" name="conv5_3/dw/fq_weights_1" type="FakeQuantize" version="opset1">
			<data levels="255"/>
			<input>
				<port id="0">
					<dim>304</dim>
					<dim>1</dim>
					<dim>3</dim>
					<dim>3</dim>
				</port>
				<port id="1">
					<dim>1</dim>
				</port>
				<port id="2">
					<dim>1</dim>
				</port>
				<port id="3">
					<dim>304</dim>
					<dim>1</dim>
					<dim>1</dim>
					<dim>1</dim>
				</port>
				<port id="4">
					<dim>304</dim>
					<dim>1</dim>
					<dim>1</dim>
					<dim>1</dim>
				</port>
			</input>
			<output>
				<port id="5" precision="FP16">
					<dim>304</dim>
					<dim>1</dim>
					<dim>3</dim>
					<dim>3</dim>
				</port>
			</output>
		</layer>
		<layer id="305" name="7304/value7306_const" type="Const" version="opset1">
			<data element_type="i64" offset="446544" shape="5" size="40"/>
			<output>
				<port id="1" precision="I64">
					<dim>5</dim>
				</port>
			</output>
		</layer>
		<layer id="306" name="7304" type="Reshape" version="opset1">
			<data special_zero="True"/>
			<input>
				<port id="0">
					<dim>304</dim>
					<dim>1</dim>
					<dim>3</dim>
					<dim>3</dim>
				</port>
				<port id="1">
					<dim>5</dim>
				</port>
			</input>
			<output>
				<port id="2" precision="FP16">
					<dim>304</dim>
					<dim>1</dim>
					<dim>1</dim>
					<dim>3</dim>
					<dim>3</dim>
				</port>
			</output>
		</layer>
		<layer id="307" name="conv5_3/dw" type="GroupConvolution" version="opset1">
			<data dilations="1,1" output_padding="0,0" pads_begin="1,1" pads_end="1,1" strides="1,1"/>
			<input>
				<port id="0">
					<dim>1</dim>
					<dim>304</dim>
					<dim>24</dim>
					<dim>42</dim>
				</port>
				<port id="1">
					<dim>304</dim>
					<dim>1</dim>
					<dim>1</dim>
					<dim>3</dim>
					<dim>3</dim>
				</port>
			</input>
			<output>
				<port id="2" precision="FP16">
					<dim>1</dim>
					<dim>304</dim>
					<dim>24</dim>
					<dim>42</dim>
				</port>
			</output>
		</layer>
		<layer id="308" name="data_add_1291212917/copy_const599_const" type="Const" version="opset1">
			<data element_type="f16" offset="446584" shape="1,304,1,1" size="608"/>
			<output>
				<port id="1" precision="FP16">
					<dim>1</dim>
					<dim>304</dim>
					<dim>1</dim>
					<dim>1</dim>
				</port>
			</output>
		</layer>
		<layer id="309" name="conv5_3/dw/bn/variance/Fused_Add_" type="Add" version="opset1">
			<input>
				<port id="0">
					<dim>1</dim>
					<dim>304</dim>
					<dim>24</dim>
					<dim>42</dim>
				</port>
				<port id="1">
					<dim>1</dim>
					<dim>304</dim>
					<dim>1</dim>
					<dim>1</dim>
				</port>
			</input>
			<output>
				<port id="2" precision="FP16">
					<dim>1</dim>
					<dim>304</dim>
					<dim>24</dim>
					<dim>42</dim>
				</port>
			</output>
		</layer>
		<layer id="310" name="relu5_3/dw" type="ReLU" version="opset1">
			<input>
				<port id="0">
					<dim>1</dim>
					<dim>304</dim>
					<dim>24</dim>
					<dim>42</dim>
				</port>
			</input>
			<output>
				<port id="1" precision="FP16">
					<dim>1</dim>
					<dim>304</dim>
					<dim>24</dim>
					<dim>42</dim>
				</port>
			</output>
		</layer>
		<layer id="311" name="26122616_const" type="Const" version="opset1">
			<data element_type="f16" offset="447192" shape="" size="2"/>
			<output>
				<port id="1" precision="FP16"/>
			</output>
		</layer>
		<layer id="312" name="26132617_const" type="Const" version="opset1">
			<data element_type="f16" offset="447194" shape="" size="2"/>
			<output>
				<port id="1" precision="FP16"/>
			</output>
		</layer>
		<layer id="313" name="26142618_const" type="Const" version="opset1">
			<data element_type="f16" offset="447192" shape="" size="2"/>
			<output>
				<port id="1" precision="FP16"/>
			</output>
		</layer>
		<layer id="314" name="26152619_const" type="Const" version="opset1">
			<data element_type="f16" offset="447194" shape="" size="2"/>
			<output>
				<port id="1" precision="FP16"/>
			</output>
		</layer>
		<layer id="315" name="conv5_3/sep/fq_input_0" type="FakeQuantize" version="opset1">
			<data levels="256"/>
			<input>
				<port id="0">
					<dim>1</dim>
					<dim>304</dim>
					<dim>24</dim>
					<dim>42</dim>
				</port>
				<port id="1"/>
				<port id="2"/>
				<port id="3"/>
				<port id="4"/>
			</input>
			<output>
				<port id="5" precision="FP16">
					<dim>1</dim>
					<dim>304</dim>
					<dim>24</dim>
					<dim>42</dim>
				</port>
			</output>
		</layer>
		<layer id="316" name="conv5_3/sep/fq_weights_1/Convert_to_float/Cast_06360_const" type="Const" version="opset1">
			<data element_type="u8" offset="447196" shape="248,304,1,1" size="75392"/>
			<output>
				<port id="1" precision="U8">
					<dim>248</dim>
					<dim>304</dim>
					<dim>1</dim>
					<dim>1</dim>
				</port>
			</output>
		</layer>
		<layer id="317" name="conv5_3/sep/fq_weights_1/Convert_to_float" type="Convert" version="opset1">
			<data destination_type="f16"/>
			<input>
				<port id="0">
					<dim>248</dim>
					<dim>304</dim>
					<dim>1</dim>
					<dim>1</dim>
				</port>
			</input>
			<output>
				<port id="1" precision="FP16">
					<dim>248</dim>
					<dim>304</dim>
					<dim>1</dim>
					<dim>1</dim>
				</port>
			</output>
		</layer>
		<layer id="318" name="conv5_3/sep/fq_weights_1/Copy/out_low5377_const" type="Const" version="opset1">
			<data element_type="f16" offset="522588" shape="1" size="2"/>
			<output>
				<port id="1" precision="FP16">
					<dim>1</dim>
				</port>
			</output>
		</layer>
		<layer id="319" name="conv5_3/sep/fq_weights_1/Copy/out_high5378_const" type="Const" version="opset1">
			<data element_type="f16" offset="662" shape="1" size="2"/>
			<output>
				<port id="1" precision="FP16">
					<dim>1</dim>
				</port>
			</output>
		</layer>
		<layer id="320" name="26242628_const" type="Const" version="opset1">
			<data element_type="f16" offset="522590" shape="248,1,1,1" size="496"/>
			<output>
				<port id="1" precision="FP16">
					<dim>248</dim>
					<dim>1</dim>
					<dim>1</dim>
					<dim>1</dim>
				</port>
			</output>
		</layer>
		<layer id="321" name="26252629_const" type="Const" version="opset1">
			<data element_type="f16" offset="523086" shape="248,1,1,1" size="496"/>
			<output>
				<port id="1" precision="FP16">
					<dim>248</dim>
					<dim>1</dim>
					<dim>1</dim>
					<dim>1</dim>
				</port>
			</output>
		</layer>
		<layer id="322" name="conv5_3/sep/fq_weights_1" type="FakeQuantize" version="opset1">
			<data levels="255"/>
			<input>
				<port id="0">
					<dim>248</dim>
					<dim>304</dim>
					<dim>1</dim>
					<dim>1</dim>
				</port>
				<port id="1">
					<dim>1</dim>
				</port>
				<port id="2">
					<dim>1</dim>
				</port>
				<port id="3">
					<dim>248</dim>
					<dim>1</dim>
					<dim>1</dim>
					<dim>1</dim>
				</port>
				<port id="4">
					<dim>248</dim>
					<dim>1</dim>
					<dim>1</dim>
					<dim>1</dim>
				</port>
			</input>
			<output>
				<port id="5" precision="FP16">
					<dim>248</dim>
					<dim>304</dim>
					<dim>1</dim>
					<dim>1</dim>
				</port>
			</output>
		</layer>
		<layer id="323" name="conv5_3/sep" type="Convolution" version="opset1">
			<data dilations="1,1" output_padding="0,0" pads_begin="0,0" pads_end="0,0" strides="1,1"/>
			<input>
				<port id="0">
					<dim>1</dim>
					<dim>304</dim>
					<dim>24</dim>
					<dim>42</dim>
				</port>
				<port id="1">
					<dim>248</dim>
					<dim>304</dim>
					<dim>1</dim>
					<dim>1</dim>
				</port>
			</input>
			<output>
				<port id="2" precision="FP16">
					<dim>1</dim>
					<dim>248</dim>
					<dim>24</dim>
					<dim>42</dim>
				</port>
			</output>
		</layer>
		<layer id="324" name="data_add_1292012925/copy_const604_const" type="Const" version="opset1">
			<data element_type="f16" offset="523582" shape="1,248,1,1" size="496"/>
			<output>
				<port id="1" precision="FP16">
					<dim>1</dim>
					<dim>248</dim>
					<dim>1</dim>
					<dim>1</dim>
				</port>
			</output>
		</layer>
		<layer id="325" name="conv5_3/sep/bn/variance/Fused_Add_" type="Add" version="opset1">
			<input>
				<port id="0">
					<dim>1</dim>
					<dim>248</dim>
					<dim>24</dim>
					<dim>42</dim>
				</port>
				<port id="1">
					<dim>1</dim>
					<dim>248</dim>
					<dim>1</dim>
					<dim>1</dim>
				</port>
			</input>
			<output>
				<port id="2" precision="FP16">
					<dim>1</dim>
					<dim>248</dim>
					<dim>24</dim>
					<dim>42</dim>
				</port>
			</output>
		</layer>
		<layer id="326" name="relu5_3/sep" type="ReLU" version="opset1">
			<input>
				<port id="0">
					<dim>1</dim>
					<dim>248</dim>
					<dim>24</dim>
					<dim>42</dim>
				</port>
			</input>
			<output>
				<port id="1" precision="FP16">
					<dim>1</dim>
					<dim>248</dim>
					<dim>24</dim>
					<dim>42</dim>
				</port>
			</output>
		</layer>
		<layer id="327" name="18721876_const" type="Const" version="opset1">
			<data element_type="f16" offset="524078" shape="1,248,1,1" size="496"/>
			<output>
				<port id="1" precision="FP16">
					<dim>1</dim>
					<dim>248</dim>
					<dim>1</dim>
					<dim>1</dim>
				</port>
			</output>
		</layer>
		<layer id="328" name="18731877_const" type="Const" version="opset1">
			<data element_type="f16" offset="524574" shape="1,248,1,1" size="496"/>
			<output>
				<port id="1" precision="FP16">
					<dim>1</dim>
					<dim>248</dim>
					<dim>1</dim>
					<dim>1</dim>
				</port>
			</output>
		</layer>
		<layer id="329" name="18741878_const" type="Const" version="opset1">
			<data element_type="f16" offset="524078" shape="1,248,1,1" size="496"/>
			<output>
				<port id="1" precision="FP16">
					<dim>1</dim>
					<dim>248</dim>
					<dim>1</dim>
					<dim>1</dim>
				</port>
			</output>
		</layer>
		<layer id="330" name="18751879_const" type="Const" version="opset1">
			<data element_type="f16" offset="524574" shape="1,248,1,1" size="496"/>
			<output>
				<port id="1" precision="FP16">
					<dim>1</dim>
					<dim>248</dim>
					<dim>1</dim>
					<dim>1</dim>
				</port>
			</output>
		</layer>
		<layer id="331" name="conv5_4/dw/fq_input_0" type="FakeQuantize" version="opset1">
			<data levels="256"/>
			<input>
				<port id="0">
					<dim>1</dim>
					<dim>248</dim>
					<dim>24</dim>
					<dim>42</dim>
				</port>
				<port id="1">
					<dim>1</dim>
					<dim>248</dim>
					<dim>1</dim>
					<dim>1</dim>
				</port>
				<port id="2">
					<dim>1</dim>
					<dim>248</dim>
					<dim>1</dim>
					<dim>1</dim>
				</port>
				<port id="3">
					<dim>1</dim>
					<dim>248</dim>
					<dim>1</dim>
					<dim>1</dim>
				</port>
				<port id="4">
					<dim>1</dim>
					<dim>248</dim>
					<dim>1</dim>
					<dim>1</dim>
				</port>
			</input>
			<output>
				<port id="5" precision="FP16">
					<dim>1</dim>
					<dim>248</dim>
					<dim>24</dim>
					<dim>42</dim>
				</port>
			</output>
		</layer>
		<layer id="332" name="conv5_4/dw/fq_weights_1/Convert_to_float/Cast_06442_const" type="Const" version="opset1">
			<data element_type="u8" offset="525070" shape="248,1,3,3" size="2232"/>
			<output>
				<port id="1" precision="U8">
					<dim>248</dim>
					<dim>1</dim>
					<dim>3</dim>
					<dim>3</dim>
				</port>
			</output>
		</layer>
		<layer id="333" name="conv5_4/dw/fq_weights_1/Convert_to_float" type="Convert" version="opset1">
			<data destination_type="f16"/>
			<input>
				<port id="0">
					<dim>248</dim>
					<dim>1</dim>
					<dim>3</dim>
					<dim>3</dim>
				</port>
			</input>
			<output>
				<port id="1" precision="FP16">
					<dim>248</dim>
					<dim>1</dim>
					<dim>3</dim>
					<dim>3</dim>
				</port>
			</output>
		</layer>
		<layer id="334" name="conv5_4/dw/fq_weights_1/Copy/out_low5625_const" type="Const" version="opset1">
			<data element_type="f16" offset="522588" shape="1" size="2"/>
			<output>
				<port id="1" precision="FP16">
					<dim>1</dim>
				</port>
			</output>
		</layer>
		<layer id="335" name="conv5_4/dw/fq_weights_1/Copy/out_high5626_const" type="Const" version="opset1">
			<data element_type="f16" offset="662" shape="1" size="2"/>
			<output>
				<port id="1" precision="FP16">
					<dim>1</dim>
				</port>
			</output>
		</layer>
		<layer id="336" name="18841888_const" type="Const" version="opset1">
			<data element_type="f16" offset="527302" shape="248,1,1,1" size="496"/>
			<output>
				<port id="1" precision="FP16">
					<dim>248</dim>
					<dim>1</dim>
					<dim>1</dim>
					<dim>1</dim>
				</port>
			</output>
		</layer>
		<layer id="337" name="18851889_const" type="Const" version="opset1">
			<data element_type="f16" offset="527798" shape="248,1,1,1" size="496"/>
			<output>
				<port id="1" precision="FP16">
					<dim>248</dim>
					<dim>1</dim>
					<dim>1</dim>
					<dim>1</dim>
				</port>
			</output>
		</layer>
		<layer id="338" name="conv5_4/dw/fq_weights_1" type="FakeQuantize" version="opset1">
			<data levels="255"/>
			<input>
				<port id="0">
					<dim>248</dim>
					<dim>1</dim>
					<dim>3</dim>
					<dim>3</dim>
				</port>
				<port id="1">
					<dim>1</dim>
				</port>
				<port id="2">
					<dim>1</dim>
				</port>
				<port id="3">
					<dim>248</dim>
					<dim>1</dim>
					<dim>1</dim>
					<dim>1</dim>
				</port>
				<port id="4">
					<dim>248</dim>
					<dim>1</dim>
					<dim>1</dim>
					<dim>1</dim>
				</port>
			</input>
			<output>
				<port id="5" precision="FP16">
					<dim>248</dim>
					<dim>1</dim>
					<dim>3</dim>
					<dim>3</dim>
				</port>
			</output>
		</layer>
		<layer id="339" name="7312/value7314_const" type="Const" version="opset1">
			<data element_type="i64" offset="528294" shape="5" size="40"/>
			<output>
				<port id="1" precision="I64">
					<dim>5</dim>
				</port>
			</output>
		</layer>
		<layer id="340" name="7312" type="Reshape" version="opset1">
			<data special_zero="True"/>
			<input>
				<port id="0">
					<dim>248</dim>
					<dim>1</dim>
					<dim>3</dim>
					<dim>3</dim>
				</port>
				<port id="1">
					<dim>5</dim>
				</port>
			</input>
			<output>
				<port id="2" precision="FP16">
					<dim>248</dim>
					<dim>1</dim>
					<dim>1</dim>
					<dim>3</dim>
					<dim>3</dim>
				</port>
			</output>
		</layer>
		<layer id="341" name="conv5_4/dw" type="GroupConvolution" version="opset1">
			<data dilations="1,1" output_padding="0,0" pads_begin="1,1" pads_end="1,1" strides="1,1"/>
			<input>
				<port id="0">
					<dim>1</dim>
					<dim>248</dim>
					<dim>24</dim>
					<dim>42</dim>
				</port>
				<port id="1">
					<dim>248</dim>
					<dim>1</dim>
					<dim>1</dim>
					<dim>3</dim>
					<dim>3</dim>
				</port>
			</input>
			<output>
				<port id="2" precision="FP16">
					<dim>1</dim>
					<dim>248</dim>
					<dim>24</dim>
					<dim>42</dim>
				</port>
			</output>
		</layer>
		<layer id="342" name="data_add_1292812933/copy_const609_const" type="Const" version="opset1">
			<data element_type="f16" offset="528334" shape="1,248,1,1" size="496"/>
			<output>
				<port id="1" precision="FP16">
					<dim>1</dim>
					<dim>248</dim>
					<dim>1</dim>
					<dim>1</dim>
				</port>
			</output>
		</layer>
		<layer id="343" name="conv5_4/dw/bn/variance/Fused_Add_" type="Add" version="opset1">
			<input>
				<port id="0">
					<dim>1</dim>
					<dim>248</dim>
					<dim>24</dim>
					<dim>42</dim>
				</port>
				<port id="1">
					<dim>1</dim>
					<dim>248</dim>
					<dim>1</dim>
					<dim>1</dim>
				</port>
			</input>
			<output>
				<port id="2" precision="FP16">
					<dim>1</dim>
					<dim>248</dim>
					<dim>24</dim>
					<dim>42</dim>
				</port>
			</output>
		</layer>
		<layer id="344" name="relu5_4/dw" type="ReLU" version="opset1">
			<input>
				<port id="0">
					<dim>1</dim>
					<dim>248</dim>
					<dim>24</dim>
					<dim>42</dim>
				</port>
			</input>
			<output>
				<port id="1" precision="FP16">
					<dim>1</dim>
					<dim>248</dim>
					<dim>24</dim>
					<dim>42</dim>
				</port>
			</output>
		</layer>
		<layer id="345" name="17321736_const" type="Const" version="opset1">
			<data element_type="f16" offset="528830" shape="" size="2"/>
			<output>
				<port id="1" precision="FP16"/>
			</output>
		</layer>
		<layer id="346" name="17331737_const" type="Const" version="opset1">
			<data element_type="f16" offset="528832" shape="" size="2"/>
			<output>
				<port id="1" precision="FP16"/>
			</output>
		</layer>
		<layer id="347" name="17341738_const" type="Const" version="opset1">
			<data element_type="f16" offset="528830" shape="" size="2"/>
			<output>
				<port id="1" precision="FP16"/>
			</output>
		</layer>
		<layer id="348" name="17351739_const" type="Const" version="opset1">
			<data element_type="f16" offset="528832" shape="" size="2"/>
			<output>
				<port id="1" precision="FP16"/>
			</output>
		</layer>
		<layer id="349" name="conv5_4/sep/fq_input_0" type="FakeQuantize" version="opset1">
			<data levels="256"/>
			<input>
				<port id="0">
					<dim>1</dim>
					<dim>248</dim>
					<dim>24</dim>
					<dim>42</dim>
				</port>
				<port id="1"/>
				<port id="2"/>
				<port id="3"/>
				<port id="4"/>
			</input>
			<output>
				<port id="5" precision="FP16">
					<dim>1</dim>
					<dim>248</dim>
					<dim>24</dim>
					<dim>42</dim>
				</port>
			</output>
		</layer>
		<layer id="350" name="conv5_4/sep/fq_weights_1/Convert_to_float/Cast_06452_const" type="Const" version="opset1">
			<data element_type="u8" offset="528834" shape="224,248,1,1" size="55552"/>
			<output>
				<port id="1" precision="U8">
					<dim>224</dim>
					<dim>248</dim>
					<dim>1</dim>
					<dim>1</dim>
				</port>
			</output>
		</layer>
		<layer id="351" name="conv5_4/sep/fq_weights_1/Convert_to_float" type="Convert" version="opset1">
			<data destination_type="f16"/>
			<input>
				<port id="0">
					<dim>224</dim>
					<dim>248</dim>
					<dim>1</dim>
					<dim>1</dim>
				</port>
			</input>
			<output>
				<port id="1" precision="FP16">
					<dim>224</dim>
					<dim>248</dim>
					<dim>1</dim>
					<dim>1</dim>
				</port>
			</output>
		</layer>
		<layer id="352" name="conv5_4/sep/fq_weights_1/Copy/out_low5361_const" type="Const" version="opset1">
			<data element_type="f16" offset="584386" shape="1" size="2"/>
			<output>
				<port id="1" precision="FP16">
					<dim>1</dim>
				</port>
			</output>
		</layer>
		<layer id="353" name="conv5_4/sep/fq_weights_1/Copy/out_high5362_const" type="Const" version="opset1">
			<data element_type="f16" offset="662" shape="1" size="2"/>
			<output>
				<port id="1" precision="FP16">
					<dim>1</dim>
				</port>
			</output>
		</layer>
		<layer id="354" name="17441748_const" type="Const" version="opset1">
			<data element_type="f16" offset="584388" shape="224,1,1,1" size="448"/>
			<output>
				<port id="1" precision="FP16">
					<dim>224</dim>
					<dim>1</dim>
					<dim>1</dim>
					<dim>1</dim>
				</port>
			</output>
		</layer>
		<layer id="355" name="17451749_const" type="Const" version="opset1">
			<data element_type="f16" offset="584836" shape="224,1,1,1" size="448"/>
			<output>
				<port id="1" precision="FP16">
					<dim>224</dim>
					<dim>1</dim>
					<dim>1</dim>
					<dim>1</dim>
				</port>
			</output>
		</layer>
		<layer id="356" name="conv5_4/sep/fq_weights_1" type="FakeQuantize" version="opset1">
			<data levels="255"/>
			<input>
				<port id="0">
					<dim>224</dim>
					<dim>248</dim>
					<dim>1</dim>
					<dim>1</dim>
				</port>
				<port id="1">
					<dim>1</dim>
				</port>
				<port id="2">
					<dim>1</dim>
				</port>
				<port id="3">
					<dim>224</dim>
					<dim>1</dim>
					<dim>1</dim>
					<dim>1</dim>
				</port>
				<port id="4">
					<dim>224</dim>
					<dim>1</dim>
					<dim>1</dim>
					<dim>1</dim>
				</port>
			</input>
			<output>
				<port id="5" precision="FP16">
					<dim>224</dim>
					<dim>248</dim>
					<dim>1</dim>
					<dim>1</dim>
				</port>
			</output>
		</layer>
		<layer id="357" name="conv5_4/sep" type="Convolution" version="opset1">
			<data dilations="1,1" output_padding="0,0" pads_begin="0,0" pads_end="0,0" strides="1,1"/>
			<input>
				<port id="0">
					<dim>1</dim>
					<dim>248</dim>
					<dim>24</dim>
					<dim>42</dim>
				</port>
				<port id="1">
					<dim>224</dim>
					<dim>248</dim>
					<dim>1</dim>
					<dim>1</dim>
				</port>
			</input>
			<output>
				<port id="2" precision="FP16">
					<dim>1</dim>
					<dim>224</dim>
					<dim>24</dim>
					<dim>42</dim>
				</port>
			</output>
		</layer>
		<layer id="358" name="data_add_1293612941/copy_const614_const" type="Const" version="opset1">
			<data element_type="f16" offset="585284" shape="1,224,1,1" size="448"/>
			<output>
				<port id="1" precision="FP16">
					<dim>1</dim>
					<dim>224</dim>
					<dim>1</dim>
					<dim>1</dim>
				</port>
			</output>
		</layer>
		<layer id="359" name="conv5_4/sep/bn/variance/Fused_Add_" type="Add" version="opset1">
			<input>
				<port id="0">
					<dim>1</dim>
					<dim>224</dim>
					<dim>24</dim>
					<dim>42</dim>
				</port>
				<port id="1">
					<dim>1</dim>
					<dim>224</dim>
					<dim>1</dim>
					<dim>1</dim>
				</port>
			</input>
			<output>
				<port id="2" precision="FP16">
					<dim>1</dim>
					<dim>224</dim>
					<dim>24</dim>
					<dim>42</dim>
				</port>
			</output>
		</layer>
		<layer id="360" name="relu5_4/sep" type="ReLU" version="opset1">
			<input>
				<port id="0">
					<dim>1</dim>
					<dim>224</dim>
					<dim>24</dim>
					<dim>42</dim>
				</port>
			</input>
			<output>
				<port id="1" precision="FP16">
					<dim>1</dim>
					<dim>224</dim>
					<dim>24</dim>
					<dim>42</dim>
				</port>
			</output>
		</layer>
		<layer id="361" name="17521756_const" type="Const" version="opset1">
			<data element_type="f16" offset="585732" shape="1,224,1,1" size="448"/>
			<output>
				<port id="1" precision="FP16">
					<dim>1</dim>
					<dim>224</dim>
					<dim>1</dim>
					<dim>1</dim>
				</port>
			</output>
		</layer>
		<layer id="362" name="17531757_const" type="Const" version="opset1">
			<data element_type="f16" offset="586180" shape="1,224,1,1" size="448"/>
			<output>
				<port id="1" precision="FP16">
					<dim>1</dim>
					<dim>224</dim>
					<dim>1</dim>
					<dim>1</dim>
				</port>
			</output>
		</layer>
		<layer id="363" name="17541758_const" type="Const" version="opset1">
			<data element_type="f16" offset="585732" shape="1,224,1,1" size="448"/>
			<output>
				<port id="1" precision="FP16">
					<dim>1</dim>
					<dim>224</dim>
					<dim>1</dim>
					<dim>1</dim>
				</port>
			</output>
		</layer>
		<layer id="364" name="17551759_const" type="Const" version="opset1">
			<data element_type="f16" offset="586180" shape="1,224,1,1" size="448"/>
			<output>
				<port id="1" precision="FP16">
					<dim>1</dim>
					<dim>224</dim>
					<dim>1</dim>
					<dim>1</dim>
				</port>
			</output>
		</layer>
		<layer id="365" name="conv5_5/dw/fq_input_0" type="FakeQuantize" version="opset1">
			<data levels="256"/>
			<input>
				<port id="0">
					<dim>1</dim>
					<dim>224</dim>
					<dim>24</dim>
					<dim>42</dim>
				</port>
				<port id="1">
					<dim>1</dim>
					<dim>224</dim>
					<dim>1</dim>
					<dim>1</dim>
				</port>
				<port id="2">
					<dim>1</dim>
					<dim>224</dim>
					<dim>1</dim>
					<dim>1</dim>
				</port>
				<port id="3">
					<dim>1</dim>
					<dim>224</dim>
					<dim>1</dim>
					<dim>1</dim>
				</port>
				<port id="4">
					<dim>1</dim>
					<dim>224</dim>
					<dim>1</dim>
					<dim>1</dim>
				</port>
			</input>
			<output>
				<port id="5" precision="FP16">
					<dim>1</dim>
					<dim>224</dim>
					<dim>24</dim>
					<dim>42</dim>
				</port>
			</output>
		</layer>
		<layer id="366" name="conv5_5/dw/fq_weights_1/Convert_to_float/Cast_06458_const" type="Const" version="opset1">
			<data element_type="u8" offset="586628" shape="224,1,3,3" size="2016"/>
			<output>
				<port id="1" precision="U8">
					<dim>224</dim>
					<dim>1</dim>
					<dim>3</dim>
					<dim>3</dim>
				</port>
			</output>
		</layer>
		<layer id="367" name="conv5_5/dw/fq_weights_1/Convert_to_float" type="Convert" version="opset1">
			<data destination_type="f16"/>
			<input>
				<port id="0">
					<dim>224</dim>
					<dim>1</dim>
					<dim>3</dim>
					<dim>3</dim>
				</port>
			</input>
			<output>
				<port id="1" precision="FP16">
					<dim>224</dim>
					<dim>1</dim>
					<dim>3</dim>
					<dim>3</dim>
				</port>
			</output>
		</layer>
		<layer id="368" name="conv5_5/dw/fq_weights_1/Copy/out_low5513_const" type="Const" version="opset1">
			<data element_type="f16" offset="584386" shape="1" size="2"/>
			<output>
				<port id="1" precision="FP16">
					<dim>1</dim>
				</port>
			</output>
		</layer>
		<layer id="369" name="conv5_5/dw/fq_weights_1/Copy/out_high5514_const" type="Const" version="opset1">
			<data element_type="f16" offset="662" shape="1" size="2"/>
			<output>
				<port id="1" precision="FP16">
					<dim>1</dim>
				</port>
			</output>
		</layer>
		<layer id="370" name="17641768_const" type="Const" version="opset1">
			<data element_type="f16" offset="588644" shape="224,1,1,1" size="448"/>
			<output>
				<port id="1" precision="FP16">
					<dim>224</dim>
					<dim>1</dim>
					<dim>1</dim>
					<dim>1</dim>
				</port>
			</output>
		</layer>
		<layer id="371" name="17651769_const" type="Const" version="opset1">
			<data element_type="f16" offset="589092" shape="224,1,1,1" size="448"/>
			<output>
				<port id="1" precision="FP16">
					<dim>224</dim>
					<dim>1</dim>
					<dim>1</dim>
					<dim>1</dim>
				</port>
			</output>
		</layer>
		<layer id="372" name="conv5_5/dw/fq_weights_1" type="FakeQuantize" version="opset1">
			<data levels="255"/>
			<input>
				<port id="0">
					<dim>224</dim>
					<dim>1</dim>
					<dim>3</dim>
					<dim>3</dim>
				</port>
				<port id="1">
					<dim>1</dim>
				</port>
				<port id="2">
					<dim>1</dim>
				</port>
				<port id="3">
					<dim>224</dim>
					<dim>1</dim>
					<dim>1</dim>
					<dim>1</dim>
				</port>
				<port id="4">
					<dim>224</dim>
					<dim>1</dim>
					<dim>1</dim>
					<dim>1</dim>
				</port>
			</input>
			<output>
				<port id="5" precision="FP16">
					<dim>224</dim>
					<dim>1</dim>
					<dim>3</dim>
					<dim>3</dim>
				</port>
			</output>
		</layer>
		<layer id="373" name="7328/value7330_const" type="Const" version="opset1">
			<data element_type="i64" offset="589540" shape="5" size="40"/>
			<output>
				<port id="1" precision="I64">
					<dim>5</dim>
				</port>
			</output>
		</layer>
		<layer id="374" name="7328" type="Reshape" version="opset1">
			<data special_zero="True"/>
			<input>
				<port id="0">
					<dim>224</dim>
					<dim>1</dim>
					<dim>3</dim>
					<dim>3</dim>
				</port>
				<port id="1">
					<dim>5</dim>
				</port>
			</input>
			<output>
				<port id="2" precision="FP16">
					<dim>224</dim>
					<dim>1</dim>
					<dim>1</dim>
					<dim>3</dim>
					<dim>3</dim>
				</port>
			</output>
		</layer>
		<layer id="375" name="conv5_5/dw" type="GroupConvolution" version="opset1">
			<data dilations="1,1" output_padding="0,0" pads_begin="1,1" pads_end="1,1" strides="1,1"/>
			<input>
				<port id="0">
					<dim>1</dim>
					<dim>224</dim>
					<dim>24</dim>
					<dim>42</dim>
				</port>
				<port id="1">
					<dim>224</dim>
					<dim>1</dim>
					<dim>1</dim>
					<dim>3</dim>
					<dim>3</dim>
				</port>
			</input>
			<output>
				<port id="2" precision="FP16">
					<dim>1</dim>
					<dim>224</dim>
					<dim>24</dim>
					<dim>42</dim>
				</port>
			</output>
		</layer>
		<layer id="376" name="data_add_1294412949/copy_const619_const" type="Const" version="opset1">
			<data element_type="f16" offset="589580" shape="1,224,1,1" size="448"/>
			<output>
				<port id="1" precision="FP16">
					<dim>1</dim>
					<dim>224</dim>
					<dim>1</dim>
					<dim>1</dim>
				</port>
			</output>
		</layer>
		<layer id="377" name="conv5_5/dw/bn/variance/Fused_Add_" type="Add" version="opset1">
			<input>
				<port id="0">
					<dim>1</dim>
					<dim>224</dim>
					<dim>24</dim>
					<dim>42</dim>
				</port>
				<port id="1">
					<dim>1</dim>
					<dim>224</dim>
					<dim>1</dim>
					<dim>1</dim>
				</port>
			</input>
			<output>
				<port id="2" precision="FP16">
					<dim>1</dim>
					<dim>224</dim>
					<dim>24</dim>
					<dim>42</dim>
				</port>
			</output>
		</layer>
		<layer id="378" name="relu5_5/dw" type="ReLU" version="opset1">
			<input>
				<port id="0">
					<dim>1</dim>
					<dim>224</dim>
					<dim>24</dim>
					<dim>42</dim>
				</port>
			</input>
			<output>
				<port id="1" precision="FP16">
					<dim>1</dim>
					<dim>224</dim>
					<dim>24</dim>
					<dim>42</dim>
				</port>
			</output>
		</layer>
		<layer id="379" name="20722076_const" type="Const" version="opset1">
			<data element_type="f16" offset="590028" shape="" size="2"/>
			<output>
				<port id="1" precision="FP16"/>
			</output>
		</layer>
		<layer id="380" name="20732077_const" type="Const" version="opset1">
			<data element_type="f16" offset="590030" shape="" size="2"/>
			<output>
				<port id="1" precision="FP16"/>
			</output>
		</layer>
		<layer id="381" name="20742078_const" type="Const" version="opset1">
			<data element_type="f16" offset="590028" shape="" size="2"/>
			<output>
				<port id="1" precision="FP16"/>
			</output>
		</layer>
		<layer id="382" name="20752079_const" type="Const" version="opset1">
			<data element_type="f16" offset="590030" shape="" size="2"/>
			<output>
				<port id="1" precision="FP16"/>
			</output>
		</layer>
		<layer id="383" name="conv5_5/sep/fq_input_0" type="FakeQuantize" version="opset1">
			<data levels="256"/>
			<input>
				<port id="0">
					<dim>1</dim>
					<dim>224</dim>
					<dim>24</dim>
					<dim>42</dim>
				</port>
				<port id="1"/>
				<port id="2"/>
				<port id="3"/>
				<port id="4"/>
			</input>
			<output>
				<port id="5" precision="FP16">
					<dim>1</dim>
					<dim>224</dim>
					<dim>24</dim>
					<dim>42</dim>
				</port>
			</output>
		</layer>
		<layer id="384" name="conv5_5/sep/fq_weights_1/Convert_to_float/Cast_06418_const" type="Const" version="opset1">
			<data element_type="u8" offset="590032" shape="184,224,1,1" size="41216"/>
			<output>
				<port id="1" precision="U8">
					<dim>184</dim>
					<dim>224</dim>
					<dim>1</dim>
					<dim>1</dim>
				</port>
			</output>
		</layer>
		<layer id="385" name="conv5_5/sep/fq_weights_1/Convert_to_float" type="Convert" version="opset1">
			<data destination_type="f16"/>
			<input>
				<port id="0">
					<dim>184</dim>
					<dim>224</dim>
					<dim>1</dim>
					<dim>1</dim>
				</port>
			</input>
			<output>
				<port id="1" precision="FP16">
					<dim>184</dim>
					<dim>224</dim>
					<dim>1</dim>
					<dim>1</dim>
				</port>
			</output>
		</layer>
		<layer id="386" name="conv5_5/sep/fq_weights_1/Copy/out_low5649_const" type="Const" version="opset1">
			<data element_type="f16" offset="631248" shape="1" size="2"/>
			<output>
				<port id="1" precision="FP16">
					<dim>1</dim>
				</port>
			</output>
		</layer>
		<layer id="387" name="conv5_5/sep/fq_weights_1/Copy/out_high5650_const" type="Const" version="opset1">
			<data element_type="f16" offset="662" shape="1" size="2"/>
			<output>
				<port id="1" precision="FP16">
					<dim>1</dim>
				</port>
			</output>
		</layer>
		<layer id="388" name="20842088_const" type="Const" version="opset1">
			<data element_type="f16" offset="631250" shape="184,1,1,1" size="368"/>
			<output>
				<port id="1" precision="FP16">
					<dim>184</dim>
					<dim>1</dim>
					<dim>1</dim>
					<dim>1</dim>
				</port>
			</output>
		</layer>
		<layer id="389" name="20852089_const" type="Const" version="opset1">
			<data element_type="f16" offset="631618" shape="184,1,1,1" size="368"/>
			<output>
				<port id="1" precision="FP16">
					<dim>184</dim>
					<dim>1</dim>
					<dim>1</dim>
					<dim>1</dim>
				</port>
			</output>
		</layer>
		<layer id="390" name="conv5_5/sep/fq_weights_1" type="FakeQuantize" version="opset1">
			<data levels="255"/>
			<input>
				<port id="0">
					<dim>184</dim>
					<dim>224</dim>
					<dim>1</dim>
					<dim>1</dim>
				</port>
				<port id="1">
					<dim>1</dim>
				</port>
				<port id="2">
					<dim>1</dim>
				</port>
				<port id="3">
					<dim>184</dim>
					<dim>1</dim>
					<dim>1</dim>
					<dim>1</dim>
				</port>
				<port id="4">
					<dim>184</dim>
					<dim>1</dim>
					<dim>1</dim>
					<dim>1</dim>
				</port>
			</input>
			<output>
				<port id="5" precision="FP16">
					<dim>184</dim>
					<dim>224</dim>
					<dim>1</dim>
					<dim>1</dim>
				</port>
			</output>
		</layer>
		<layer id="391" name="conv5_5/sep" type="Convolution" version="opset1">
			<data dilations="1,1" output_padding="0,0" pads_begin="0,0" pads_end="0,0" strides="1,1"/>
			<input>
				<port id="0">
					<dim>1</dim>
					<dim>224</dim>
					<dim>24</dim>
					<dim>42</dim>
				</port>
				<port id="1">
					<dim>184</dim>
					<dim>224</dim>
					<dim>1</dim>
					<dim>1</dim>
				</port>
			</input>
			<output>
				<port id="2" precision="FP16">
					<dim>1</dim>
					<dim>184</dim>
					<dim>24</dim>
					<dim>42</dim>
				</port>
			</output>
		</layer>
		<layer id="392" name="data_add_1295212957/copy_const624_const" type="Const" version="opset1">
			<data element_type="f16" offset="631986" shape="1,184,1,1" size="368"/>
			<output>
				<port id="1" precision="FP16">
					<dim>1</dim>
					<dim>184</dim>
					<dim>1</dim>
					<dim>1</dim>
				</port>
			</output>
		</layer>
		<layer id="393" name="conv5_5/sep/bn/variance/Fused_Add_" type="Add" version="opset1">
			<input>
				<port id="0">
					<dim>1</dim>
					<dim>184</dim>
					<dim>24</dim>
					<dim>42</dim>
				</port>
				<port id="1">
					<dim>1</dim>
					<dim>184</dim>
					<dim>1</dim>
					<dim>1</dim>
				</port>
			</input>
			<output>
				<port id="2" precision="FP16">
					<dim>1</dim>
					<dim>184</dim>
					<dim>24</dim>
					<dim>42</dim>
				</port>
			</output>
		</layer>
		<layer id="394" name="relu5_5/sep" type="ReLU" version="opset1">
			<input>
				<port id="0">
					<dim>1</dim>
					<dim>184</dim>
					<dim>24</dim>
					<dim>42</dim>
				</port>
			</input>
			<output>
				<port id="1" precision="FP16">
					<dim>1</dim>
					<dim>184</dim>
					<dim>24</dim>
					<dim>42</dim>
				</port>
			</output>
		</layer>
		<layer id="395" name="23522356_const" type="Const" version="opset1">
			<data element_type="f16" offset="632354" shape="" size="2"/>
			<output>
				<port id="1" precision="FP16"/>
			</output>
		</layer>
		<layer id="396" name="23532357_const" type="Const" version="opset1">
			<data element_type="f16" offset="632356" shape="" size="2"/>
			<output>
				<port id="1" precision="FP16"/>
			</output>
		</layer>
		<layer id="397" name="23542358_const" type="Const" version="opset1">
			<data element_type="f16" offset="632354" shape="" size="2"/>
			<output>
				<port id="1" precision="FP16"/>
			</output>
		</layer>
		<layer id="398" name="23552359_const" type="Const" version="opset1">
			<data element_type="f16" offset="632356" shape="" size="2"/>
			<output>
				<port id="1" precision="FP16"/>
			</output>
		</layer>
		<layer id="399" name="conv4_3_0_norm_mbox_loc/WithoutBiases/fq_input_0" type="FakeQuantize" version="opset1">
			<data levels="256"/>
			<input>
				<port id="0">
					<dim>1</dim>
					<dim>184</dim>
					<dim>24</dim>
					<dim>42</dim>
				</port>
				<port id="1"/>
				<port id="2"/>
				<port id="3"/>
				<port id="4"/>
			</input>
			<output>
				<port id="5" precision="FP16">
					<dim>1</dim>
					<dim>184</dim>
					<dim>24</dim>
					<dim>42</dim>
				</port>
			</output>
		</layer>
		<layer id="400" name="conv4_3_0_norm_mbox_loc/WithoutBiases/fq_weights_1/Convert_to_float/Cast_06520_const" type="Const" version="opset1">
			<data element_type="u8" offset="632358" shape="16,184,3,3" size="26496"/>
			<output>
				<port id="1" precision="U8">
					<dim>16</dim>
					<dim>184</dim>
					<dim>3</dim>
					<dim>3</dim>
				</port>
			</output>
		</layer>
		<layer id="401" name="conv4_3_0_norm_mbox_loc/WithoutBiases/fq_weights_1/Convert_to_float" type="Convert" version="opset1">
			<data destination_type="f16"/>
			<input>
				<port id="0">
					<dim>16</dim>
					<dim>184</dim>
					<dim>3</dim>
					<dim>3</dim>
				</port>
			</input>
			<output>
				<port id="1" precision="FP16">
					<dim>16</dim>
					<dim>184</dim>
					<dim>3</dim>
					<dim>3</dim>
				</port>
			</output>
		</layer>
		<layer id="402" name="conv4_3_0_norm_mbox_loc/WithoutBiases/fq_weights_1/Copy/out_low5281_const" type="Const" version="opset1">
			<data element_type="f16" offset="658854" shape="1" size="2"/>
			<output>
				<port id="1" precision="FP16">
					<dim>1</dim>
				</port>
			</output>
		</layer>
		<layer id="403" name="conv4_3_0_norm_mbox_loc/WithoutBiases/fq_weights_1/Copy/out_high5282_const" type="Const" version="opset1">
			<data element_type="f16" offset="662" shape="1" size="2"/>
			<output>
				<port id="1" precision="FP16">
					<dim>1</dim>
				</port>
			</output>
		</layer>
		<layer id="404" name="23642368_const" type="Const" version="opset1">
			<data element_type="f16" offset="658856" shape="16,1,1,1" size="32"/>
			<output>
				<port id="1" precision="FP16">
					<dim>16</dim>
					<dim>1</dim>
					<dim>1</dim>
					<dim>1</dim>
				</port>
			</output>
		</layer>
…
		<edge from-layer="592" from-port="1" to-layer="596" to-port="1"/>
		<edge from-layer="593" from-port="1" to-layer="596" to-port="2"/>
		<edge from-layer="594" from-port="1" to-layer="596" to-port="3"/>
		<edge from-layer="595" from-port="1" to-layer="596" to-port="4"/>
		<edge from-layer="596" from-port="5" to-layer="598" to-port="0"/>
		<edge from-layer="597" from-port="1" to-layer="598" to-port="1"/>
		<edge from-layer="589" from-port="5" to-layer="599" to-port="0"/>
		<edge from-layer="598" from-port="2" to-layer="599" to-port="1"/>
		<edge from-layer="599" from-port="2" to-layer="601" to-port="0"/>
		<edge from-layer="600" from-port="1" to-layer="601" to-port="1"/>
		<edge from-layer="601" from-port="2" to-layer="602" to-port="0"/>
		<edge from-layer="602" from-port="1" to-layer="607" to-port="0"/>
		<edge from-layer="603" from-port="1" to-layer="607" to-port="1"/>
		<edge from-layer="604" from-port="1" to-layer="607" to-port="2"/>
		<edge from-layer="605" from-port="1" to-layer="607" to-port="3"/>
		<edge from-layer="606" from-port="1" to-layer="607" to-port="4"/>
		<edge from-layer="608" from-port="1" to-layer="609" to-port="0"/>
		<edge from-layer="609" from-port="1" to-layer="614" to-port="0"/>
		<edge from-layer="610" from-port="1" to-layer="614" to-port="1"/>
		<edge from-layer="611" from-port="1" to-layer="614" to-port="2"/>
		<edge from-layer="612" from-port="1" to-layer="614" to-port="3"/>
		<edge from-layer="613" from-port="1" to-layer="614" to-port="4"/>
		<edge from-layer="607" from-port="5" to-layer="615" to-port="0"/>
		<edge from-layer="614" from-port="5" to-layer="615" to-port="1"/>
		<edge from-layer="615" from-port="2" to-layer="617" to-port="0"/>
		<edge from-layer="616" from-port="1" to-layer="617" to-port="1"/>
		<edge from-layer="617" from-port="2" to-layer="618" to-port="0"/>
		<edge from-layer="618" from-port="1" to-layer="623" to-port="0"/>
		<edge from-layer="619" from-port="1" to-layer="623" to-port="1"/>
		<edge from-layer="620" from-port="1" to-layer="623" to-port="2"/>
		<edge from-layer="621" from-port="1" to-layer="623" to-port="3"/>
		<edge from-layer="622" from-port="1" to-layer="623" to-port="4"/>
		<edge from-layer="624" from-port="1" to-layer="625" to-port="0"/>
		<edge from-layer="625" from-port="1" to-layer="630" to-port="0"/>
		<edge from-layer="626" from-port="1" to-layer="630" to-port="1"/>
		<edge from-layer="627" from-port="1" to-layer="630" to-port="2"/>
		<edge from-layer="628" from-port="1" to-layer="630" to-port="3"/>
		<edge from-layer="629" from-port="1" to-layer="630" to-port="4"/>
		<edge from-layer="623" from-port="5" to-layer="631" to-port="0"/>
		<edge from-layer="630" from-port="5" to-layer="631" to-port="1"/>
		<edge from-layer="631" from-port="2" to-layer="633" to-port="0"/>
		<edge from-layer="632" from-port="1" to-layer="633" to-port="1"/>
		<edge from-layer="633" from-port="2" to-layer="635" to-port="0"/>
		<edge from-layer="634" from-port="1" to-layer="635" to-port="1"/>
		<edge from-layer="635" from-port="2" to-layer="637" to-port="0"/>
		<edge from-layer="636" from-port="1" to-layer="637" to-port="1"/>
		<edge from-layer="638" from-port="1" to-layer="639" to-port="0"/>
		<edge from-layer="639" from-port="1" to-layer="644" to-port="0"/>
		<edge from-layer="640" from-port="1" to-layer="644" to-port="1"/>
		<edge from-layer="641" from-port="1" to-layer="644" to-port="2"/>
		<edge from-layer="642" from-port="1" to-layer="644" to-port="3"/>
		<edge from-layer="643" from-port="1" to-layer="644" to-port="4"/>
		<edge from-layer="623" from-port="5" to-layer="645" to-port="0"/>
		<edge from-layer="644" from-port="5" to-layer="645" to-port="1"/>
		<edge from-layer="645" from-port="2" to-layer="647" to-port="0"/>
		<edge from-layer="646" from-port="1" to-layer="647" to-port="1"/>
		<edge from-layer="647" from-port="2" to-layer="648" to-port="0"/>
		<edge from-layer="648" from-port="1" to-layer="653" to-port="0"/>
		<edge from-layer="649" from-port="1" to-layer="653" to-port="1"/>
		<edge from-layer="650" from-port="1" to-layer="653" to-port="2"/>
		<edge from-layer="651" from-port="1" to-layer="653" to-port="3"/>
		<edge from-layer="652" from-port="1" to-layer="653" to-port="4"/>
		<edge from-layer="654" from-port="1" to-layer="655" to-port="0"/>
		<edge from-layer="655" from-port="1" to-layer="660" to-port="0"/>
		<edge from-layer="656" from-port="1" to-layer="660" to-port="1"/>
		<edge from-layer="657" from-port="1" to-layer="660" to-port="2"/>
		<edge from-layer="658" from-port="1" to-layer="660" to-port="3"/>
		<edge from-layer="659" from-port="1" to-layer="660" to-port="4"/>
		<edge from-layer="660" from-port="5" to-layer="662" to-port="0"/>
		<edge from-layer="661" from-port="1" to-layer="662" to-port="1"/>
		<edge from-layer="653" from-port="5" to-layer="663" to-port="0"/>
		<edge from-layer="662" from-port="2" to-layer="663" to-port="1"/>
		<edge from-layer="663" from-port="2" to-layer="665" to-port="0"/>
		<edge from-layer="664" from-port="1" to-layer="665" to-port="1"/>
		<edge from-layer="665" from-port="2" to-layer="666" to-port="0"/>
		<edge from-layer="666" from-port="1" to-layer="671" to-port="0"/>
		<edge from-layer="667" from-port="1" to-layer="671" to-port="1"/>
		<edge from-layer="668" from-port="1" to-layer="671" to-port="2"/>
		<edge from-layer="669" from-port="1" to-layer="671" to-port="3"/>
		<edge from-layer="670" from-port="1" to-layer="671" to-port="4"/>
		<edge from-layer="672" from-port="1" to-layer="673" to-port="0"/>
		<edge from-layer="673" from-port="1" to-layer="678" to-port="0"/>
		<edge from-layer="674" from-port="1" to-layer="678" to-port="1"/>
		<edge from-layer="675" from-port="1" to-layer="678" to-port="2"/>
		<edge from-layer="676" from-port="1" to-layer="678" to-port="3"/>
		<edge from-layer="677" from-port="1" to-layer="678" to-port="4"/>
		<edge from-layer="671" from-port="5" to-layer="679" to-port="0"/>
		<edge from-layer="678" from-port="5" to-layer="679" to-port="1"/>
		<edge from-layer="679" from-port="2" to-layer="681" to-port="0"/>
		<edge from-layer="680" from-port="1" to-layer="681" to-port="1"/>
		<edge from-layer="681" from-port="2" to-layer="682" to-port="0"/>
		<edge from-layer="682" from-port="1" to-layer="687" to-port="0"/>
		<edge from-layer="683" from-port="1" to-layer="687" to-port="1"/>
		<edge from-layer="684" from-port="1" to-layer="687" to-port="2"/>
		<edge from-layer="685" from-port="1" to-layer="687" to-port="3"/>
		<edge from-layer="686" from-port="1" to-layer="687" to-port="4"/>
		<edge from-layer="688" from-port="1" to-layer="689" to-port="0"/>
		<edge from-layer="689" from-port="1" to-layer="694" to-port="0"/>
		<edge from-layer="690" from-port="1" to-layer="694" to-port="1"/>
		<edge from-layer="691" from-port="1" to-layer="694" to-port="2"/>
		<edge from-layer="692" from-port="1" to-layer="694" to-port="3"/>
		<edge from-layer="693" from-port="1" to-layer="694" to-port="4"/>
		<edge from-layer="687" from-port="5" to-layer="695" to-port="0"/>
		<edge from-layer="694" from-port="5" to-layer="695" to-port="1"/>
		<edge from-layer="695" from-port="2" to-layer="697" to-port="0"/>
		<edge from-layer="696" from-port="1" to-layer="697" to-port="1"/>
		<edge from-layer="697" from-port="2" to-layer="699" to-port="0"/>
		<edge from-layer="698" from-port="1" to-layer="699" to-port="1"/>
		<edge from-layer="699" from-port="2" to-layer="701" to-port="0"/>
		<edge from-layer="700" from-port="1" to-layer="701" to-port="1"/>
		<edge from-layer="702" from-port="1" to-layer="703" to-port="0"/>
		<edge from-layer="703" from-port="1" to-layer="708" to-port="0"/>
		<edge from-layer="704" from-port="1" to-layer="708" to-port="1"/>
		<edge from-layer="705" from-port="1" to-layer="708" to-port="2"/>
		<edge from-layer="706" from-port="1" to-layer="708" to-port="3"/>
		<edge from-layer="707" from-port="1" to-layer="708" to-port="4"/>
		<edge from-layer="687" from-port="5" to-layer="709" to-port="0"/>
		<edge from-layer="708" from-port="5" to-layer="709" to-port="1"/>
		<edge from-layer="709" from-port="2" to-layer="711" to-port="0"/>
		<edge from-layer="710" from-port="1" to-layer="711" to-port="1"/>
		<edge from-layer="711" from-port="2" to-layer="712" to-port="0"/>
		<edge from-layer="712" from-port="1" to-layer="717" to-port="0"/>
		<edge from-layer="713" from-port="1" to-layer="717" to-port="1"/>
		<edge from-layer="714" from-port="1" to-layer="717" to-port="2"/>
		<edge from-layer="715" from-port="1" to-layer="717" to-port="3"/>
		<edge from-layer="716" from-port="1" to-layer="717" to-port="4"/>
		<edge from-layer="718" from-port="1" to-layer="719" to-port="0"/>
		<edge from-layer="719" from-port="1" to-layer="724" to-port="0"/>
		<edge from-layer="720" from-port="1" to-layer="724" to-port="1"/>
		<edge from-layer="721" from-port="1" to-layer="724" to-port="2"/>
		<edge from-layer="722" from-port="1" to-layer="724" to-port="3"/>
		<edge from-layer="723" from-port="1" to-layer="724" to-port="4"/>
		<edge from-layer="724" from-port="5" to-layer="726" to-port="0"/>
		<edge from-layer="725" from-port="1" to-layer="726" to-port="1"/>
		<edge from-layer="717" from-port="5" to-layer="727" to-port="0"/>
		<edge from-layer="726" from-port="2" to-layer="727" to-port="1"/>
		<edge from-layer="727" from-port="2" to-layer="729" to-port="0"/>
		<edge from-layer="728" from-port="1" to-layer="729" to-port="1"/>
		<edge from-layer="729" from-port="2" to-layer="730" to-port="0"/>
		<edge from-layer="730" from-port="1" to-layer="735" to-port="0"/>
		<edge from-layer="731" from-port="1" to-layer="735" to-port="1"/>
		<edge from-layer="732" from-port="1" to-layer="735" to-port="2"/>
		<edge from-layer="733" from-port="1" to-layer="735" to-port="3"/>
		<edge from-layer="734" from-port="1" to-layer="735" to-port="4"/>
		<edge from-layer="736" from-port="1" to-layer="737" to-port="0"/>
		<edge from-layer="737" from-port="1" to-layer="742" to-port="0"/>
		<edge from-layer="738" from-port="1" to-layer="742" to-port="1"/>
		<edge from-layer="739" from-port="1" to-layer="742" to-port="2"/>
		<edge from-layer="740" from-port="1" to-layer="742" to-port="3"/>
		<edge from-layer="741" from-port="1" to-layer="742" to-port="4"/>
		<edge from-layer="735" from-port="5" to-layer="743" to-port="0"/>
		<edge from-layer="742" from-port="5" to-layer="743" to-port="1"/>
		<edge from-layer="743" from-port="2" to-layer="745" to-port="0"/>
		<edge from-layer="744" from-port="1" to-layer="745" to-port="1"/>
		<edge from-layer="745" from-port="2" to-layer="746" to-port="0"/>
		<edge from-layer="746" from-port="1" to-layer="751" to-port="0"/>
		<edge from-layer="747" from-port="1" to-layer="751" to-port="1"/>
		<edge from-layer="748" from-port="1" to-layer="751" to-port="2"/>
		<edge from-layer="749" from-port="1" to-layer="751" to-port="3"/>
		<edge from-layer="750" from-port="1" to-layer="751" to-port="4"/>
		<edge from-layer="752" from-port="1" to-layer="753" to-port="0"/>
		<edge from-layer="753" from-port="1" to-layer="758" to-port="0"/>
		<edge from-layer="754" from-port="1" to-layer="758" to-port="1"/>
		<edge from-layer="755" from-port="1" to-layer="758" to-port="2"/>
		<edge from-layer="756" from-port="1" to-layer="758" to-port="3"/>
		<edge from-layer="757" from-port="1" to-layer="758" to-port="4"/>
		<edge from-layer="751" from-port="5" to-layer="759" to-port="0"/>
		<edge from-layer="758" from-port="5" to-layer="759" to-port="1"/>
		<edge from-layer="759" from-port="2" to-layer="761" to-port="0"/>
		<edge from-layer="760" from-port="1" to-layer="761" to-port="1"/>
		<edge from-layer="761" from-port="2" to-layer="763" to-port="0"/>
		<edge from-layer="762" from-port="1" to-layer="763" to-port="1"/>
		<edge from-layer="763" from-port="2" to-layer="765" to-port="0"/>
		<edge from-layer="764" from-port="1" to-layer="765" to-port="1"/>
		<edge from-layer="413" from-port="2" to-layer="766" to-port="0"/>
		<edge from-layer="427" from-port="2" to-layer="766" to-port="1"/>
		<edge from-layer="509" from-port="2" to-layer="766" to-port="2"/>
		<edge from-layer="573" from-port="2" to-layer="766" to-port="3"/>
		<edge from-layer="637" from-port="2" to-layer="766" to-port="4"/>
		<edge from-layer="701" from-port="2" to-layer="766" to-port="5"/>
		<edge from-layer="765" from-port="2" to-layer="766" to-port="6"/>
		<edge from-layer="767" from-port="1" to-layer="768" to-port="0"/>
		<edge from-layer="768" from-port="1" to-layer="773" to-port="0"/>
		<edge from-layer="769" from-port="1" to-layer="773" to-port="1"/>
		<edge from-layer="770" from-port="1" to-layer="773" to-port="2"/>
		<edge from-layer="771" from-port="1" to-layer="773" to-port="3"/>
		<edge from-layer="772" from-port="1" to-layer="773" to-port="4"/>
		<edge from-layer="399" from-port="5" to-layer="774" to-port="0"/>
		<edge from-layer="773" from-port="5" to-layer="774" to-port="1"/>
		<edge from-layer="774" from-port="2" to-layer="776" to-port="0"/>
		<edge from-layer="775" from-port="1" to-layer="776" to-port="1"/>
		<edge from-layer="776" from-port="2" to-layer="777" to-port="0"/>
		<edge from-layer="777" from-port="1" to-layer="782" to-port="0"/>
		<edge from-layer="778" from-port="1" to-layer="782" to-port="1"/>
		<edge from-layer="779" from-port="1" to-layer="782" to-port="2"/>
		<edge from-layer="780" from-port="1" to-layer="782" to-port="3"/>
		<edge from-layer="781" from-port="1" to-layer="782" to-port="4"/>
		<edge from-layer="783" from-port="1" to-layer="784" to-port="0"/>
		<edge from-layer="784" from-port="1" to-layer="789" to-port="0"/>
		<edge from-layer="785" from-port="1" to-layer="789" to-port="1"/>
		<edge from-layer="786" from-port="1" to-layer="789" to-port="2"/>
		<edge from-layer="787" from-port="1" to-layer="789" to-port="3"/>
		<edge from-layer="788" from-port="1" to-layer="789" to-port="4"/>
		<edge from-layer="782" from-port="5" to-layer="790" to-port="0"/>
		<edge from-layer="789" from-port="5" to-layer="790" to-port="1"/>
		<edge from-layer="790" from-port="2" to-layer="792" to-port="0"/>
		<edge from-layer="791" from-port="1" to-layer="792" to-port="1"/>
		<edge from-layer="792" from-port="2" to-layer="793" to-port="0"/>
		<edge from-layer="793" from-port="1" to-layer="798" to-port="0"/>
		<edge from-layer="794" from-port="1" to-layer="798" to-port="1"/>
		<edge from-layer="795" from-port="1" to-layer="798" to-port="2"/>
		<edge from-layer="796" from-port="1" to-layer="798" to-port="3"/>
		<edge from-layer="797" from-port="1" to-layer="798" to-port="4"/>
		<edge from-layer="799" from-port="1" to-layer="800" to-port="0"/>
		<edge from-layer="800" from-port="1" to-layer="805" to-port="0"/>
		<edge from-layer="801" from-port="1" to-layer="805" to-port="1"/>
		<edge from-layer="802" from-port="1" to-layer="805" to-port="2"/>
		<edge from-layer="803" from-port="1" to-layer="805" to-port="3"/>
		<edge from-layer="804" from-port="1" to-layer="805" to-port="4"/>
		<edge from-layer="798" from-port="5" to-layer="806" to-port="0"/>
		<edge from-layer="805" from-port="5" to-layer="806" to-port="1"/>
		<edge from-layer="806" from-port="2" to-layer="808" to-port="0"/>
		<edge from-layer="807" from-port="1" to-layer="808" to-port="1"/>
		<edge from-layer="808" from-port="2" to-layer="810" to-port="0"/>
		<edge from-layer="809" from-port="1" to-layer="810" to-port="1"/>
		<edge from-layer="810" from-port="2" to-layer="812" to-port="0"/>
		<edge from-layer="811" from-port="1" to-layer="812" to-port="1"/>
		<edge from-layer="813" from-port="1" to-layer="814" to-port="0"/>
		<edge from-layer="814" from-port="1" to-layer="819" to-port="0"/>
		<edge from-layer="815" from-port="1" to-layer="819" to-port="1"/>
		<edge from-layer="816" from-port="1" to-layer="819" to-port="2"/>
		<edge from-layer="817" from-port="1" to-layer="819" to-port="3"/>
		<edge from-layer="818" from-port="1" to-layer="819" to-port="4"/>
		<edge from-layer="782" from-port="5" to-layer="820" to-port="0"/>
		<edge from-layer="819" from-port="5" to-layer="820" to-port="1"/>
		<edge from-layer="820" from-port="2" to-layer="822" to-port="0"/>
		<edge from-layer="821" from-port="1" to-layer="822" to-port="1"/>
		<edge from-layer="822" from-port="2" to-layer="823" to-port="0"/>
		<edge from-layer="823" from-port="1" to-layer="828" to-port="0"/>
		<edge from-layer="824" from-port="1" to-layer="828" to-port="1"/>
		<edge from-layer="825" from-port="1" to-layer="828" to-port="2"/>
		<edge from-layer="826" from-port="1" to-layer="828" to-port="3"/>
		<edge from-layer="827" from-port="1" to-layer="828" to-port="4"/>
		<edge from-layer="829" from-port="1" to-layer="830" to-port="0"/>
		<edge from-layer="830" from-port="1" to-layer="835" to-port="0"/>
		<edge from-layer="831" from-port="1" to-layer="835" to-port="1"/>
		<edge from-layer="832" from-port="1" to-layer="835" to-port="2"/>
		<edge from-layer="833" from-port="1" to-layer="835" to-port="3"/>
		<edge from-layer="834" from-port="1" to-layer="835" to-port="4"/>
		<edge from-layer="828" from-port="5" to-layer="836" to-port="0"/>
		<edge from-layer="835" from-port="5" to-layer="836" to-port="1"/>
		<edge from-layer="836" from-port="2" to-layer="838" to-port="0"/>
		<edge from-layer="837" from-port="1" to-layer="838" to-port="1"/>
		<edge from-layer="838" from-port="2" to-layer="840" to-port="0"/>
		<edge from-layer="839" from-port="1" to-layer="840" to-port="1"/>
		<edge from-layer="840" from-port="2" to-layer="842" to-port="0"/>
		<edge from-layer="841" from-port="1" to-layer="842" to-port="1"/>
		<edge from-layer="843" from-port="1" to-layer="844" to-port="0"/>
		<edge from-layer="844" from-port="1" to-layer="849" to-port="0"/>
		<edge from-layer="845" from-port="1" to-layer="849" to-port="1"/>
		<edge from-layer="846" from-port="1" to-layer="849" to-port="2"/>
		<edge from-layer="847" from-port="1" to-layer="849" to-port="3"/>
		<edge from-layer="848" from-port="1" to-layer="849" to-port="4"/>
		<edge from-layer="495" from-port="5" to-layer="850" to-port="0"/>
		<edge from-layer="849" from-port="5" to-layer="850" to-port="1"/>
		<edge from-layer="850" from-port="2" to-layer="852" to-port="0"/>
		<edge from-layer="851" from-port="1" to-layer="852" to-port="1"/>
		<edge from-layer="852" from-port="2" to-layer="853" to-port="0"/>
		<edge from-layer="853" from-port="1" to-layer="858" to-port="0"/>
		<edge from-layer="854" from-port="1" to-layer="858" to-port="1"/>
		<edge from-layer="855" from-port="1" to-layer="858" to-port="2"/>
		<edge from-layer="856" from-port="1" to-layer="858" to-port="3"/>
		<edge from-layer="857" from-port="1" to-layer="858" to-port="4"/>
		<edge from-layer="859" from-port="1" to-layer="860" to-port="0"/>
		<edge from-layer="860" from-port="1" to-layer="865" to-port="0"/>
		<edge from-layer="861" from-port="1" to-layer="865" to-port="1"/>
		<edge from-layer="862" from-port="1" to-layer="865" to-port="2"/>
		<edge from-layer="863" from-port="1" to-layer="865" to-port="3"/>
		<edge from-layer="864" from-port="1" to-layer="865" to-port="4"/>
		<edge from-layer="858" from-port="5" to-layer="866" to-port="0"/>
		<edge from-layer="865" from-port="5" to-layer="866" to-port="1"/>
		<edge from-layer="866" from-port="2" to-layer="868" to-port="0"/>
		<edge from-layer="867" from-port="1" to-layer="868" to-port="1"/>
		<edge from-layer="868" from-port="2" to-layer="869" to-port="0"/>
		<edge from-layer="869" from-port="1" to-layer="874" to-port="0"/>
		<edge from-layer="870" from-port="1" to-layer="874" to-port="1"/>
		<edge from-layer="871" from-port="1" to-layer="874" to-port="2"/>
		<edge from-layer="872" from-port="1" to-layer="874" to-port="3"/>
		<edge from-layer="873" from-port="1" to-layer="874" to-port="4"/>
		<edge from-layer="875" from-port="1" to-layer="876" to-port="0"/>
		<edge from-layer="876" from-port="1" to-layer="881" to-port="0"/>
		<edge from-layer="877" from-port="1" to-layer="881" to-port="1"/>
		<edge from-layer="878" from-port="1" to-layer="881" to-port="2"/>
		<edge from-layer="879" from-port="1" to-layer="881" to-port="3"/>
		<edge from-layer="880" from-port="1" to-layer="881" to-port="4"/>
		<edge from-layer="874" from-port="5" to-layer="882" to-port="0"/>
		<edge from-layer="881" from-port="5" to-layer="882" to-port="1"/>
		<edge from-layer="882" from-port="2" to-layer="884" to-port="0"/>
		<edge from-layer="883" from-port="1" to-layer="884" to-port="1"/>
		<edge from-layer="884" from-port="2" to-layer="886" to-port="0"/>
		<edge from-layer="885" from-port="1" to-layer="886" to-port="1"/>
		<edge from-layer="886" from-port="2" to-layer="888" to-port="0"/>
		<edge from-layer="887" from-port="1" to-layer="888" to-port="1"/>
		<edge from-layer="889" from-port="1" to-layer="890" to-port="0"/>
		<edge from-layer="890" from-port="1" to-layer="895" to-port="0"/>
		<edge from-layer="891" from-port="1" to-layer="895" to-port="1"/>
		<edge from-layer="892" from-port="1" to-layer="895" to-port="2"/>
		<edge from-layer="893" from-port="1" to-layer="895" to-port="3"/>
		<edge from-layer="894" from-port="1" to-layer="895" to-port="4"/>
		<edge from-layer="559" from-port="5" to-layer="896" to-port="0"/>
		<edge from-layer="895" from-port="5" to-layer="896" to-port="1"/>
		<edge from-layer="896" from-port="2" to-layer="898" to-port="0"/>
		<edge from-layer="897" from-port="1" to-layer="898" to-port="1"/>
		<edge from-layer="898" from-port="2" to-layer="899" to-port="0"/>
		<edge from-layer="899" from-port="1" to-layer="904" to-port="0"/>
		<edge from-layer="900" from-port="1" to-layer="904" to-port="1"/>
		<edge from-layer="901" from-port="1" to-layer="904" to-port="2"/>
		<edge from-layer="902" from-port="1" to-layer="904" to-port="3"/>
		<edge from-layer="903" from-port="1" to-layer="904" to-port="4"/>
		<edge from-layer="905" from-port="1" to-layer="906" to-port="0"/>
		<edge from-layer="906" from-port="1" to-layer="911" to-port="0"/>
		<edge from-layer="907" from-port="1" to-layer="911" to-port="1"/>
		<edge from-layer="908" from-port="1" to-layer="911" to-port="2"/>
		<edge from-layer="909" from-port="1" to-layer="911" to-port="3"/>
		<edge from-layer="910" from-port="1" to-layer="911" to-port="4"/>
		<edge from-layer="904" from-port="5" to-layer="912" to-port="0"/>
		<edge from-layer="911" from-port="5" to-layer="912" to-port="1"/>
		<edge from-layer="912" from-port="2" to-layer="914" to-port="0"/>
		<edge from-layer="913" from-port="1" to-layer="914" to-port="1"/>
		<edge from-layer="914" from-port="2" to-layer="915" to-port="0"/>
		<edge from-layer="915" from-port="1" to-layer="920" to-port="0"/>
		<edge from-layer="916" from-port="1" to-layer="920" to-port="1"/>
		<edge from-layer="917" from-port="1" to-layer="920" to-port="2"/>
		<edge from-layer="918" from-port="1" to-layer="920" to-port="3"/>
		<edge from-layer="919" from-port="1" to-layer="920" to-port="4"/>
		<edge from-layer="921" from-port="1" to-layer="922" to-port="0"/>
		<edge from-layer="922" from-port="1" to-layer="927" to-port="0"/>
		<edge from-layer="923" from-port="1" to-layer="927" to-port="1"/>
		<edge from-layer="924" from-port="1" to-layer="927" to-port="2"/>
		<edge from-layer="925" from-port="1" to-layer="927" to-port="3"/>
		<edge from-layer="926" from-port="1" to-layer="927" to-port="4"/>
		<edge from-layer="920" from-port="5" to-layer="928" to-port="0"/>
		<edge from-layer="927" from-port="5" to-layer="928" to-port="1"/>
		<edge from-layer="928" from-port="2" to-layer="930" to-port="0"/>
		<edge from-layer="929" from-port="1" to-layer="930" to-port="1"/>
		<edge from-layer="930" from-port="2" to-layer="932" to-port="0"/>
		<edge from-layer="931" from-port="1" to-layer="932" to-port="1"/>
		<edge from-layer="932" from-port="2" to-layer="934" to-port="0"/>
		<edge from-layer="933" from-port="1" to-layer="934" to-port="1"/>
		<edge from-layer="935" from-port="1" to-layer="936" to-port="0"/>
		<edge from-layer="936" from-port="1" to-layer="941" to-port="0"/>
		<edge from-layer="937" from-port="1" to-layer="941" to-port="1"/>
		<edge from-layer="938" from-port="1" to-layer="941" to-port="2"/>
		<edge from-layer="939" from-port="1" to-layer="941" to-port="3"/>
		<edge from-layer="940" from-port="1" to-layer="941" to-port="4"/>
		<edge from-layer="623" from-port="5" to-layer="942" to-port="0"/>
		<edge from-layer="941" from-port="5" to-layer="942" to-port="1"/>
		<edge from-layer="942" from-port="2" to-layer="944" to-port="0"/>
		<edge from-layer="943" from-port="1" to-layer="944" to-port="1"/>
		<edge from-layer="944" from-port="2" to-layer="945" to-port="0"/>
		<edge from-layer="945" from-port="1" to-layer="950" to-port="0"/>
		<edge from-layer="946" from-port="1" to-layer="950" to-port="1"/>
		<edge from-layer="947" from-port="1" to-layer="950" to-port="2"/>
		<edge from-layer="948" from-port="1" to-layer="950" to-port="3"/>
		<edge from-layer="949" from-port="1" to-layer="950" to-port="4"/>
		<edge from-layer="951" from-port="1" to-layer="952" to-port="0"/>
		<edge from-layer="952" from-port="1" to-layer="957" to-port="0"/>
		<edge from-layer="953" from-port="1" to-layer="957" to-port="1"/>
		<edge from-layer="954" from-port="1" to-layer="957" to-port="2"/>
		<edge from-layer="955" from-port="1" to-layer="957" to-port="3"/>
		<edge from-layer="956" from-port="1" to-layer="957" to-port="4"/>
		<edge from-layer="950" from-port="5" to-layer="958" to-port="0"/>
		<edge from-layer="957" from-port="5" to-layer="958" to-port="1"/>
		<edge from-layer="958" from-port="2" to-layer="960" to-port="0"/>
		<edge from-layer="959" from-port="1" to-layer="960" to-port="1"/>
		<edge from-layer="960" from-port="2" to-layer="961" to-port="0"/>
		<edge from-layer="961" from-port="1" to-layer="966" to-port="0"/>
		<edge from-layer="962" from-port="1" to-layer="966" to-port="1"/>
		<edge from-layer="963" from-port="1" to-layer="966" to-port="2"/>
		<edge from-layer="964" from-port="1" to-layer="966" to-port="3"/>
		<edge from-layer="965" from-port="1" to-layer="966" to-port="4"/>
		<edge from-layer="967" from-port="1" to-layer="968" to-port="0"/>
		<edge from-layer="968" from-port="1" to-layer="973" to-port="0"/>
		<edge from-layer="969" from-port="1" to-layer="973" to-port="1"/>
		<edge from-layer="970" from-port="1" to-layer="973" to-port="2"/>
		<edge from-layer="971" from-port="1" to-layer="973" to-port="3"/>
		<edge from-layer="972" from-port="1" to-layer="973" to-port="4"/>
		<edge from-layer="966" from-port="5" to-layer="974" to-port="0"/>
		<edge from-layer="973" from-port="5" to-layer="974" to-port="1"/>
		<edge from-layer="974" from-port="2" to-layer="976" to-port="0"/>
		<edge from-layer="975" from-port="1" to-layer="976" to-port="1"/>
		<edge from-layer="976" from-port="2" to-layer="978" to-port="0"/>
		<edge from-layer="977" from-port="1" to-layer="978" to-port="1"/>
		<edge from-layer="978" from-port="2" to-layer="980" to-port="0"/>
		<edge from-layer="979" from-port="1" to-layer="980" to-port="1"/>
		<edge from-layer="981" from-port="1" to-layer="982" to-port="0"/>
		<edge from-layer="982" from-port="1" to-layer="987" to-port="0"/>
		<edge from-layer="983" from-port="1" to-layer="987" to-port="1"/>
		<edge from-layer="984" from-port="1" to-layer="987" to-port="2"/>
		<edge from-layer="985" from-port="1" to-layer="987" to-port="3"/>
		<edge from-layer="986" from-port="1" to-layer="987" to-port="4"/>
		<edge from-layer="687" from-port="5" to-layer="988" to-port="0"/>
		<edge from-layer="987" from-port="5" to-layer="988" to-port="1"/>
		<edge from-layer="988" from-port="2" to-layer="990" to-port="0"/>
		<edge from-layer="989" from-port="1" to-layer="990" to-port="1"/>
		<edge from-layer="990" from-port="2" to-layer="991" to-port="0"/>
		<edge from-layer="991" from-port="1" to-layer="996" to-port="0"/>
		<edge from-layer="992" from-port="1" to-layer="996" to-port="1"/>
		<edge from-layer="993" from-port="1" to-layer="996" to-port="2"/>
		<edge from-layer="994" from-port="1" to-layer="996" to-port="3"/>
		<edge from-layer="995" from-port="1" to-layer="996" to-port="4"/>
		<edge from-layer="997" from-port="1" to-layer="998" to-port="0"/>
		<edge from-layer="998" from-port="1" to-layer="1003" to-port="0"/>
		<edge from-layer="999" from-port="1" to-layer="1003" to-port="1"/>
		<edge from-layer="1000" from-port="1" to-layer="1003" to-port="2"/>
		<edge from-layer="1001" from-port="1" to-layer="1003" to-port="3"/>
		<edge from-layer="1002" from-port="1" to-layer="1003" to-port="4"/>
		<edge from-layer="996" from-port="5" to-layer="1004" to-port="0"/>
		<edge from-layer="1003" from-port="5" to-layer="1004" to-port="1"/>
		<edge from-layer="1004" from-port="2" to-layer="1006" to-port="0"/>
		<edge from-layer="1005" from-port="1" to-layer="1006" to-port="1"/>
		<edge from-layer="1006" from-port="2" to-layer="1007" to-port="0"/>
		<edge from-layer="1007" from-port="1" to-layer="1012" to-port="0"/>
		<edge from-layer="1008" from-port="1" to-layer="1012" to-port="1"/>
		<edge from-layer="1009" from-port="1" to-layer="1012" to-port="2"/>
		<edge from-layer="1010" from-port="1" to-layer="1012" to-port="3"/>
		<edge from-layer="1011" from-port="1" to-layer="1012" to-port="4"/>
		<edge from-layer="1013" from-port="1" to-layer="1014" to-port="0"/>
		<edge from-layer="1014" from-port="1" to-layer="1019" to-port="0"/>
		<edge from-layer="1015" from-port="1" to-layer="1019" to-port="1"/>
		<edge from-layer="1016" from-port="1" to-layer="1019" to-port="2"/>
		<edge from-layer="1017" from-port="1" to-layer="1019" to-port="3"/>
		<edge from-layer="1018" from-port="1" to-layer="1019" to-port="4"/>
		<edge from-layer="1012" from-port="5" to-layer="1020" to-port="0"/>
		<edge from-layer="1019" from-port="5" to-layer="1020" to-port="1"/>
		<edge from-layer="1020" from-port="2" to-layer="1022" to-port="0"/>
		<edge from-layer="1021" from-port="1" to-layer="1022" to-port="1"/>
		<edge from-layer="1022" from-port="2" to-layer="1024" to-port="0"/>
		<edge from-layer="1023" from-port="1" to-layer="1024" to-port="1"/>
		<edge from-layer="1024" from-port="2" to-layer="1026" to-port="0"/>
		<edge from-layer="1025" from-port="1" to-layer="1026" to-port="1"/>
		<edge from-layer="1027" from-port="1" to-layer="1028" to-port="0"/>
		<edge from-layer="1028" from-port="1" to-layer="1033" to-port="0"/>
		<edge from-layer="1029" from-port="1" to-layer="1033" to-port="1"/>
		<edge from-layer="1030" from-port="1" to-layer="1033" to-port="2"/>
		<edge from-layer="1031" from-port="1" to-layer="1033" to-port="3"/>
		<edge from-layer="1032" from-port="1" to-layer="1033" to-port="4"/>
		<edge from-layer="751" from-port="5" to-layer="1034" to-port="0"/>
		<edge from-layer="1033" from-port="5" to-layer="1034" to-port="1"/>
		<edge from-layer="1034" from-port="2" to-layer="1036" to-port="0"/>
		<edge from-layer="1035" from-port="1" to-layer="1036" to-port="1"/>
		<edge from-layer="1036" from-port="2" to-layer="1037" to-port="0"/>
		<edge from-layer="1037" from-port="1" to-layer="1042" to-port="0"/>
		<edge from-layer="1038" from-port="1" to-layer="1042" to-port="1"/>
		<edge from-layer="1039" from-port="1" to-layer="1042" to-port="2"/>
		<edge from-layer="1040" from-port="1" to-layer="1042" to-port="3"/>
		<edge from-layer="1041" from-port="1" to-layer="1042" to-port="4"/>
		<edge from-layer="1043" from-port="1" to-layer="1044" to-port="0"/>
		<edge from-layer="1044" from-port="1" to-layer="1049" to-port="0"/>
		<edge from-layer="1045" from-port="1" to-layer="1049" to-port="1"/>
		<edge from-layer="1046" from-port="1" to-layer="1049" to-port="2"/>
		<edge from-layer="1047" from-port="1" to-layer="1049" to-port="3"/>
		<edge from-layer="1048" from-port="1" to-layer="1049" to-port="4"/>
		<edge from-layer="1042" from-port="5" to-layer="1050" to-port="0"/>
		<edge from-layer="1049" from-port="5" to-layer="1050" to-port="1"/>
		<edge from-layer="1050" from-port="2" to-layer="1052" to-port="0"/>
		<edge from-layer="1051" from-port="1" to-layer="1052" to-port="1"/>
		<edge from-layer="1052" from-port="2" to-layer="1053" to-port="0"/>
		<edge from-layer="1053" from-port="1" to-layer="1058" to-port="0"/>
		<edge from-layer="1054" from-port="1" to-layer="1058" to-port="1"/>
		<edge from-layer="1055" from-port="1" to-layer="1058" to-port="2"/>
		<edge from-layer="1056" from-port="1" to-layer="1058" to-port="3"/>
		<edge from-layer="1057" from-port="1" to-layer="1058" to-port="4"/>
		<edge from-layer="1059" from-port="1" to-layer="1060" to-port="0"/>
		<edge from-layer="1060" from-port="1" to-layer="1065" to-port="0"/>
		<edge from-layer="1061" from-port="1" to-layer="1065" to-port="1"/>
		<edge from-layer="1062" from-port="1" to-layer="1065" to-port="2"/>
		<edge from-layer="1063" from-port="1" to-layer="1065" to-port="3"/>
		<edge from-layer="1064" from-port="1" to-layer="1065" to-port="4"/>
		<edge from-layer="1058" from-port="5" to-layer="1066" to-port="0"/>
		<edge from-layer="1065" from-port="5" to-layer="1066" to-port="1"/>
		<edge from-layer="1066" from-port="2" to-layer="1068" to-port="0"/>
		<edge from-layer="1067" from-port="1" to-layer="1068" to-port="1"/>
		<edge from-layer="1068" from-port="2" to-layer="1070" to-port="0"/>
		<edge from-layer="1069" from-port="1" to-layer="1070" to-port="1"/>
		<edge from-layer="1070" from-port="2" to-layer="1072" to-port="0"/>
		<edge from-layer="1071" from-port="1" to-layer="1072" to-port="1"/>
		<edge from-layer="812" from-port="2" to-layer="1073" to-port="0"/>
		<edge from-layer="842" from-port="2" to-layer="1073" to-port="1"/>
		<edge from-layer="888" from-port="2" to-layer="1073" to-port="2"/>
		<edge from-layer="934" from-port="2" to-layer="1073" to-port="3"/>
		<edge from-layer="980" from-port="2" to-layer="1073" to-port="4"/>
		<edge from-layer="1026" from-port="2" to-layer="1073" to-port="5"/>
		<edge from-layer="1072" from-port="2" to-layer="1073" to-port="6"/>
		<edge from-layer="1073" from-port="7" to-layer="1075" to-port="0"/>
		<edge from-layer="1074" from-port="1" to-layer="1075" to-port="1"/>
		<edge from-layer="1075" from-port="2" to-layer="1076" to-port="0"/>
		<edge from-layer="1076" from-port="1" to-layer="1078" to-port="0"/>
		<edge from-layer="1077" from-port="1" to-layer="1078" to-port="1"/>
		<edge from-layer="394" from-port="1" to-layer="1079" to-port="0"/>
		<edge from-layer="1079" from-port="1" to-layer="1080" to-port="0"/>
		<edge from-layer="1080" from-port="1" to-layer="1084" to-port="0"/>
		<edge from-layer="1081" from-port="1" to-layer="1084" to-port="1"/>
		<edge from-layer="1082" from-port="1" to-layer="1084" to-port="2"/>
		<edge from-layer="1083" from-port="1" to-layer="1084" to-port="3"/>
		<edge from-layer="1084" from-port="4" to-layer="1085" to-port="0"/>
		<edge from-layer="4" from-port="2" to-layer="1086" to-port="0"/>
		<edge from-layer="1086" from-port="1" to-layer="1087" to-port="0"/>
		<edge from-layer="1087" from-port="1" to-layer="1091" to-port="0"/>
		<edge from-layer="1088" from-port="1" to-layer="1091" to-port="1"/>
		<edge from-layer="1089" from-port="1" to-layer="1091" to-port="2"/>
		<edge from-layer="1090" from-port="1" to-layer="1091" to-port="3"/>
		<edge from-layer="1091" from-port="4" to-layer="1092" to-port="0"/>
		<edge from-layer="1085" from-port="1" to-layer="1093" to-port="0"/>
		<edge from-layer="1092" from-port="1" to-layer="1093" to-port="1"/>
		<edge from-layer="1093" from-port="2" to-layer="1095" to-port="0"/>
		<edge from-layer="1094" from-port="1" to-layer="1095" to-port="1"/>
		<edge from-layer="394" from-port="1" to-layer="1096" to-port="0"/>
		<edge from-layer="1096" from-port="1" to-layer="1097" to-port="0"/>
		<edge from-layer="1097" from-port="1" to-layer="1101" to-port="0"/>
		<edge from-layer="1098" from-port="1" to-layer="1101" to-port="1"/>
		<edge from-layer="1099" from-port="1" to-layer="1101" to-port="2"/>
		<edge from-layer="1100" from-port="1" to-layer="1101" to-port="3"/>
		<edge from-layer="1101" from-port="4" to-layer="1102" to-port="0"/>
		<edge from-layer="4" from-port="2" to-layer="1103" to-port="0"/>
		<edge from-layer="1103" from-port="1" to-layer="1104" to-port="0"/>
		<edge from-layer="1104" from-port="1" to-layer="1108" to-port="0"/>
		<edge from-layer="1105" from-port="1" to-layer="1108" to-port="1"/>
		<edge from-layer="1106" from-port="1" to-layer="1108" to-port="2"/>
		<edge from-layer="1107" from-port="1" to-layer="1108" to-port="3"/>
		<edge from-layer="1108" from-port="4" to-layer="1109" to-port="0"/>
		<edge from-layer="1102" from-port="1" to-layer="1110" to-port="0"/>
		<edge from-layer="1109" from-port="1" to-layer="1110" to-port="1"/>
		<edge from-layer="1110" from-port="2" to-layer="1112" to-port="0"/>
		<edge from-layer="1111" from-port="1" to-layer="1112" to-port="1"/>
		<edge from-layer="490" from-port="1" to-layer="1113" to-port="0"/>
		<edge from-layer="1113" from-port="1" to-layer="1114" to-port="0"/>
		<edge from-layer="1114" from-port="1" to-layer="1118" to-port="0"/>
		<edge from-layer="1115" from-port="1" to-layer="1118" to-port="1"/>
		<edge from-layer="1116" from-port="1" to-layer="1118" to-port="2"/>
		<edge from-layer="1117" from-port="1" to-layer="1118" to-port="3"/>
		<edge from-layer="1118" from-port="4" to-layer="1119" to-port="0"/>
		<edge from-layer="4" from-port="2" to-layer="1120" to-port="0"/>
		<edge from-layer="1120" from-port="1" to-layer="1121" to-port="0"/>
		<edge from-layer="1121" from-port="1" to-layer="1125" to-port="0"/>
		<edge from-layer="1122" from-port="1" to-layer="1125" to-port="1"/>
		<edge from-layer="1123" from-port="1" to-layer="1125" to-port="2"/>
		<edge from-layer="1124" from-port="1" to-layer="1125" to-port="3"/>
		<edge from-layer="1125" from-port="4" to-layer="1126" to-port="0"/>
		<edge from-layer="1119" from-port="1" to-layer="1127" to-port="0"/>
		<edge from-layer="1126" from-port="1" to-layer="1127" to-port="1"/>
		<edge from-layer="1127" from-port="2" to-layer="1129" to-port="0"/>
		<edge from-layer="1128" from-port="1" to-layer="1129" to-port="1"/>
		<edge from-layer="554" from-port="1" to-layer="1130" to-port="0"/>
		<edge from-layer="1130" from-port="1" to-layer="1131" to-port="0"/>
		<edge from-layer="1131" from-port="1" to-layer="1135" to-port="0"/>
		<edge from-layer="1132" from-port="1" to-layer="1135" to-port="1"/>
		<edge from-layer="1133" from-port="1" to-layer="1135" to-port="2"/>
		<edge from-layer="1134" from-port="1" to-layer="1135" to-port="3"/>
		<edge from-layer="1135" from-port="4" to-layer="1136" to-port="0"/>
		<edge from-layer="4" from-port="2" to-layer="1137" to-port="0"/>
		<edge from-layer="1137" from-port="1" to-layer="1138" to-port="0"/>
		<edge from-layer="1138" from-port="1" to-layer="1142" to-port="0"/>
		<edge from-layer="1139" from-port="1" to-layer="1142" to-port="1"/>
		<edge from-layer="1140" from-port="1" to-layer="1142" to-port="2"/>
		<edge from-layer="1141" from-port="1" to-layer="1142" to-port="3"/>
		<edge from-layer="1142" from-port="4" to-layer="1143" to-port="0"/>
		<edge from-layer="1136" from-port="1" to-layer="1144" to-port="0"/>
		<edge from-layer="1143" from-port="1" to-layer="1144" to-port="1"/>
		<edge from-layer="1144" from-port="2" to-layer="1146" to-port="0"/>
		<edge from-layer="1145" from-port="1" to-layer="1146" to-port="1"/>
		<edge from-layer="618" from-port="1" to-layer="1147" to-port="0"/>
		<edge from-layer="1147" from-port="1" to-layer="1148" to-port="0"/>
		<edge from-layer="1148" from-port="1" to-layer="1152" to-port="0"/>
		<edge from-layer="1149" from-port="1" to-layer="1152" to-port="1"/>
		<edge from-layer="1150" from-port="1" to-layer="1152" to-port="2"/>
		<edge from-layer="1151" from-port="1" to-layer="1152" to-port="3"/>
		<edge from-layer="1152" from-port="4" to-layer="1153" to-port="0"/>
		<edge from-layer="4" from-port="2" to-layer="1154" to-port="0"/>
		<edge from-layer="1154" from-port="1" to-layer="1155" to-port="0"/>
		<edge from-layer="1155" from-port="1" to-layer="1159" to-port="0"/>
		<edge from-layer="1156" from-port="1" to-layer="1159" to-port="1"/>
		<edge from-layer="1157" from-port="1" to-layer="1159" to-port="2"/>
		<edge from-layer="1158" from-port="1" to-layer="1159" to-port="3"/>
		<edge from-layer="1159" from-port="4" to-layer="1160" to-port="0"/>
		<edge from-layer="1153" from-port="1" to-layer="1161" to-port="0"/>
		<edge from-layer="1160" from-port="1" to-layer="1161" to-port="1"/>
		<edge from-layer="1161" from-port="2" to-layer="1163" to-port="0"/>
		<edge from-layer="1162" from-port="1" to-layer="1163" to-port="1"/>
		<edge from-layer="682" from-port="1" to-layer="1164" to-port="0"/>
		<edge from-layer="1164" from-port="1" to-layer="1165" to-port="0"/>
		<edge from-layer="1165" from-port="1" to-layer="1169" to-port="0"/>
		<edge from-layer="1166" from-port="1" to-layer="1169" to-port="1"/>
		<edge from-layer="1167" from-port="1" to-layer="1169" to-port="2"/>
		<edge from-layer="1168" from-port="1" to-layer="1169" to-port="3"/>
		<edge from-layer="1169" from-port="4" to-layer="1170" to-port="0"/>
		<edge from-layer="4" from-port="2" to-layer="1171" to-port="0"/>
		<edge from-layer="1171" from-port="1" to-layer="1172" to-port="0"/>
		<edge from-layer="1172" from-port="1" to-layer="1176" to-port="0"/>
		<edge from-layer="1173" from-port="1" to-layer="1176" to-port="1"/>
		<edge from-layer="1174" from-port="1" to-layer="1176" to-port="2"/>
		<edge from-layer="1175" from-port="1" to-layer="1176" to-port="3"/>
		<edge from-layer="1176" from-port="4" to-layer="1177" to-port="0"/>
		<edge from-layer="1170" from-port="1" to-layer="1178" to-port="0"/>
		<edge from-layer="1177" from-port="1" to-layer="1178" to-port="1"/>
		<edge from-layer="1178" from-port="2" to-layer="1180" to-port="0"/>
		<edge from-layer="1179" from-port="1" to-layer="1180" to-port="1"/>
		<edge from-layer="746" from-port="1" to-layer="1181" to-port="0"/>
		<edge from-layer="1181" from-port="1" to-layer="1182" to-port="0"/>
		<edge from-layer="1182" from-port="1" to-layer="1186" to-port="0"/>
		<edge from-layer="1183" from-port="1" to-layer="1186" to-port="1"/>
		<edge from-layer="1184" from-port="1" to-layer="1186" to-port="2"/>
		<edge from-layer="1185" from-port="1" to-layer="1186" to-port="3"/>
		<edge from-layer="1186" from-port="4" to-layer="1187" to-port="0"/>
		<edge from-layer="4" from-port="2" to-layer="1188" to-port="0"/>
		<edge from-layer="1188" from-port="1" to-layer="1189" to-port="0"/>
		<edge from-layer="1189" from-port="1" to-layer="1193" to-port="0"/>
		<edge from-layer="1190" from-port="1" to-layer="1193" to-port="1"/>
		<edge from-layer="1191" from-port="1" to-layer="1193" to-port="2"/>
		<edge from-layer="1192" from-port="1" to-layer="1193" to-port="3"/>
		<edge from-layer="1193" from-port="4" to-layer="1194" to-port="0"/>
		<edge from-layer="1187" from-port="1" to-layer="1195" to-port="0"/>
		<edge from-layer="1194" from-port="1" to-layer="1195" to-port="1"/>
		<edge from-layer="1195" from-port="2" to-layer="1197" to-port="0"/>
		<edge from-layer="1196" from-port="1" to-layer="1197" to-port="1"/>
		<edge from-layer="1095" from-port="2" to-layer="1198" to-port="0"/>
		<edge from-layer="1112" from-port="2" to-layer="1198" to-port="1"/>
		<edge from-layer="1129" from-port="2" to-layer="1198" to-port="2"/>
		<edge from-layer="1146" from-port="2" to-layer="1198" to-port="3"/>
		<edge from-layer="1163" from-port="2" to-layer="1198" to-port="4"/>
		<edge from-layer="1180" from-port="2" to-layer="1198" to-port="5"/>
		<edge from-layer="1197" from-port="2" to-layer="1198" to-port="6"/>
		<edge from-layer="766" from-port="7" to-layer="1199" to-port="0"/>
		<edge from-layer="1078" from-port="2" to-layer="1199" to-port="1"/>
		<edge from-layer="1198" from-port="7" to-layer="1199" to-port="2"/>
		<edge from-layer="1199" from-port="3" to-layer="1200" to-port="0"/>
	</edges>
	<meta_data>
		<MO_version value="unknown version"/>
		<cli_parameters>
			<blobs_as_inputs value="True"/>
			<caffe_parser_path value="DIR"/>
			<data_type value="FP16"/>
			<disable_nhwc_to_nchw value="False"/>
			<disable_omitting_optional value="False"/>
			<disable_resnet_optimization value="False"/>
			<disable_weights_compression value="False"/>
			<enable_concat_optimization value="False"/>
			<enable_flattening_nested_params value="False"/>
			<enable_ssd_gluoncv value="False"/>
			<extensions value="DIR"/>
			<framework value="caffe"/>
			<freeze_placeholder_with_value value="{}"/>
			<generate_deprecated_IR_V2 value="False"/>
			<generate_deprecated_IR_V7 value="False"/>
			<generate_experimental_IR_V10 value="True"/>
			<input value="data"/>
			<input_model value="DIR/model.caffemodel"/>
			<input_model_is_text value="False"/>
			<input_proto value="DIR/deploy.prototxt"/>
			<input_shape value="[1,3,384,672]"/>
			<k value="DIR/CustomLayersMapping.xml"/>
			<keep_quantize_ops_in_IR value="True"/>
			<keep_shape_ops value="True"/>
			<legacy_mxnet_model value="False"/>
			<log_level value="ERROR"/>
			<mean_scale_values value="{'data': {'mean': array([ 88., 107., 102.]), 'scale': array([76.9231])}}"/>
			<mean_values value="data[88.0,107.0,102.0]"/>
			<model_name value="face-detection-adas-0001"/>
			<move_to_preprocess value="False"/>
			<output value="['detection_out']"/>
			<output_dir value="DIR"/>
			<placeholder_data_types value="{}"/>
			<placeholder_shapes value="{'data': array([  1,   3, 384, 672])}"/>
			<progress value="False"/>
			<remove_memory value="False"/>
			<remove_output_softmax value="False"/>
			<reverse_input_channels value="False"/>
			<save_params_from_nd value="False"/>
			<scale_values value="data[76.9231]"/>
			<silent value="False"/>
			<stream_output value="False"/>
			<unset unset_cli_parameters="batch, counts, disable_fusing, disable_gfusing, finegrain_fusing, input_checkpoint, input_meta_graph, input_symbol, mean_file, mean_file_offsets, nd_prefix_name, pretrained_model_name, saved_model_dir, saved_model_tags, scale, tensorboard_logdir, tensorflow_custom_layer_libraries, tensorflow_custom_operations_config_update, tensorflow_object_detection_api_pipeline_config, tensorflow_use_custom_operations_config, transformations_config"/>
		</cli_parameters>
	</meta_data>
	<quantization_parameters>
		<config>{
		'compression': {
			'algorithms': [
				{
					'name': 'DefaultQuantization',
					'params': {
						'preset': 'performance',
						'stat_subset_size': 300
					}
				}
			],
			'target_device': 'CPU'
		},
		'engine': {
			'models': [
				{
					'name': 'face-detection-adas-0001',
					'launchers': [
						{
							'framework': 'dlsdk',
							'tags': [
								'FP32'
							],
							'model': 'PATH',
							'weights': 'PATH',
							'adapter': 'ssd',
							'device': 'CPU'
						}
					],
					'datasets': [
						{
							'name': 'wider',
							'data_source': 'PATH',
							'annotation_conversion': {
								'converter': 'wider',
								'annotation_file': 'PATH'
							},
							'annotation': 'wider.pickle',
							'dataset_meta': 'wider.json',
							'preprocessing': [
								{
									'type': 'resize',
									'dst_width': 672,
									'dst_height': 384
								}
							],
							'postprocessing': [
								{
									'type': 'resize_prediction_boxes'
								},
								{
									'type': 'filter',
									'height_range': 100,
									'apply_to': 'annotation'
								}
							],
							'metrics': [
								{
									'type': 'map',
									'ignore_difficult': true,
									'include_boundaries': false,
									'allow_multiple_matches_per_ignored': true,
									'use_filtered_tp': true
								}
							]
						}
					]
				},
				{
					'name': 'face-detection-adas-0001',
					'launchers': [
						{
							'framework': 'dlsdk',
							'tags': [
								'FP16'
							],
							'model': 'PATH',
							'weights': 'PATH',
							'adapter': 'ssd',
							'device': 'CPU'
						}
					],
					'datasets': [
						{
							'name': 'wider',
							'data_source': 'PATH',
							'annotation_conversion': {
								'converter': 'wider',
								'annotation_file': 'PATH'
							},
							'annotation': 'wider.pickle',
							'dataset_meta': 'wider.json',
							'preprocessing': [
								{
									'type': 'resize',
									'dst_width': 672,
									'dst_height': 384
								}
							],
							'postprocessing': [
								{
									'type': 'resize_prediction_boxes'
								},
								{
									'type': 'filter',
									'height_range': 100,
									'apply_to': 'annotation'
								}
							],
							'metrics': [
								{
									'type': 'map',
									'ignore_difficult': true,
									'include_boundaries': false,
									'allow_multiple_matches_per_ignored': true,
									'use_filtered_tp': true
								}
							]
						}
					]
				},
				{
					'name': 'face-detection-adas-0001',
					'launchers': [
						{
							'framework': 'dlsdk',
							'tags': [
								'FP16-INT8'
							],
							'model': 'PATH',
							'weights': 'PATH',
							'adapter': 'ssd',
							'device': 'CPU'
						}
					],
					'datasets': [
						{
							'name': 'wider',
							'data_source': 'PATH',
							'annotation_conversion': {
								'converter': 'wider',
								'annotation_file': 'PATH'
							},
							'annotation': 'wider.pickle',
							'dataset_meta': 'wider.json',
							'preprocessing': [
								{
									'type': 'resize',
									'dst_width': 672,
									'dst_height': 384
								}
							],
							'postprocessing': [
								{
									'type': 'resize_prediction_boxes'
								},
								{
									'type': 'filter',
									'height_range': 100,
									'apply_to': 'annotation'
								}
							],
							'metrics': [
								{
									'type': 'map',
									'ignore_difficult': true,
									'include_boundaries': false,
									'allow_multiple_matches_per_ignored': true,
									'use_filtered_tp': true
								}
							]
						}
					]
				}
			],
			'global_definitions': '../dataset_definitions.yml',
			'stat_requests_number': null,
			'eval_requests_number': null,
			'type': 'accuracy_checker'
		}
	}</config>
		<version value="1.0"/>
		<cli_params value="{'evaluate': False, 'output_dir': 'PATH', 'direct_dump': True, 'log_level': 'INFO', 'pbar': False, 'keep_uncompressed_weights': False}"/>
	</quantization_parameters>
</net>
